Neural_ODE/MPI/Trained_Weights.npy (npy, 1272 bytes, 1 tensors)

array f8 [1, 143]
0.7889146071998258 0.5293542541214038 -0.3681106714193175 -0.4290158332001431 -0.19250833710898402 0.05138796666101571 1.0244900933815515 0.33251372239033977
0.09869266115899224 0.6216171880371663 0.1445170583210215 0.08481932035933844 -0.4953252704329004 0.5913308186680303 0.596791215672561 0.42569688235303754
0.5038911653767986 -0.24982690361860402 0.3667594177282347 -0.40389264323666296 -1.1640343007414342 -0.42793554885408286 0.4236019554680719 0.2320518641887595
0.024503287830857225 0.9402509271151434 0.04503330148669366 0.6666634413608404 -0.31811040714761957 0.9468019147618361 0.5364287689932277 -0.5567760315392956
-1.048358755498358 0.9186175609663145 0.8683727421615554 -0.22473142073963726 0.5501591176325662 -0.11040261195058713 1.288950284058547 0.222195509071934
1.6447978529069032 -0.9798728937869099 -1.2176913815457648 0.6144717276860517 0.6809804468952734 -0.5385943198894222 -1.062065511962481 -0.15523629081296858
-0.8842615131493561 1.4524741730935664 0.4190674357034009 0.5141673584657818 -2.029421853303304 1.7254020820001255 1.404105970351849 -0.9264655534907377
1.2892794763670223 1.1826175835053034 2.4407098954660498 -0.9726021393940889 -0.3984282004599469 -0.21397840122813994 0.3251955472793733 0.5835411914304697
0.4172367120349627 -0.3352194570288885 0.7507290158436724 -0.11658226538097907 0.24898697855548574 0.3219192045894827 -0.3323638447665854 -0.31193851228109043
-0.16771291193299168 0.284750706929553 0.19904719964625173 -0.2639603096288987 0.26084013616997376 0.2238520926754559 0.1495527367697273 0.38428599194015445
0.060410079885069884 -0.46839123461619303 1.2373149030324626 -0.5800539220881923 -0.5473958481972506 -0.5755870319377887 -0.2602671751076788 -0.42702033830944225
-0.8231388679201969 0.014034285902126287 0.2505028612851895 0.3038846094005143 -0.06309271046027026 0.4547952399360741 0.2618202988115252 0.9668510032814229
-0.5375122498135244 0.3579628634412703 -0.3718479111709712 -0.2616705313194935 0.8369236781886238 0.7561488691989408 -0.5278793438322359 -0.1866045294830976
-0.19722641360832394 -1.0136443653200178 -0.28946379733271677 0.04951306540383529 0.019402892371014925 -0.9533205159045997 0.7972877461195531 0.3111522496382267
0.3144901882762815 -0.322822038161418 -0.16738174524790342 0.35250723513796484 0.10762698005877888 0.386664358944254 0.7298513904930158 -0.6702117570263215
-0.3555056668713761 -0.7636264778841587 0.09879341215863376 -0.02064770707404307 -0.41807135064834106 -0.500294446782201 -0.5705307811446609 -0.5351187963874556
0.2497187606222465 0.07701615066714423 -0.24708095192316704 0.2384150798695888 1.343549186714319 0.4214058776158801 -0.4079990706288301 -0.5064004651440734
-0.8291874665298077 -0.13352917669973483 0.06271558315661138 -0.4247639983389596 -0.24810381970807174 -0.605949159515229 0.1166089135792164
00000000: 6951 a8d8 c93e e93f 9a65 2e55 78f0 e03f
00000010: 167e c30f 208f d7bf 3de4 43d3 fe74 dbbf
00000020: 3293 0bfa 1ca4 c8bf ba1a 6f08 864f aa3f
00000030: 6065 62b9 4f64 f03f 9bd0 c8a2 e747 d53f
00000040: 0178 0818 ec43 b93f 1b09 a8ba 49e4 e33f
00000050: 05f9 99f3 887f c23f 7526 030f b8b6 b53f
00000060: 0211 59c3 68b3 dfbf 9f79 e99b 2eec e23f
00000070: c651 3be4 e918 e33f 07ca ed22 9e3e db3f
00000080: 762c 815d e01f e03f eff6 59f6 53fa cfbf
00000090: 2823 297e fc78 d73f 40f9 7287 60d9 d9bf
000000a0: ffb4 516e e29f f2bf 31f1 c7c8 4b63 dbbf
000000b0: f872 5060 4b1c db3f b251 d51f e0b3 cd3f
000000c0: 2714 83cf 6317 993f 76c8 bf1c 8916 ee3f
000000d0: 1986 3bda 9a0e a73f 0bad c291 4e55 e53f
000000e0: 61d7 cdc0 eb5b d4bf 0a27 7687 334c ee3f
000000f0: d4b3 6eaa 6c2a e13f d60d d5f7 1bd1 e1bf
00000100: 8a73 95d4 13c6 f0bf 2036 bca7 5065 ed3f
00000110: 894b 0aa2 b5c9 eb3f 04ed 3acb ffc3 ccbf
00000120: b47f 3a4b e79a e13f 1b83 b877 5843 bcbf
00000130: cf38 4355 8a9f f43f 7d19 6406 e770 cc3f
00000140: 3942 ac8d 1751 fa3f 32a7 2166 1e5b efbf
00000150: 0bc3 45f5 a97b f3bf 7f4d d79c c0a9 e33f
00000160: 662e 9481 97ca e53f d790 b727 2a3c e1bf
00000170: e469 0168 38fe f0bf 7ad6 1864 c8de c3bf
00000180: 8ed0 02cd de4b ecbf 4f8b fb8e 553d f73f
00000190: 468a ca38 00d2 da3f eeff a81a 0f74 e03f
000001a0: 9fcd 4d86 413c 00c0 eb40 aa36 3f9b fb3f
000001b0: fc78 6cd2 3777 f63f cd9f a316 9ba5 edbf
000001c0: e667 2684 e3a0 f43f f946 4d6a 00ec f23f
000001d0: f066 e0e8 9286 0340 acf3 9685 8e1f efbf
000001e0: 09e5 b1fe d87f d9bf 0ca1 a9ed a463 cbbf
000001f0: a8a9 17fc 00d0 d43f fd01 a293 5eac e23f
00000200: f45d 389c 01b4 da3f 4901 3b4f 3c74 d5bf
00000210: 6c9e 66db f805 e83f 9ada 1ad9 55d8 bdbf
00000220: fa48 0329 cede cf3f 63a2 ea01 539a d43f
00000230: ae4c e900 7345 d5bf 270d 27f3 ccf6 d3bf
00000240: 913f efdf 9d77 c5bf b19e 7107 5b39 d23f
00000250: 00a7 6bee 607a c93f f414 53c8 b9e4 d0bf
00000260: ed63 95d3 9ab1 d03f c753 9774 2fa7 cc3f
00000270: ee04 ba48 8b24 c33f 9468 ec45 2498 d83f
00000280: d405 e9ea 11ee ae3f 1637 9a3a 1ffa ddbf
00000290: a00b 36b6 0acc f33f 5321 293e cd8f e2bf
000002a0: dd25 3f4c 4484 e1bf 9695 c57e 356b e2bf
000002b0: 88d3 53a7 37a8 d0bf ad04 f11c 4d54 dbbf
000002c0: 2514 b952 2757 eabf 7a5d c7f7 01be 8c3f
000002d0: 5a8e 3127 3d08 d03f 2482 c86e d872 d33f
000002e0: bcf8 0a08 d826 b0bf ebb8 797e 5d1b dd3f
000002f0: c3c3 34ed a9c1 d03f 1d5a e683 71f0 ee3f
00000300: 43c0 c4e3 4c33 e1bf d36a ea11 dde8 d63f
00000310: cd2c 642e 5bcc d7bf db06 96c1 35bf d0bf
00000320: 6e2e 622a 14c8 ea3f 17bd 031d 5f32 e83f
00000330: dfc9 bf38 63e4 e0bf e92a b53f a8e2 c7bf
00000340: 9874 2d12 b73e c9bf bb2f 6d27 e337 f0bf
00000350: 20e1 ba29 9386 d2bf 73b3 44c9 c659 a93f
00000360: 2aab b910 5ade 933f b850 cd06 9a81 eebf
00000370: 94b8 6297 6183 e93f 0579 1120 ebe9 d33f
00000380: 0acf 6374 9b20 d43f e934 15c4 1da9 d4bf
00000390: 49c1 e4d8 c36c c5bf 1957 a181 7a8f d63f
000003a0: 060b 8517 718d bb3f a870 0cde 1bbf d83f
000003b0: b171 a34d f15a e73f f653 3aed 5f72 e5bf
000003c0: b455 30d7 9ac0 d6bf 7be8 9bcb a06f e8bf
000003d0: ad15 486a 864a b93f e24a 7b2a ac24 95bf
000003e0: 9377 9b56 aec1 dabf 5299 e97f 6902 e0bf
000003f0: ba15 ccc4 c941 e2bf 2bb0 3e74 b11f e1bf
00000400: 5bfc 08cb c8f6 cf3f cc12 6198 54b7 b33f
00000410: 14be fc3f 59a0 cfbf d9e0 74a5 6284 ce3f
00000420: 1c16 986e 2d7f f53f daf3 ac5b 50f8 da3f
00000430: d08c 4922 a81c dabf ae22 8fbf 6e34 e0bf
00000440: aff4 5f27 b488 eabf 775b 7eeb 7b17 c1bf
00000450: 6672 9be2 200e b03f f293 5856 552f dbbf
00000460: 2555 d4af ddc1 cfbf d502 e57d ef63 e3bf
00000470: d6ac 3eee 14da bd3f
