Pytorch_PINN/conservative.ckpt (torch, 23689 bytes, 9 tensors)

fc1.weight f4 [40, 2]
0	0xbed01580	-0.40641403
1	0x3de79b78	0.1130895
2	0xbf2008a4	-0.62513185
3	0x3e7dae44	0.24773508
4	0x3ef59eb2	0.47972637
5	0x3d04f1b4	0.03245707
6	0xbe5f3eda	-0.2180132
7	0xbdf7658c	-0.120799154
8	0xbc038329	-0.0080268765
9	0xbe20d83e	-0.1570749
10	0x3e3ecfb6	0.18633923
11	0x3ef2958f	0.4737973
12	0x3e787fc0	0.24267483
13	0xbe441c4d	-0.19151421
14	0xbf325aa7	-0.69669574
15	0xbf82dbfe	-1.0223386
16	0x3f131a55	0.57462054
17	0x3d22e8a8	0.03977266
18	0xbf34baf9	-0.705978
19	0xbf22baec	-0.6356647
20	0xbe93f6a3	-0.28899106
21	0xbd8e1c5f	-0.06939005
22	0x3f15af04	0.5847018
23	0x3e844994	0.25837386
24	0xbe939268	-0.28822637
25	0x3e303aeb	0.17209975
26	0x3e649b9b	0.22324984
27	0xbf2c66ee	-0.6734456
28	0xbd82ae68	-0.063809216
29	0xbec4938d	-0.38393822
30	0x3f19ea8d	0.6012352
31	0xbe62bd15	-0.22142442
32	0x3dd9ca13	0.10634246
33	0x3f49bef5	0.78807
34	0x3e9efeb3	0.31053695
35	0xbe9fb3d1	-0.31191877
36	0x3f04c667	0.5186524
37	0xbf05ddea	-0.5229174
38	0x3f3e6324	0.74370027
39	0x3eec21b2	0.46119457
40	0x3f1719ea	0.59023917
41	0x3e0cd99b	0.13754885
42	0x3d1fe450	0.039036095
43	0xbe3d8a4d	-0.18509789
44	0xbe05ef5f	-0.13079594
45	0xbe1124d5	-0.14174207
46	0x3f37433d	0.7158697
47	0x3edf3c19	0.43600538
48	0x3ed408f5	0.41413084
49	0x3f54db67	0.8314728
50	0x3ec5dc41	0.38644603
51	0x3d283f6d	0.041076113
52	0xbcad052c	-0.02112063
53	0x3f30b390	0.6902399
54	0xbf2747e4	-0.6534407
55	0x3eb595e0	0.35465908
56	0xbe83a560	-0.2571211
57	0xbd56c492	-0.052433558
58	0xbe0eac77	-0.13932978
59	0xbf2e7180	-0.6814194
60	0x3f698ec9	0.912335
61	0x3f59829e	0.8496493
62	0x3f39bb04	0.7255099
63	0xbf133151	-0.57497126
64	0xbf2e075b	-0.67979974
65	0x3efdd6cd	0.49577942
66	0xbf3b06f3	-0.7305748
67	0x3e8b7507	0.27237722
68	0x3f132d54	0.5749104
69	0x3e80deb0	0.25169897
70	0xbdd4b06a	-0.10385211
71	0x3e8b3440	0.271883
72	0x3eed1137	0.46302196
73	0xbe745f6d	-0.23864527
74	0xbf5da5fa	-0.86581385
75	0xbe924aac	-0.28572595
76	0x3e87a4ff	0.2649307
77	0xbe33de61	-0.175653
78	0xbe1e110e	-0.15436193
79	0x3ec29d3a	0.3801058

fc1.bias f4 [40]
0	0x3da124f0	0.078683734
1	0xbf10f94e	-0.5663041
2	0xbe3f6d69	-0.1869408
3	0xbef03b52	-0.46920258
4	0x3ec4253c	0.38309658
5	0xbe134612	-0.14382198
6	0xbd19fcd9	-0.03759465
7	0xbd3f19e4	-0.04665555
8	0xbe700793	-0.2344039
9	0xbc025987	-0.007955915
10	0xbe89fd86	-0.26951236
11	0xbf1110ce	-0.56666267
12	0xbf052ff5	-0.520263
13	0xbd457221	-0.048204545
14	0x3f251bd5	0.64495593
15	0xbedaee0e	-0.42759746
16	0x3f10b570	0.5652685
17	0x3f000a44	0.50015664
18	0x3ec41eee	0.38304847
19	0xbf3e0eee	-0.7424153
20	0xbf006fe0	-0.5017071
21	0xbe21d75a	-0.15804806
22	0xbdae79bb	-0.08519312
23	0xbf1426c1	-0.57871634
24	0x3ee0586b	0.43817458
25	0x3f12e2d3	0.57377356
26	0xbf01e0b2	-0.5073348
27	0x3e3a4805	0.18191536
28	0x3e7da548	0.24770081
29	0xbc05f526	-0.008176124
30	0x3e56e120	0.20984316
31	0xbe5f47af	-0.21804689
32	0xbe96a94d	-0.2942604
33	0xbebe64cf	-0.37186286
34	0x3f03d756	0.5150045
35	0x3ebc6fca	0.36804038
36	0xbdf023f2	-0.11725606
37	0xbee7b39a	-0.45254213
38	0xbec1744d	-0.37784043
39	0xbddc4f0f	-0.10757267

fc2.weight f4 [40, 40]
0	0xbe3a684e	-0.18203852
1	0xbda96d34	-0.08272782
2	0x3e749ead	0.23888655
3	0x3cd4d8d8	0.025982305
4	0x3c567308	0.013088949
5	0x3db1dd06	0.08684735
6	0x3dc63978	0.0967893
7	0x3d04b4ad	0.03239887
8	0x3e8668a0	0.26251698
9	0x3d4d15a4	0.050069466
10	0xbddc5585	-0.10758499
11	0x3e50f7bc	0.20407003
12	0xbe255f28	-0.1614958
13	0xbd97027a	-0.07373519
14	0x3dcb3105	0.09921459
15	0x3e41b4d8	0.18916643
16	0xbe00c214	-0.12574035
17	0xbc3467a6	-0.01101104
18	0x3e2219fe	0.15830228
19	0x3ea6708a	0.32507735
20	0x3e9a0b49	0.30086735
21	0x3e15f15f	0.14642857
22	0x3dd67878	0.10472196
23	0x3eaf3545	0.3422033
24	0x3e0a82b4	0.13526422
25	0x3e286188	0.16443455
26	0x3d9e5340	0.077307224
27	0xbee49fb0	-0.44653082
28	0xbe55e968	-0.20889819
29	0x3d14e2f9	0.03634927
30	0xbdc6330a	-0.09677704
31	0x3e8a3e83	0.27000818
32	0xbdf1d7c0	-0.11808729
33	0x3d1d1f3b	0.03835986
34	0xbe0c6294	-0.1370948
35	0xbd2dd5ef	-0.04244035
36	0x3e8f1576	0.2794606
37	0xbda2665a	-0.07929678
38	0x3e0e7b96	0.13914332
39	0xbe22a3b9	-0.15882768
40	0x3d76354c	0.06010942
41	0xbe015909	-0.1263162
42	0xbd40a038	-0.047027797
43	0xbdec230e	-0.11530124
44	0xbd7557fb	-0.059898358
45	0xbe065edf	-0.13122128
46	0x3e547f26	0.20751628
47	0x3db2a7d1	0.08723415
48	0xbdc4063e	-0.09571503
49	0xbd9d6732	-0.076856986
50	0x3d075caf	0.033047374
51	0x3da36732	0.07978667
52	0xbde3ff42	-0.11132671
53	0x3d50d458	0.050983757
54	0x3d149005	0.03627016
55	0x3b28cf1e	0.0025758217
56	0x3d4c04d5	0.049809296
57	0xbc920a75	-0.017827252
58	0x3c2d55fd	0.010579583
59	0xbdb2da6b	-0.08733066
60	0x3db28654	0.08717027
61	0x3b688d5d	0.003548465
62	0x3d96764b	0.07346781
63	0xbe019c25	-0.1265722
64	0xbcab33fa	-0.020898808
65	0xbd08602c	-0.03329484
66	0x3d6da5d5	0.058019478
67	0x3d6491a7	0.055802967
68	0xbd8cf808	-0.06883246
69	0xbccbdb85	-0.024884949
70	0x3dbbcb4b	0.091696344
71	0x3dd5f81d	0.104477145
72	0xbc60c6e3	-0.013719293
73	0x3cddbc70	0.027067393
74	0x3de1dff9	0.110290475
75	0x3da18559	0.07886762
76	0x3d68c148	0.056824952
77	0xbe00c787	-0.12576114
78	0xbd47d7ee	-0.04878991
79	0xb99037cc	-0.00027507392
80	0xbdc84369	-0.097784825
81	0xbe179300	-0.1480217
82	0xbd8e978b	-0.06962498
83	0xbce1de40	-0.027571797
84	0x3bbb7819	0.005721104
85	0xbcc1a99e	-0.02364045
86	0x3d534acc	0.051585004
87	0xbd43c570	-0.047795713
88	0xbd4f40b4	-0.050598815
89	0xbe50c6f7	-0.20388399
90	0xbde946ac	-0.11390433
91	0x3dfeeb1a	0.12447186
92	0xbc5bca3f	-0.013414918
93	0xbdd8a757	-0.105787925
94	0x3e07bfd1	0.13256766
95	0x3dfe7c16	0.12426011
96	0xbe10caca	-0.14139858
97	0xbe11903b	-0.14215176
98	0x3d024910	0.03180796
99	0xbc1b5980	-0.009481788
100	0x3ae6dbf2	0.0017613156
101	0x3e107057	0.14105354
102	0x3dc580ba	0.09643693
103	0xbe4383cc	-0.19093245
104	0xbdfe2540	-0.124094486
105	0x3dbdfe82	0.09277059
106	0x3e1711fb	0.14752953
107	0xbe2b8e28	-0.16753447
108	0xbaec8736	-0.0018045667
109	0xbcf82aa7	-0.030293776
110	0x3e5bc5ec	0.2146222
111	0xbbea5970	-0.007151775
112	0xbd2c004c	-0.04199247
113	0xbe026e63	-0.12737422
114	0x3dab3adf	0.08360838
115	0xbd2bca54	-0.041941002
116	0x3d5d586c	0.054039404
117	0xbe35c1c1	-0.17749692
118	0xbe07eef2	-0.13274744
119	0x3d3d4161	0.04620493
120	0xbe5ff3e5	-0.21870382
121	0x3dce072f	0.10059964
122	0x3eaadad0	0.33370066
123	0x3b960b4e	0.0045789843
124	0xbce0c384	-0.02743698
125	0xbdbb43a7	-0.09143763
126	0x3d9f95a1	0.07792211
127	0x3e172601	0.14760591
128	0x3e5b7146	0.21429929
129	0x3dbab449	0.09116418
130	0x3b4c9a04	0.003121973
131	0x3db9321f	0.09042763
132	0xbe37f5a1	-0.17964794
133	0x3d95ea8c	0.07320127
134	0xbd2a050d	-0.041508723
135	0x3dfc33a3	0.123145364
136	0x3c680890	0.014162198
137	0xbda028f1	-0.07820309
138	0x3e40d2bc	0.18830389
139	0x3d18336f	0.037158426
140	0x3e1b99f8	0.15195453
141	0xbe0031f4	-0.12519056
142	0x3b90c2c0	0.0044177473
143	0x3e944b2d	0.28963605
144	0xbda20001	-0.07910157
145	0x3c282db4	0.010264803
146	0xbd09a201	-0.033601765
147	0xbe9edb96	-0.31026906
148	0xbdce1c56	-0.100639984
149	0xbe20e7ba	-0.15713397
150	0xbd52f53a	-0.051503398
151	0x3e5c2b06	0.21500787
152	0x3d84e9b3	0.06489887
153	0xbdc95db8	-0.098323286
154	0x3e119782	0.14217952
155	0xbd81730b	-0.06320771
156	0x3e4d4159	0.2004446
157	0x3e099965	0.13437422
158	0x3e0bc22f	0.13648294
159	0x3bbdceb2	0.0057924623
160	0xbe105aba	-0.1409711
161	0xbdcbfeb6	-0.09960692
162	0x3d9007e7	0.07032757
163	0xbbafc231	-0.0053637256
164	0x3c04a94c	0.008097004
165	0x3d1729d2	0.036905117
166	0x3d319847	0.043358114
167	0x3ddddc68	0.10833055
168	0xbd9e981e	-0.07743858
169	0x3e37e142	0.17957023
170	0x3d87b24e	0.06625806
171	0x3d82e62d	0.06391559
172	0xbd681666	-0.056661986
173	0x3d650909	0.05591682
174	0x3e0481fd	0.12940212
175	0xbd6cdffe	-0.057830803
176	0x3a085058	0.00051999604
177	0x3dd12e3f	0.10213899
178	0x3cbad73d	0.022807712
179	0x3e2633ab	0.16230647
180	0xbc9e6b2c	-0.019338213
181	0x3db4c79f	0.08827137
182	0xbb478a67	-0.0030447484
183	0x3d92a1c6	0.07159762
184	0xbb85f62f	-0.0040881853
185	0xbd897275	-0.06711284
186	0xbcc13966	-0.02358694
187	0xbc955f9d	-0.018234069
188	0x3d3d1fa7	0.046172764
189	0x3d9171cb	0.071017824
190	0xbd594fb6	-0.053054534
191	0x3e3c2c01	0.18376161
192	0xbcae625d	-0.021287138
193	0xbdccd85e	-0.10002206
194	0x3dce8b6f	0.100851886
195	0x3d991021	0.074737795
196	0x3e659bc7	0.22422706
197	0x3d9ce20c	0.076603025
198	0x3da441e0	0.08020377
199	0xbe3806bc	-0.17971319
200	0xbd88de9b	-0.066830836
201	0x3d94bbba	0.072623685
202	0x3d23034a	0.03979806
203	0xbdf51411	-0.11966718
204	0xbd86166b	-0.06547245
205	0x3db2bcc1	0.08727408
206	0xbda996e9	-0.08280737
207	0xbdbd2388	-0.09235293
208	0xbca5d389	-0.02024247
209	0x3dbd8846	0.09254508
210	0x3e07bfb8	0.13256729
211	0x3d883ae0	0.066518545
212	0x3bfd23ce	0.0077252155
213	0x3d07f989	0.03319696
214	0xbe3475f9	-0.17623128
215	0xbb83b43e	-0.0040192893
216	0x3d60cc93	0.054882597
217	0x3d85d70e	0.06535159
218	0x3c79e8a3	0.015253219
219	0x3e3a01e5	0.18164785
220	0xbda9d274	-0.08292094
221	0x3daaf1f6	0.08346932
222	0x3a7db4c0	0.0009678118
223	0xbdc3f2ae	-0.09567772
224	0xbe329283	-0.17438702
225	0x3d5fec4e	0.054668717
226	0x3d999370	0.074988246
227	0xbdd7a2e3	-0.10529115
228	0xbc9bb91b	-0.019009164
229	0xbdf669dd	-0.120319106
230	0x3ba10aa4	0.0049145985
231	0x3e1ff7c3	0.15621857
232	0x3d024a99	0.031809423
233	0xbc93bc5c	-0.018034153
234	0x3d3d744b	0.046253484
235	0x3dcc5636	0.09977381
236	0x3d7c1e71	0.06155247
237	0x3c847d4a	0.016173024
238	0xbce498aa	-0.027904827
239	0x3d856be5	0.0651472
240	0x3e00a3dc	0.12562507
241	0x3dd0a436	0.10187571
242	0xbd8f4738	-0.06996006
243	0x3e033fa7	0.1281725
244	0xbdf275e1	-0.1183889
245	0x3d41a05a	0.047272064
246	0xbe5992c8	-0.21247399
247	0x3ddc1ea8	0.10748035
248	0xbd808b16	-0.062765285
249	0xbe27bf3e	-0.16381547
250	0x3d9058e1	0.07048202
251	0x3d8e15d0	0.06937754
252	0xbd8f87c2	-0.070083156
253	0x3da9d7bf	0.082931034
254	0xbcfbc901	-0.030735495
255	0x3e090b8a	0.13383308

fc2.bias f4 [40]
0	0xbe1724fe	-0.14760205
1	0xbbafe697	-0.0053680646
2	0xbdac2d9e	-0.08407138
3	0x3d99b62a	0.07505448
4	0x3d4947c1	0.049140695
5	0x3d9a5f48	0.07537705
6	0x3c84b76b	0.016200742
7	0xbe0399b7	-0.12851606
8	0xbe07c4fd	-0.13258739
9	0x3d80772a	0.06272729
10	0xbe4312d1	-0.19050147
11	0xbcbcb283	-0.02303434
12	0x3bba097a	0.005677399
13	0xbe194bf1	-0.14970376
14	0x3e019f8e	0.12658522
15	0xbd414c1f	-0.047191735
16	0xbd235bf3	-0.03988261
17	0x3d6883b5	0.05676623
18	0x3d7aa10d	0.061188746
19	0x3cd50ffb	0.026008597
20	0x3dbddb7e	0.092703804
21	0xbc6d78ab	-0.0144941015
22	0x3df656bc	0.12028262
23	0x3da44fa0	0.08023
24	0x3db0a1fc	0.08624646
25	0xbd5eb2db	-0.05436979
26	0xbe15f97b	-0.1464595
27	0x3d59a547	0.053136136
28	0xbe18d161	-0.14923622
29	0x3db3ab4f	0.08772909
30	0x3cdfa5b8	0.0273007
31	0xbda5ae9e	-0.08089946
32	0x3dc658e0	0.0968492
33	0xbd875809	-0.06608588
34	0x3dd887ee	0.105728015
35	0x3d085e59	0.033293102
36	0xbd852706	-0.06501584
37	0xbd49499e	-0.049142472
38	0x3d6407e7	0.0556716
39	0xbd5143ec	-0.051090166

fc3.weight f4 [40, 40]
0	0x3d84b333	0.06479492
1	0x3e09dfef	0.1346433
2	0x3df37ed6	0.118894264
3	0x3dcd7d6e	0.100336894
4	0xbd729d7b	-0.059232216
5	0xbdb777f1	-0.08958424
6	0xbd9dff28	-0.07714683
7	0xbcd8050a	-0.02636959
8	0xbdd8874a	-0.10572679
9	0x3e12e9cd	0.14347
10	0x3e181409	0.14851393
11	0xbd9893b2	-0.07450046
12	0xbcd5f63f	-0.026118396
13	0xbd55d52a	-0.052205242
14	0xbd87de04	-0.06634143
15	0xbd6e4356	-0.058169685
16	0x3d31df1b	0.04342566
17	0x3cbb1587	0.022837413
18	0xbdc5f640	-0.09666109
19	0xbcd920ba	-0.026504863
20	0x3b0cbf94	0.0021476494
21	0x3caf6829	0.021411972
22	0x3d647f22	0.055785306
23	0x3bdff2a8	0.006834347
24	0x3c5767bb	0.01314729
25	0x3c34f7b0	0.011045381
26	0xbda991e9	-0.08279783
27	0xbc1a0d9a	-0.009402657
28	0x3d00c56a	0.03143827
29	0xbcbcbbf8	-0.02303885
30	0xbe530d8e	-0.2061064
31	0xbcf150d0	-0.02945748
32	0xbd15f6e5	-0.03661241
33	0xbbeb2cbb	-0.007176963
34	0x3c528d93	0.012851137
35	0xbd4768df	-0.048683997
36	0xbd2fbc57	-0.042904224
37	0xbe1adb08	-0.15122616
38	0x3dedf9e8	0.116199315
39	0xbc38f8a5	-0.01128975
40	0x3d080e15	0.033216555
41	0x3c94666f	0.01811525
42	0x3e45ff40	0.19335651
43	0x3ccbf458	0.024896786
44	0xbe4d9804	-0.2007752
45	0x3d92054b	0.07129916
46	0xbe0896c5	-0.13338764
47	0x3d043504	0.032277122
48	0xbc0ce9aa	-0.008600632
49	0xbde2c1f1	-0.11072148
50	0xbdb841ef	-0.08996951
51	0xbc6cd3b0	-0.014454767
52	0x3b6410bf	0.003480002
53	0x3ca68df0	0.020331353
54	0x3dbaea12	0.091266766
55	0xbb178233	-0.0023118376
56	0x3ab3e8bd	0.0013725978
57	0x3deff1de	0.117160544
58	0xbe19c16b	-0.1501519
59	0x3e19cc3f	0.1501932
60	0x3be8eec0	0.0071085393
61	0x3d9e3cee	0.07726465
62	0x3ca6ce43	0.020362025
63	0x3b6f7580	0.0036538541
64	0xbd7960d6	-0.060883366
65	0xbd9fece6	-0.07808857
66	0x3e35b650	0.17745328
67	0xbd92b70d	-0.071638204
68	0x3e25852b	0.16164081
69	0x3cae589d	0.021282488
70	0xbcc7d5fc	-0.024394028
71	0x3e26856b	0.16261832
72	0x3aabde29	0.0013112474
73	0xbde8bcaf	-0.113641135
74	0xbd936e36	-0.071987554
75	0xbdfa5f39	-0.122251935
76	0xbe22476d	-0.1584756
77	0xbd893cfa	-0.067010835
78	0xbe216c0b	-0.15763871
79	0x3ae3a7ed	0.0017368771
80	0x3ec04233	0.37550506
81	0x3da75a1b	0.08171483
82	0x3b86b319	0.0041107056
83	0x3e4e4183	0.20142178
84	0x3e1831da	0.14862767
85	0xbd9c5a76	-0.076344416
86	0xbd91688c	-0.07100019
87	0xbec47896	-0.3837325
88	0x3d54a2d8	0.051913112
89	0x3de53f6d	0.11193738
90	0x3ef799fb	0.48359665
91	0x3e521763	0.20516734
92	0xbde9ef19	-0.114225574
93	0xbbfd1d92	-0.0077244723
94	0xbd435f56	-0.04769834
95	0xbef433b5	-0.476957
96	0xbd9c2005	-0.07623295
97	0x3e39bf01	0.18139268
98	0x3d2f2d16	0.042767607
99	0xbda78d11	-0.08181203
100	0x3d7a8337	0.061160292
101	0x3da23a0f	0.0792123
102	0x3d9ee22f	0.07757985
103	0xbde3e81b	-0.11128255
104	0x3ec346cb	0.38139948
105	0x3d7d3c4b	0.061825078
106	0xbe5d4bcf	-0.2161095
107	0xbd2b481a	-0.04181681
108	0x3c7c259e	0.015389828
109	0xbeab92a7	-0.33510324
110	0xbdb93b13	-0.09044471
111	0xbe18754a	-0.14888492
112	0xbe52e93a	-0.20596781
113	0xbe32ae3e	-0.1744928
114	0xbdc532e6	-0.09628849
115	0x3a5f05cb	0.0008507638
116	0xbdde783e	-0.10862778
117	0xbeec699a	-0.46174318
118	0x3c0a94e9	0.0084583545
119	0xbcae6518	-0.02128844
120	0xbe2cbe04	-0.1686936
121	0x3d95460a	0.072887495
122	0xbdac06d7	-0.08399742
123	0xbdee9dae	-0.11651169
124	0x3dcd94ee	0.10038172
125	0x3e1273a1	0.14301921
126	0x3b3833d1	0.0028107057
127	0xbc3a0fa1	-0.011356265
128	0x3db9fbd4	0.090812355
129	0xbe0fcb7c	-0.14042467
130	0xbe262d47	-0.1622821
131	0x3d8ba591	0.06818689
132	0x3e03c68a	0.12868705
133	0xbe1a1469	-0.15046848
134	0xbe231b4a	-0.15928379
135	0x3c055779	0.008138531
136	0xbdbde728	-0.09272605
137	0xbc223e39	-0.00990253
138	0xbde53bd7	-0.11193054
139	0x3dfa6ebf	0.122281544
140	0xbb2da9b9	-0.0026498868
141	0xbdbef7f4	-0.09324637
142	0x3ccda42e	0.025102701
143	0x3dadc4c2	0.08484794
144	0xbe430e2f	-0.1904838
145	0xbc99ec7f	-0.018789528
146	0x3dcf32fa	0.10117145
147	0x3e21c359	0.15797175
148	0x3c7ee029	0.015556374
149	0x3d1d982e	0.038475208
150	0xbdb9caed	-0.09071908
151	0x3ddcd48e	0.10782729
152	0xbcf4f0d8	-0.0299
153	0x3d0cb544	0.034352556
154	0xbd150480	-0.036381245
155	0x3d9d44f3	0.07679167
156	0x3e8648eb	0.26227507
157	0x3d7f7e92	0.062376566
158	0x3dd7880b	0.10523995
159	0xbe389171	-0.18024231
160	0x3e3601ce	0.17774126
161	0x3d93f99b	0.07225343
162	0x3d1dd6de	0.03853499
163	0xbdb8cbdd	-0.09023259
164	0xbdb25376	-0.08707325
165	0x3e30c5ff	0.1726303
166	0xbc828148	-0.015930787
167	0x3bd30c7b	0.006440697
168	0xbd0f29f1	-0.034952108
169	0x3e079003	0.1323853
170	0xbd6e7581	-0.05821753
171	0x3cb330e7	0.021873904
172	0xbe07ed6c	-0.13274163
173	0x3dac4c73	0.08413019
174	0xbdd8c479	-0.10584349
175	0x3d631529	0.0554401
176	0x3cbbd9f6	0.02293108
177	0x3e328801	0.17434694
178	0x3db2bbf4	0.087272555
179	0xbcaf1948	-0.02137436
180	0xbd8e8177	-0.06958287
181	0xbdd52798	-0.104079425
182	0xbb7e7c10	-0.0038831271
183	0xbb931f4b	-0.0044898144
184	0x3dd122cc	0.10211715
185	0x3d9ad78c	0.075606436
186	0x3d1f6c79	0.038921807
187	0xbcdd7a4f	-0.02703586
188	0x3d9b9d46	0.07598357
189	0xbda67c96	-0.08129232
190	0x3d3a8b24	0.04554285
191	0xbdd5d6d0	-0.10441363
192	0xbda9ecbe	-0.08297108
193	0xbe0ff6d9	-0.14059009
194	0xbd2b440e	-0.04181295
195	0xbd215858	-0.03939089
196	0xbe0ec033	-0.13940506
197	0xbdf1dc40	-0.118095875
198	0xbe18ee32	-0.14934614
199	0xbdfae2b5	-0.12250272
200	0x3d415295	0.047197897
201	0xbe058778	-0.13039958
202	0x3dcbc1f5	0.09949104
203	0x3dafb5b3	0.08579578
204	0x3e341ab8	0.17588317
205	0xbdb1f15f	-0.08688616
206	0xbd800f39	-0.062529035
207	0x3ddf1cfc	0.108942
208	0xbe222670	-0.15834975
209	0xbd54813e	-0.051881067
210	0xbdbf348b	-0.09336194
211	0x3d046354	0.03232129
212	0xbd361623	-0.044454705
213	0xbd0e76ca	-0.034781255
214	0x3e2263aa	0.15858331
215	0xbcc63424	-0.024194784
216	0x3dd916d1	0.10600055
217	0x3d8c0a30	0.068378806
218	0xbe17286d	-0.14761515
219	0xbc1d4df7	-0.009601108
220	0xbd82d049	-0.063873835
221	0x3c90662f	0.01762685
222	0xbdc79699	-0.09745521
223	0x3d2242b1	0.039614383
224	0x3e3fb872	0.18722704
225	0xbe0cfb9d	-0.13767858
226	0xbe0bf163	-0.136663
227	0x3dcda08a	0.10040386
228	0xbc0cb470	-0.0085879415
229	0xbdb4df3b	-0.0883164
230	0xbdd99a7a	-0.10625167
231	0x3d83a729	0.06428368
232	0xbdf3c7bb	-0.1190333
233	0xbd424857	-0.04743227
234	0x3df6fecb	0.12060317
235	0xbe050d8d	-0.1299345
236	0xbe3bd3b7	-0.18342482
237	0x3d7c80d8	0.061646312
238	0x3db4b174	0.08822909
239	0x3d5eef3c	0.05442737
240	0xbe06e23d	-0.1317224
241	0xbd4d81a5	-0.050172467
242	0xbe0c5df9	-0.13707723
243	0x3e00a61a	0.12563363
244	0x3ce0f7f4	0.027461983
245	0x3be703fc	0.0070500355
246	0xbdb1b433	-0.086769484
247	0x3d281e63	0.041044604
248	0x3dd57871	0.10423363
249	0xbe16ad54	-0.14714557
250	0x3dc9c46e	0.09851919
251	0xbe2765ff	-0.16347502
252	0xb9cafe34	-0.00038717838
253	0x3e1e68f0	0.15469718
254	0xbdad851d	-0.08472655
255	0xbcf25be7	-0.029584838

fc3.bias f4 [40]
0	0xbdff2b19	-0.12459392
1	0x3d2199a7	0.039453175
2	0xbdfc1833	-0.12309303
3	0xbda64d95	-0.08120266
4	0xbdefb174	-0.117037684
5	0xbde3e872	-0.1112832
6	0x3e296ac9	0.16544642
7	0x3e0af486	0.13569841
8	0xbe013aa4	-0.12620026
9	0xbceac374	-0.028657652
10	0xbc953357	-0.018212957
11	0x3dedc363	0.11609533
12	0x3d9c33a9	0.07627041
13	0xbda6dcfa	-0.08147617
14	0x3ce889e7	0.02838607
15	0x3e12e1e0	0.14343977
16	0xbccc4850	-0.024936825
17	0xbd357270	-0.04429859
18	0x3d0336a6	0.03203454
19	0xbca6f34a	-0.020379681
20	0x3df97d5d	0.12182114
21	0xbccfd507	-0.025370134
22	0xbe11e087	-0.14245807
23	0xbc9745e3	-0.018465942
24	0xbc1cbe37	-0.009566835
25	0x3e023e4a	0.12719074
26	0x3e0842c2	0.13306716
27	0xbe0276be	-0.12740609
28	0xbd81f04e	-0.063446626
29	0x3cb16b5e	0.021657642
30	0x3e021369	0.12702717
31	0xbdf9eaec	-0.12203011
32	0x3c7cb5f7	0.015424243
33	0x3e2c07fe	0.16799924
34	0x3942ccc4	0.00018577563
35	0xbd912ad9	-0.07088251
36	0x3da719fd	0.08159254
37	0xbdf3bdc4	-0.11901429
38	0xbc2ed255	-0.010670264
39	0x3e12ca68	0.14335024

fc4.weight f4 [40, 40]
0	0xbde0dbc4	-0.10979417
1	0x3e133dae	0.14378998
2	0x3dbb761f	0.09153389
3	0x3d861744	0.06547406
4	0xbdcda2b1	-0.100407965
5	0xbd4eb49c	-0.05046521
6	0x3de33e71	0.11095894
7	0xbda2de96	-0.07952611
8	0x3dccc634	0.09998742
9	0xbd8b33ec	-0.06797013
10	0xbe2b9b2c	-0.16758412
11	0x3e08d494	0.13362342
12	0x3cb2903a	0.021797288
13	0x3b08e43e	0.0020887996
14	0xbd0f4ca8	-0.034985214
15	0xbd8a3e63	-0.067501806
16	0xbd68cbe4	-0.05683507
17	0x3d7218f3	0.059105825
18	0x3ce6b25f	0.028161226
19	0x3d7cac46	0.06168773
20	0x3db98b29	0.09059746
21	0x3d992117	0.074770145
22	0x3c360466	0.011109447
23	0x3d8b8224	0.06811932
24	0x3c6a6636	0.014306596
25	0xbdbbfd5c	-0.09179184
26	0x3de9f76f	0.11424147
27	0x3d33b70c	0.04387574
28	0xbd9902f6	-0.07471268
29	0xbe04d238	-0.12970817
30	0xbd9990ef	-0.07498347
31	0x3e23b179	0.15985669
32	0x3dff8339	0.124762006
33	0xbca830dd	-0.020531112
34	0xbdb9f505	-0.09079937
35	0xbcc203ab	-0.02368339
36	0xbd5d13d1	-0.053973977
37	0x3dc172e1	0.094457395
38	0xbddbc48d	-0.107308485
39	0x3dc87c0e	0.097892866
40	0x3d875131	0.06607283
41	0x3e013671	0.12618424
42	0x3e0d9ab8	0.13828552
43	0xbd12d2cf	-0.035845574
44	0xbd0daae0	-0.034586787
45	0x3e20fafb	0.15720741
46	0x3e0443c7	0.1291648
47	0xbd77ab1c	-0.060465917
48	0xbab009fc	-0.001343071
49	0xbd826799	-0.06367416
50	0xbd51869c	-0.051153764
51	0x3d9946f1	0.07484234
52	0x3bb1801a	0.005416882
53	0x3cfca73a	0.030841459
54	0x3cda8e3e	0.026679154
55	0x3e0f824a	0.14014545
56	0x3d4b7391	0.04967076
57	0xbe2438e5	-0.16037329
58	0x3d8c53cb	0.0685192
59	0x3dd7893d	0.10524223
60	0xbe0bf782	-0.13668635
61	0x3d894e0e	0.06704341
62	0x3e0ad298	0.13556898
63	0xbd13fb51	-0.036128346
64	0xbe1255d6	-0.14290556
65	0xbd3c014c	-0.045899674
66	0x3d90f2c9	0.070775576
67	0x3e1a0fd8	0.15045106
68	0x3d3ced0d	0.046124507
69	0xbd6553cc	-0.055988118
70	0xbda83db8	-0.08214897
71	0xbd9e2414	-0.07721725
72	0x3dd8dfa3	0.1058953
73	0xbd8f0f2a	-0.06985314
74	0xbdfb9054	-0.12283388
75	0xbdc1cd19	-0.094629474
76	0x3d467413	0.04845054
77	0x3d343e1c	0.044004545
78	0x3df271b5	0.11838094
79	0xbcb04c41	-0.021520736
80	0xbd14c825	-0.036323685
81	0xbdabad4c	-0.08382663
82	0xbdaaa650	-0.08332503
83	0xbd58d0a1	-0.05293334
84	0x3de6eb03	0.11275294
85	0xbc22ea0f	-0.009943499
86	0xbd93379c	-0.07188341
87	0xbc7b350a	-0.01533247
88	0xbda7af10	-0.081876874
89	0xbddb6a33	-0.10713615
90	0xbcd6c631	-0.026217552
91	0x3a42c6ec	0.00074301544
92	0xbd97d65d	-0.074139334
93	0xbe0542de	-0.13013789
94	0x3d20cf7d	0.039260376
95	0x3d1defb6	0.038558684
96	0x3d86844c	0.065682024
97	0xbc9b6b75	-0.018972138
98	0xbd679de0	-0.056547046
99	0x3deab848	0.1146093
100	0xbd21bd62	-0.03948725
101	0x3dc3bcba	0.09557481
102	0xbc410474	-0.011780847
103	0xbc0e2470	-0.00867568
104	0x3e0f7729	0.140103
105	0xbc539d28	-0.012915887
106	0xbd7ef3b5	-0.062244136
107	0x3c6bf469	0.014401534
108	0xbdfd3410	-0.12363446
109	0x3d87138e	0.06595527
110	0xbd708e2f	-0.058729347
111	0x3e1ada40	0.15122318
112	0x3df95eba	0.12176271
113	0x3cd87d06	0.026426803
114	0x3d951cce	0.07280885
115	0xbd82cef5	-0.0638713
116	0x3d813fd6	0.06311004
117	0xbe3d7f93	-0.18505697
118	0xbcba9026	-0.022773813
119	0x3d54c06f	0.05194133
120	0x3d500832	0.050789066
121	0x3db4e07a	0.08831878
122	0xbccc736a	-0.024957377
123	0xbdd6e3ee	-0.10492693
124	0xbd14dafa	-0.036341645
125	0x3c879aa2	0.016553227
126	0x3dcd4a24	0.10023907
127	0xbe2d6ec4	-0.16936785
128	0x3e270757	0.16311394
129	0x3e08c517	0.13356434
130	0x3dd03d14	0.101679
131	0xbe2b15fb	-0.16707604
132	0x3b09203a	0.002092375
133	0x3d8df860	0.069321394
134	0xbd75aa12	-0.059976645
135	0x3d361532	0.044453807
136	0xbd418aa1	-0.047251347
137	0xbe0a6b16	-0.13517413
138	0x3c818856	0.01581208
139	0x3c3b3a00	0.0114274025
140	0x3b08ab7f	0.0020854173
141	0xbd9fa29d	-0.07794688
142	0x3e628b08	0.22123349
143	0xbd623a9f	-0.055231687
144	0x3e23b669	0.15987553
145	0xbdc64d15	-0.09682671
146	0xbb94c03f	-0.004539519
147	0x3d6ab7d6	0.057304226
148	0x3db44045	0.08801321
149	0x3e01c50d	0.12672825
150	0x3d252415	0.040317614
151	0xbdd1d99e	-0.10246585
152	0x3d49e180	0.04928732
153	0xbd777305	-0.060412426
154	0x3dfcffe4	0.12353495
155	0xbc82608d	-0.01591518
156	0xbc47716d	-0.012173039
157	0xbd53c014	-0.05169685
158	0x3d9b74b6	0.0759062
159	0xbd910284	-0.07080558
160	0xbd9e4436	-0.07727854
161	0xbe23fc99	-0.16014327
162	0xbdf3afa3	-0.118987344
163	0x3de43a2e	0.111439094
164	0xbe1e9f7f	-0.1549053
165	0xbdc88499	-0.09790916
166	0x3c96ff61	0.018432321
167	0xbd2a19b1	-0.041528407
168	0xbcddbe46	-0.027068269
169	0x3df99d74	0.12188235
170	0x3d60e995	0.05491026
171	0x3d993096	0.0747997
172	0x3b760401	0.0037539008
173	0xbdc13cf1	-0.09435452
174	0x3d5b20b9	0.053498004
175	0x3d8fee85	0.07027916
176	0xbd315d3b	-0.043301802
177	0xbda2518f	-0.07925712
178	0xbad27511	-0.0016056617
179	0x3de4d4c3	0.111733936
180	0xbdb3010d	-0.08740435
181	0x3d8ef602	0.06980516
182	0xbe337e24	-0.17528588
183	0xbccbc273	-0.024872994
184	0xbe0de6cd	-0.13857575
185	0x3e016df7	0.12639605
186	0x3db05b3e	0.08611153
187	0xbd18d4eb	-0.03731243
188	0xbdbc54ac	-0.091958374
189	0xbe11e7c1	-0.14248563
190	0xbda3f893	-0.08006396
191	0x3caa2027	0.020767285
192	0x3dfcc690	0.1234256
193	0x3ddef257	0.108860664
194	0x3e10e0f0	0.14148307
195	0x3c807d60	0.015684783
196	0x3deb8b89	0.115012236
197	0x3dfee612	0.12446226
198	0x3e1819e7	0.14853631
199	0xbe09f28e	-0.13471434
200	0x3c50f15c	0.012752857
201	0x3d8bb97f	0.0682249
202	0xbc15aacb	-0.0091349585
203	0x3e016e94	0.12639838
204	0x3cf29ef5	0.029616812
205	0x3e07f682	0.13277629
206	0xbe394ae0	-0.18094969
207	0x3d3ee43d	0.046604384
208	0xbe0c5507	-0.1370431
209	0x3d29230b	0.041293185
210	0xbe666581	-0.22499658
211	0xbde41d7e	-0.11138438
212	0x3e2b667a	0.1673831
213	0x3d52d474	0.051472142
214	0x3df3aec0	0.11898565
215	0xbe35139b	-0.1768326
216	0x3d174a35	0.036936004
217	0xbd46fc19	-0.048580263
218	0xbd8e04c4	-0.06934503
219	0x3cee998d	0.029125953
220	0xbd8f13eb	-0.06986221
221	0xbdedb5a7	-0.11606913
222	0xbd62419c	-0.05523835
223	0xbc355ad4	-0.011069018
224	0xbdb61064	-0.08889845
225	0x3b56d0ed	0.0032778338
226	0x3e0feb09	0.14054503
227	0x3d181cea	0.03713695
228	0xbd78c135	-0.06073113
229	0xbd483aa6	-0.048884057
230	0xbe45d4e8	-0.19319499
231	0xbddfd968	-0.10930139
232	0x3b7790cb	0.0037775512
233	0xbccb5764	-0.024821945
234	0x3b34ecfe	0.0027607079
235	0x3d72f7a0	0.059318185
236	0xbe3454b5	-0.17610438
237	0x3d26bee4	0.04070939
238	0x3d0a28f6	0.03373047
239	0xbdf372d5	-0.11887137
240	0xbddc3fe5	-0.107543744
241	0xbe1c27ac	-0.15249509
242	0xbd55331f	-0.052050706
243	0xbd07e8ea	-0.03318111
244	0x3d9487a2	0.072524324
245	0x3d9fb231	0.07797659
246	0x3d821ade	0.06352781
247	0x3d389a4c	0.045069024
248	0xbd92e095	-0.07171742
249	0xbe002b08	-0.12516415
250	0xbe00a7df	-0.12564038
251	0xbdece190	-0.1156646
252	0x3b9ae230	0.0047266707
253	0x3df19564	0.11796072
254	0x3dc89cb9	0.097955175
255	0xbd54c4be	-0.05194544

fc4.bias f4 [40]
0	0x3d166906	0.036721252
1	0x3cbe18a7	0.023205115
2	0xbd2605ba	-0.040532805
3	0xbdc50adb	-0.09621211
4	0x3e094432	0.1340492
5	0x3d072d52	0.033002205
6	0x3e04ec26	0.12980708
7	0x3c8c4439	0.017122375
8	0xbc51e1a0	-0.012810141
9	0x3da2c06e	0.07946859
10	0xbd7ff395	-0.062488157
11	0x3d82625f	0.06366419
12	0xbc88910a	-0.016670723
13	0xbd88af80	-0.06674099
14	0xbd085143	-0.033280622
15	0xbd93d924	-0.07219151
16	0x3ce761b1	0.028244825
17	0xbce6578d	-0.02811792
18	0x3da30e06	0.07961659
19	0x3cf758f9	0.030193793
20	0xbd7c102e	-0.061538868
21	0xbd271c5e	-0.040798537
22	0xbc52e6eb	-0.012872438
23	0xbd76a3ee	-0.06021493
24	0xbd546b8d	-0.05186038
25	0x3cb3636c	0.021897994
26	0xbd6a3df4	-0.05718799
27	0xbcd88ce5	-0.026434371
28	0xbddfc156	-0.10925548
29	0xbdf1bb36	-0.11803286
30	0xbdbef903	-0.09324839
31	0xbe386344	-0.18006617
32	0xbe15ce16	-0.14629397
33	0x3dc04494	0.0938808
34	0xbd92f1b6	-0.07175009
35	0x3ceed0f5	0.029152373
36	0xbd3458f6	-0.044030152
37	0xbe3698bc	-0.17831701
38	0xbd328c05	-0.043590564
39	0xbdbd2447	-0.09235435

fc5.weight f4 [1, 40]
0	0xbd57d793	-0.052695822
1	0xbbaefc46	-0.005340132
2	0x3ddbd286	0.107335135
3	0x3c057212	0.008144872
4	0xbc964dbe	-0.018347617
5	0xbe1c3b46	-0.15256986
6	0x3d091268	0.03346482
7	0xbb742ca2	-0.0037258049
8	0xbcf38224	-0.029725142
9	0xbd5166c4	-0.051123396
10	0xbd5a939f	-0.05336344
11	0x3cd391ed	0.025826419
12	0x3ca39cc5	0.019972214
13	0x3d353ff4	0.044250444
14	0xbc047273	-0.008083927
15	0x3e18f6ed	0.14937945
16	0x3aaba2e1	0.0013094806
17	0xbd0d87f8	-0.034553498
18	0xbade0e24	-0.001694147
19	0xbd6244a4	-0.055241242
20	0x3deefe24	0.11669567
21	0x3de9eaea	0.114217594
22	0xbac69571	-0.0015150738
23	0x3d0d6046	0.03451564
24	0x3e60f9c3	0.21970277
25	0x3b4a04fc	0.0030825725
26	0x3c9e91c8	0.019356623
27	0x3d2bb7fd	0.04192351
28	0x3b05bdb5	0.0020407264
29	0x3d024068	0.031799704
30	0x3d236a29	0.039896164
31	0x3dd40810	0.103531
32	0x3d250069	0.040283594
33	0x39b100f8	0.00033760793
34	0xbcc23af1	-0.023709746
35	0x3d4ec378	0.050479382
36	0xbe172a1e	-0.1476216
37	0x3daba674	0.08381358
38	0x3b826add	0.0039800243
39	0x3e56d4f9	0.2097968
