Pytorch_PINN/conservative.ckpt (torch, 23689 bytes, 9 tensors)

fc1.weight f4 [40, 2]
0	0xbee072ce	-0.4383759
1	0x3e067926	0.13132152
2	0xbf3917ab	-0.7230174
3	0x3e4ac81d	0.198029
4	0x3efb5211	0.4908605
5	0x3d032ece	0.03202706
6	0x3cd40739	0.02588235
7	0x3e899a6b	0.26875624
8	0x3a8a4ee6	0.0010552078
9	0xbe61f6c1	-0.22066785
10	0x3e4ba106	0.19885644
11	0x3f51f4a4	0.82013917
12	0x3e87ae0c	0.26499975
13	0xbe667cb5	-0.2250851
14	0xbf2f9042	-0.68579495
15	0xbf89af72	-1.0756667
16	0x3f18c88e	0.5968102
17	0x3ce53f6f	0.027984349
18	0xbf2d61e9	-0.67727524
19	0xbf169a37	-0.58829063
20	0xbeae9af7	-0.34102604
21	0xbd801320	-0.06253648
22	0x3f18b7a2	0.596552
23	0x3e833a47	0.256304
24	0xbeadc035	-0.33935705
25	0x3dd2d78e	0.1029502
26	0x3e5836dd	0.21114679
27	0xbf89e9ca	-1.0774472
28	0xbd6a1439	-0.057148192
29	0xbebb96c5	-0.36638466
30	0x3f1f2d4d	0.621785
31	0xbe4878cd	-0.19577332
32	0x3df7890f	0.12086689
33	0x3f575c5f	0.8412532
34	0x3ea82239	0.3283861
35	0xbea2b40f	-0.31778
36	0x3f09e7b5	0.5386918
37	0xbf0b8069	-0.54492813
38	0x3f406860	0.75159264
39	0x3eea4c85	0.45761505
40	0x3f18ec87	0.5973591
41	0x3e1af721	0.15133335
42	0xbd45bf0a	-0.048277892
43	0xbe45a046	-0.1929942
44	0xbe0fd41e	-0.1404576
45	0xbe2322bb	-0.15931217
46	0x3f38e871	0.7222968
47	0x3edc4349	0.43020085
48	0x3e9eec91	0.3103986
49	0x3f919a68	1.1375246
50	0x3ed27a02	0.4110871
51	0x3c89d508	0.016825214
52	0x3ce25bf7	0.027631743
53	0x3f430cd5	0.76191455
54	0xbf29535c	-0.6614282
55	0x3ebf1d10	0.3732686
56	0xbe8da067	-0.2766144
57	0xbce9c37a	-0.028535593
58	0xbe010a22	-0.12601522
59	0xbf42fe31	-0.76169115
60	0x3f6a01b4	0.9140885
61	0x3f469a14	0.77578855
62	0x3f3b2430	0.7310209
63	0xbf221363	-0.6331083
64	0xbf2bbd44	-0.6708567
65	0x3f01b653	0.5066883
66	0xbf4b0e12	-0.79318345
67	0x3eb8ef76	0.36120194
68	0x3f2bd200	0.6711731
69	0x3e917464	0.28409111
70	0xbe1ac107	-0.15112697
71	0x3eaa509b	0.33264622
72	0x3ef5bc50	0.47995234
73	0xbe78f5fd	-0.24312587
74	0xbf5e6164	-0.86867356
75	0xbe787641	-0.2426386
76	0x3e8de289	0.27711895
77	0xbe22ded4	-0.15905315
78	0xbe2564fd	-0.16151805
79	0x3ed4c2de	0.41554922

fc1.bias f4 [40]
0	0x3da34313	0.07971778
1	0xbf13ef5d	-0.57787114
2	0xbe3eb449	-0.18623461
3	0xbebf4c0d	-0.3736271
4	0x3ec2005a	0.37890893
5	0xbddbf986	-0.10740952
6	0xbd1a280a	-0.03763584
7	0xbd5cba67	-0.053888705
8	0xbe6ff60a	-0.234337
9	0x3bd22551	0.00641314
10	0xbe8d6606	-0.276169
11	0xbf11a87e	-0.56897724
12	0xbf061104	-0.52369714
13	0xbd9bb07c	-0.07602021
14	0x3f24ca4b	0.64371175
15	0xbed6e634	-0.41972506
16	0x3f1156b9	0.56772953
17	0x3efd9143	0.49524888
18	0x3ebf11e0	0.37318325
19	0xbf3ef2cf	-0.74589247
20	0xbf011053	-0.50415534
21	0xbe30867a	-0.17238799
22	0xbdb50bcf	-0.08840143
23	0xbf14bfe5	-0.5810531
24	0x3ed7a840	0.42120552
25	0x3f0fcfde	0.56176555
26	0xbef57ed3	-0.47948322
27	0x3e381d81	0.17980005
28	0x3e7cc219	0.24683417
29	0xbc96596c	-0.018353187
30	0x3e5faebc	0.21844
31	0xbe5ec655	-0.21755345
32	0xbe938909	-0.28815487
33	0xbeb6e7bf	-0.35723683
34	0x3f069b24	0.52580476
35	0x3ebc17b1	0.36736825
36	0xbdea7019	-0.11447162
37	0xbee4b329	-0.44667938
38	0xbeb5f693	-0.35539684
39	0xbdcfb726	-0.10142355

fc2.weight f4 [40, 40]
0	0xbe2e9bf2	-0.17051676
1	0xbdad4099	-0.08459587
2	0x3e608207	0.21924601
3	0x3cce7b66	0.025205325
4	0x3c932d73	0.017966008
5	0x3d991f51	0.07476676
6	0x3de7b428	0.11313659
7	0x3d63382a	0.055473484
8	0x3e764706	0.24050531
9	0x3d8da298	0.06915778
10	0xbdd84d8c	-0.10561666
11	0x3e4e7df9	0.20165242
12	0xbe2969a6	-0.16544208
13	0xbda2491e	-0.07924102
14	0x3dd721e7	0.10504513
15	0x3e4aa65b	0.19790022
16	0xbe05f7f4	-0.13082868
17	0xbbcbfc43	-0.0062251403
18	0x3e2a9cc1	0.1666136
19	0x3ea243b2	0.31692272
20	0x3e9766d7	0.29570648
21	0x3e14b688	0.14522755
22	0x3dde4db0	0.108546615
23	0x3ea36979	0.31916407
24	0x3e038826	0.12844905
25	0x3e285fa7	0.16442738
26	0x3d931faa	0.07183774
27	0xbee848b5	-0.4536797
28	0xbe5225d0	-0.20522237
29	0x3d4e775b	0.050406795
30	0xbde8ec7f	-0.11373233
31	0x3e88aad3	0.2669283
32	0xbdff46c4	-0.12464669
33	0x3d1371b7	0.03599712
34	0xbe0fe4ce	-0.14052126
35	0xbd3505a7	-0.044194844
36	0x3e8dbaa8	0.2768147
37	0xbd980169	-0.07422144
38	0x3e0c6b12	0.13712719
39	0xbe35933d	-0.17731948
40	0x3dc3dfe6	0.095641896
41	0xbdf9fde8	-0.12206632
42	0xbd82494a	-0.06361635
43	0xbdf6946a	-0.120400265
44	0xbd815c3a	-0.06316419
45	0xbdcc2f3c	-0.09969947
46	0x3dfc7632	0.123272315
47	0x3dae5190	0.085116506
48	0xbde5f8cb	-0.11229094
49	0xbda85162	-0.082186475
50	0x3d0581ea	0.0325946
51	0x3da9f200	0.08298111
52	0xbddc0e8b	-0.10744961
53	0xbb0d2108	-0.002153458
54	0x3ce02c06	0.027364742
55	0xbc64e0e7	-0.0139696365
56	0x3d57ad3a	0.052655436
57	0xbcdc6033	-0.02690134
58	0xbc45beef	-0.012069448
59	0xbd9601c8	-0.073245585
60	0x3dabe817	0.08393877
61	0x38ecacb2	0.00011285524
62	0x3d869a94	0.06572452
63	0xbde7829d	-0.113042094
64	0xbc9dec6d	-0.019277776
65	0xbd0a3e70	-0.03375095
66	0x3dad0906	0.08448987
67	0x3dd2d942	0.10295345
68	0xbd7ff9b6	-0.062494002
69	0xbd3f5934	-0.04671593
70	0x3db01bfe	0.08599089
71	0x3d7413cf	0.059589203
72	0x3c059b93	0.008154768
73	0x3d168990	0.036752284
74	0x3de06e0e	0.10958491
75	0x3db5a4e5	0.08869342
76	0x3b15b4aa	0.002284328
77	0xbdfbd549	-0.1229654
78	0xbd6f727b	-0.058458786
79	0x3d8747d7	0.06605499
80	0xbdbb5cfe	-0.09148596
81	0xbe186f28	-0.14886153
82	0xbd9ec563	-0.07752492
83	0xbce2ef17	-0.027701898
84	0x3bd3b6f3	0.006461018
85	0xbd004cb1	-0.03132314
86	0x3d4a2675	0.04935308
87	0xbd093a42	-0.033502825
88	0xbd6d5c70	-0.057949483
89	0xbe45ad85	-0.19304474
90	0xbde7f45d	-0.113259055
91	0x3df9f111	0.12204183
92	0xbc555519	-0.013020777
93	0xbdd29cd3	-0.10283818
94	0x3e066b1f	0.13126801
95	0x3dfc31e3	0.12314203
96	0xbe16795e	-0.14694735
97	0xbe128f5d	-0.14312501
98	0x3ceee7d5	0.02916328
99	0xbbe1e711	-0.0068940003
100	0xbb0b636a	-0.0021268972
101	0x3e132563	0.1436973
102	0x3dcb6d75	0.09932987
103	0xbe407cd8	-0.18797624
104	0xbe0572bf	-0.13032053
105	0x3dbd143c	0.09232375
106	0x3e185da3	0.1487947
107	0xbe298ac2	-0.16556838
108	0x3aa59d25	0.0012635334
109	0xbca75aaf	-0.020428983
110	0x3e518a7f	0.20462988
111	0xbb354cc8	-0.0027664173
112	0xbd2598e8	-0.040429026
113	0xbe02ddd3	-0.12779932
114	0x3daaccfe	0.083398804
115	0xbd31e43a	-0.043430544
116	0x3d4718c8	0.048607618
117	0xbe345379	-0.17609967
118	0xbe070989	-0.13187231
119	0x3d3d63a9	0.04623762
120	0xbe6a3d55	-0.22874959
121	0x3dd2fc05	0.10301975
122	0x3eb25d07	0.348366
123	0x3be33b19	0.006934535
124	0xbcfe7c13	-0.031065023
125	0xbdac1a01	-0.08403397
126	0x3da79ae0	0.08183837
127	0x3e12668b	0.1429693
128	0x3e6ba6cf	0.23012851
129	0x3db205b3	0.08692493
130	0x3b78745f	0.003791116
131	0x3de77d9f	0.11303257
132	0xbe35af87	-0.1774274
133	0x3d87ceed	0.06631265
134	0xbd45d532	-0.048299022
135	0x3e171c8e	0.14756986
136	0x3c5f89b6	0.013643673
137	0xbda607e7	-0.08106976
138	0x3e3f5e57	0.18688332
139	0x3d60e7e6	0.054908656
140	0x3e35e85f	0.17764424
141	0xbe02ac61	-0.1276107
142	0x3b3a9e0f	0.0028475558
143	0x3e9fe824	0.31231797
144	0xbda092b5	-0.07840482
145	0x3c01e753	0.007928687
146	0xbccb8d0a	-0.024847526
147	0xbea54740	-0.32280922
148	0xbdf7bc62	-0.12096478
149	0xbe238a2b	-0.15970676
150	0xbd43d095	-0.04780634
151	0x3e67aa40	0.22623539
152	0x3d879bb5	0.06621496
153	0xbdc8bd5b	-0.09801742
154	0x3e0fb0a1	0.14032222
155	0xbd88706f	-0.0666207
156	0x3e540925	0.20706613
157	0x3e0a3470	0.13496566
158	0x3e0fc079	0.14038266
159	0x3c8f5f4d	0.017501498
160	0xbe1a27f3	-0.15054302
161	0xbdd03ff2	-0.101684466
162	0x3dae28ca	0.08503874
163	0xbc4efa5e	-0.012632934
164	0x3bf313a9	0.007418115
165	0x3d914867	0.07093888
166	0x3cf739e5	0.030178973
167	0x3db2f076	0.087372705
168	0xbd7eb1f7	-0.06218144
169	0x3e234862	0.1594558
170	0x3d769936	0.060204707
171	0x3da034d4	0.07822576
172	0xbd70fc35	-0.058834273
173	0x3cde1b19	0.02711253
174	0x3e01de7b	0.12682526
175	0xbd5215f8	-0.051290482
176	0x3c004d7d	0.007830975
177	0x3dd28409	0.1027909
178	0x3cbf3559	0.023340868
179	0x3e2e5e7a	0.17028227
180	0xbbbff207	-0.0058577093
181	0x3da3f359	0.08005399
182	0xbc67fd28	-0.014159478
183	0x3da6426f	0.0811814
184	0x3bbdb5e5	0.005789506
185	0xbd816116	-0.06317346
186	0xbc59d53c	-0.013295468
187	0xbc5c8500	-0.013459444
188	0x3d118ed4	0.035536602
189	0x3d4c40a6	0.04986634
190	0xbd114147	-0.035462644
191	0x3e2f3a65	0.1711212
192	0xbcb8b305	-0.0225463
193	0xbdd4a474	-0.103829294
194	0x3dd9e7e8	0.10639936
195	0x3da3dcf5	0.080011286
196	0x3e60f2b6	0.21967587
197	0x3d8cb9e7	0.068713956
198	0x3d9ced9e	0.076625094
199	0xbe20acf6	-0.1569098
200	0xbd9422a7	-0.07233172
201	0x3d848e9a	0.064725116
202	0x3d2afa98	0.04174289
203	0xbe04f8f1	-0.12985589
204	0xbd60506c	-0.054764196
205	0x3db0e8e2	0.08638169
206	0xbda1ab82	-0.07894041
207	0xbdbf4b13	-0.09340491
208	0xbc98229a	-0.018571187
209	0x3db12fde	0.08651708
210	0x3dfacdd3	0.12246289
211	0x3d715c9f	0.05892622
212	0xbb9317f7	-0.004488941
213	0x3d4a31f7	0.049364056
214	0xbe254af0	-0.16141868
215	0xbc2b2905	-0.010446792
216	0x3d86ec32	0.065880194
217	0x3d9df296	0.07712285
218	0x3cd66ed8	0.026175901
219	0x3e3292b6	0.17438778
220	0xbdbdadf5	-0.09261695
221	0x3d947cb1	0.072503455
222	0xbc2a1f9f	-0.010383516
223	0xbdceaf4f	-0.10092031
224	0xbe292508	-0.16518033
225	0x3d877313	0.066137455
226	0x3d6b21ea	0.05740539
227	0xbdd69da1	-0.10479284
228	0xba9eb41b	-0.0012108119
229	0xbdfd1ede	-0.12359403
230	0x3bd4f762	0.006499217
231	0x3e244ed6	0.16045699
232	0x3cc72a46	0.02431215
233	0xbcc11145	-0.023567805
234	0x3d619549	0.05507401
235	0x3de4338b	0.111426435
236	0x3d7c59fe	0.06160926
237	0x3c2b2cbc	0.010447677
238	0xbd1f7aae	-0.038935356
239	0x3d3be0bf	0.04586863
240	0x3e01874c	0.12649268
241	0x3dd4523c	0.103672475
242	0xbd715e5e	-0.058927886
243	0x3e07dda1	0.13268138
244	0xbe018f3a	-0.12652293
245	0x3d540a5b	0.05176769
246	0xbe5b310b	-0.21405427
247	0x3de9df72	0.11419572
248	0xbd585726	-0.052817486
249	0xbe28e7cd	-0.16494675
250	0x3d915ead	0.07098136
251	0x3db7703a	0.089569524
252	0xbd8a37f7	-0.06748956
253	0x3dbfe298	0.09369391
254	0xbd1c0cef	-0.038098272
255	0x3e0c80fe	0.13721082

fc2.bias f4 [40]
0	0xbe14163d	-0.14461608
1	0xbb9642af	-0.004585586
2	0xbdac9e05	-0.08428577
3	0x3d911509	0.0708409
4	0x3d4cdb1c	0.050013646
5	0x3db707fe	0.08937071
6	0x3c4d3175	0.0125239985
7	0xbe05662a	-0.13027254
8	0xbe0cd7cf	-0.137542
9	0x3d89dcc7	0.06731563
10	0xbe419973	-0.18906192
11	0xbcb15e1d	-0.021651322
12	0x3b603dd6	0.0034216545
13	0xbe176c7b	-0.14787476
14	0x3e2a7304	0.16645437
15	0xbd46b544	-0.048512712
16	0xbd0a9922	-0.033837445
17	0x3d7bdf82	0.06149245
18	0x3d87f2d4	0.06638113
19	0x3cbb985f	0.022899805
20	0x3e175c6c	0.1478135
21	0xbc801d01	-0.01563883
22	0x3dfd90b8	0.123811185
23	0x3d8fbd56	0.07018535
24	0x3dba19eb	0.09086975
25	0xbd5b2d32	-0.0535099
26	0xbe18a0aa	-0.14905038
27	0x3d701193	0.05861051
28	0xbe14fb60	-0.14549017
29	0x3db40935	0.087908186
30	0x3cd4c3e9	0.025972323
31	0xbda9cf14	-0.0829145
32	0x3dcf3324	0.10117176
33	0xbd8676a0	-0.06565595
34	0x3dd35f26	0.103208825
35	0x3d323e25	0.043516297
36	0xbdcbfc69	-0.09960253
37	0xbd401285	-0.04689266
38	0x3d64b8dd	0.055840362
39	0xbd60599c	-0.05477296

fc3.weight f4 [40, 40]
0	0x3d656f68	0.05601445
1	0x3df64c79	0.12026305
2	0x3dcf4bb0	0.10121858
3	0x3daa90b7	0.083283834
4	0xbe1567e9	-0.1459042
5	0xbdbb8649	-0.09156472
6	0xbd69fbdb	-0.057124954
7	0xbca7d31b	-0.020486405
8	0xbda21e6d	-0.079159595
9	0x3df4f4e8	0.11960775
10	0x3e20d80a	0.15707412
11	0xbdb053d8	-0.08609742
12	0xbb9d29ac	-0.0047962274
13	0xbd84432c	-0.064581245
14	0xbc675a1d	-0.014120606
15	0xbd695e1a	-0.056974508
16	0x3d4f9589	0.050679717
17	0x3bae3d1e	0.0053173443
18	0xbdb8c638	-0.09022182
19	0xbcf00dde	-0.029303487
20	0xbdcf9509	-0.10135848
21	0xbcb577cf	-0.022151856
22	0x3cce3afa	0.025174607
23	0xbaab6f53	-0.0013079442
24	0xbb0bbc0f	-0.0021321808
25	0x3cc43c20	0.023954451
26	0xbd68d1a3	-0.05684055
27	0xbb4c4e2e	-0.0031174528
28	0x3cff25f3	0.031146025
29	0xbc8a9db9	-0.016920911
30	0xbe39b8e6	-0.1813694
31	0xbc466cfd	-0.012110946
32	0xbbd07a66	-0.0063622473
33	0x3c814d97	0.015784068
34	0x3c94610f	0.018112687
35	0xbd3e3c01	-0.046443943
36	0xbcdfb8eb	-0.027309855
37	0xbe0e252a	-0.13881364
38	0x3e07383b	0.13205044
39	0xbcd6bb05	-0.026212225
40	0x3d1ed144	0.03877379
41	0x3b1c479c	0.0023846393
42	0x3e26cc1f	0.16288804
43	0x3cf62b78	0.030050024
44	0xbe71b72a	-0.23605028
45	0x3d681597	0.056661215
46	0xbe0d3ddf	-0.13793133
47	0x3d41d620	0.047323346
48	0x3cac2815	0.021015206
49	0xbdfe188f	-0.12407028
50	0xbdb9114e	-0.09036504
51	0xbc4ddbbf	-0.012564599
52	0x3c99afa0	0.018760502
53	0x3d10dc51	0.03536636
54	0x3e174691	0.14773013
55	0xbb5a03c4	-0.0033266405
56	0x3c307f34	0.010772515
57	0x3dfb5eed	0.12273965
58	0xbe2f8f32	-0.17144468
59	0x3e1799e1	0.14804794
60	0x3d1494bd	0.03627466
61	0x3d6e8791	0.058234755
62	0x3c825c4a	0.015913147
63	0xbc94cf78	-0.018165335
64	0xbd808c8b	-0.062768064
65	0xbd9efbb5	-0.07762853
66	0x3e379cd7	0.17930923
67	0xbdaef2cc	-0.085424036
68	0x3e3f2030	0.18664622
69	0x3cff9f82	0.031203989
70	0x3c1bcabf	0.009508788
71	0x3e0e8dc8	0.13921273
72	0x376161f8	1.3433855e-05
73	0xbe046da0	-0.12932444
74	0xbdac4c28	-0.08412963
75	0xbdb8a2b6	-0.0901541
76	0xbdee4478	-0.11634153
77	0xbd85d183	-0.06534102
78	0xbe1a60df	-0.15076016
79	0x3c18d169	0.009327271
80	0x3ec69691	0.38786748
81	0x3d934d24	0.07192448
82	0xbc56eb6b	-0.013117651
83	0x3e3b80c0	0.18310833
84	0x3e077265	0.13227232
85	0xbdbe9f83	-0.09307768
86	0xbdd6cbdc	-0.10488102
87	0xbeea3890	-0.4574628
88	0x3d7ed40e	0.06221395
89	0x3dc5d001	0.09658814
90	0x3ef59eb9	0.47972658
91	0x3e4d5287	0.20051013
92	0xbdf05890	-0.11735642
93	0xbd2d7609	-0.042348895
94	0xbe08ede7	-0.13372003
95	0xbef6fda7	-0.48240396
96	0xbdb30805	-0.08741764
97	0x3e16193d	0.14658065
98	0x3c8475cb	0.01616945
99	0xbd465e35	-0.048429687
100	0xbd8931b8	-0.06698936
101	0x3d8ab463	0.06772687
102	0x3d4c9e9a	0.04995594
103	0xbde4c979	-0.1117124
104	0x3eb9c591	0.36283544
105	0x3d7b2d7f	0.061322685
106	0xbea10612	-0.31449944
107	0xbdc5e5f3	-0.09663
108	0x3bf5adf5	0.007497544
109	0xbeb323d7	-0.3498828
110	0xbdb9720d	-0.090549566
111	0xbe0ab7af	-0.13546632
112	0xbe8c2049	-0.27368382
113	0xbe1a88ce	-0.1509125
114	0xbdcca9f8	-0.099933565
115	0xbc1bb4ec	-0.009503584
116	0x3cf682ff	0.03009176
117	0xbef5b1aa	-0.4798711
118	0x3d3ddcba	0.04635308
119	0x3c5b22d4	0.013375003
120	0xbe09cad2	-0.13456276
121	0x3dc602ca	0.09668501
122	0xbd1ba172	-0.037995763
123	0xbdecf130	-0.1156944
124	0x3df4c576	0.11951725
125	0x3ded8bff	0.11598968
126	0x3d40e8e0	0.047097087
127	0xbd55b45d	-0.05217396
128	0x3dc59a41	0.09648562
129	0xbde4ce74	-0.1117219
130	0xbd0b77fa	-0.034049965
131	0x3db4843d	0.08814285
132	0x3def8173	0.11694612
133	0xbe182d23	-0.14860968
134	0xbe6694a4	-0.2251764
135	0xbdbc0662	-0.09180905
136	0xbdcaaa66	-0.09895782
137	0x3c38b6b6	0.01127403
138	0xbdbb51de	-0.09146474
139	0x3d47ea71	0.048807565
140	0x3cc869dc	0.02446454
141	0xbd3f00f2	-0.04663176
142	0x3d0bdc81	0.034145836
143	0x3d53a9dc	0.051675662
144	0xbe0ea3ee	-0.13929722
145	0xbcb99296	-0.022652905
146	0x3debf14f	0.11520635
147	0x3df6f6a8	0.12058765
148	0x3ba46f84	0.0050181765
149	0xbd54afd9	-0.051925514
150	0xbda7b03e	-0.081879124
151	0x3d677da0	0.05651629
152	0xbc91c33f	-0.017793296
153	0x3c90efaf	0.017692415
154	0xbaac5129	-0.0013146746
155	0x3d9028cd	0.07039032
156	0x3de6bb10	0.11266148
157	0x3c254be4	0.0100888945
158	0x3dc869df	0.09785818
159	0xbe2759b5	-0.16342814
160	0x3e655a30	0.22397685
161	0x3daa8c93	0.08327594
162	0x3d8468e5	0.064653195
163	0xbdf7a165	-0.120913304
164	0xbdb1963c	-0.08671233
165	0x3e2f3867	0.1711136
166	0xbdaf38f5	-0.085557856
167	0xbdb372d5	-0.08762137
168	0xbc97a3a3	-0.018510645
169	0x3e2cb2d6	0.16865095
170	0x3d866a44	0.06563237
171	0x3d23a931	0.039956275
172	0xbdfa7d47	-0.12230926
173	0x3d7eb4fd	0.062184323
174	0xbdc0a7f0	-0.094070315
175	0xbd374562	-0.044743903
176	0xbc62b9cf	-0.0138382455
177	0x3e1bb555	0.15205891
178	0x3d1a18e6	0.0376214
179	0xbbc05beb	-0.0058703325
180	0xbe881d9b	-0.26585087
181	0xbdbdafb3	-0.092620276
182	0xbccddce7	-0.025129749
183	0xbc512c14	-0.012766857
184	0x3e0e4441	0.13893224
185	0x3d8d29a3	0.06892707
186	0x3c88d057	0.016700907
187	0xbdc20bec	-0.0947493
188	0x3d70ab04	0.058756843
189	0xbe3bcc84	-0.18339735
190	0x3d7210ae	0.05909794
191	0xbdb5c13b	-0.088747464
192	0xbdd9f790	-0.10642922
193	0xbde48f71	-0.11160172
194	0xbd1f6993	-0.038919043
195	0x3ae22efc	0.0017256434
196	0xbe19b8ec	-0.15011948
197	0xbe4baf2d	-0.19891043
198	0xbde826eb	-0.11335548
199	0xbdd0a560	-0.10187793
200	0x3d67ecd3	0.056622338
201	0xbdee587f	-0.11637973
202	0x3deefd6a	0.11669429
203	0x3dc3be17	0.09557741
204	0x3e374c25	0.1790014
205	0xbd7550da	-0.05989156
206	0xbdade66f	-0.08491217
207	0x3e0104e6	0.12599525
208	0xbe673d35	-0.22581942
209	0xbd3a9795	-0.045554716
210	0xbe1f9400	-0.15583801
211	0x3d06ec80	0.032940388
212	0xbd0c94e4	-0.03432168
213	0xbbe4f88c	-0.006987637
214	0x3eb76178	0.3581655
215	0x3c9a5f63	0.018844312
216	0x3d8a44ca	0.06751402
217	0x3d952c58	0.072838485
218	0xbe20f7e1	-0.15719558
219	0xbd0fa88a	-0.03507284
220	0xbde646bf	-0.112439625
221	0x3d8b44c7	0.068002276
222	0xbda06b1e	-0.07832931
223	0x3dbbcfa3	0.09170463
224	0x3e2ce6fa	0.16884986
225	0xbe0b64df	-0.13612698
226	0xbe1fd613	-0.15609007
227	0x3dc81633	0.09769859
228	0x3c905ee9	0.017623382
229	0xbd857a5f	-0.06517481
230	0xbe24316f	-0.16034482
231	0x3d796971	0.060891572
232	0xbe114fbb	-0.14190571
233	0xbdeeb461	-0.11655498
234	0x3de8be0a	0.11364372
235	0xbdd8626d	-0.10565648
236	0xbdd12ff8	-0.102142274
237	0x3d8e4ab4	0.06947842
238	0x3d99e130	0.07513654
239	0x3d5ce216	0.05392655
240	0xbe0ddcc2	-0.13853744
241	0xbd96e2ac	-0.07367453
242	0xbe78f907	-0.24313746
243	0x3de6c085	0.11267189
244	0xbd5a88d8	-0.05335316
245	0xbd20ea8c	-0.03928618
246	0xbd9b31b6	-0.07577841
247	0x3d80d5f1	0.06290806
248	0x3e5f1263	0.21784358
249	0xbe288109	-0.16455473
250	0x3dc01e53	0.09380784
251	0xbe2f39a8	-0.17111838
252	0xbbdf399b	-0.006812287
253	0x3e06a755	0.1314977
254	0xbea4bd92	-0.3217588
255	0xbcafdfae	-0.021468963

fc3.bias f4 [40]
0	0xbe072b6b	-0.13200156
1	0x3cac9538	0.021067247
2	0xbe0228b5	-0.12710841
3	0xbd8e6cd8	-0.06954354
4	0xbdc8fba1	-0.098136194
5	0xbdbf7c4b	-0.09349879
6	0x3e161643	0.1465693
7	0x3defcae9	0.11708624
8	0xbdea0ebd	-0.11428592
9	0xbda0a9e9	-0.07844908
10	0xbd12fc0f	-0.035884913
11	0x3e0afe6e	0.1357362
12	0x3d953501	0.072855
13	0xbd550d14	-0.052014425
14	0x3c2e79fe	0.010649202
15	0x3dd7d6ec	0.1053904
16	0xbc861620	-0.016367972
17	0xbd5d3d1d	-0.05401336
18	0x3b8f59e6	0.0043747304
19	0xbd5f2e27	-0.054487374
20	0x3df796eb	0.12089332
21	0xbd364d25	-0.044507165
22	0xbe16b84f	-0.14718746
23	0x3a8c6845	0.0010712227
24	0xbc8f1261	-0.017464818
25	0x3df0414e	0.11731206
26	0x3ddc0cfd	0.10744665
27	0xbe1990ad	-0.14996596
28	0xbcf7e3be	-0.030259963
29	0xbcf07559	-0.02935283
30	0x3e09980a	0.13436905
31	0xbe022534	-0.12709504
32	0x3dae40ba	0.08508439
33	0x3e28db5f	0.16489933
34	0x3cfb11c4	0.03064812
35	0xbd57a68e	-0.052649073
36	0x3dd59ba9	0.104300804
37	0xbdcb5838	-0.09928936
38	0xbbb000ea	-0.0053712027
39	0x3e36840b	0.17823808

fc4.weight f4 [40, 40]
0	0xbdbab1f0	-0.0911597
1	0x3e0a7853	0.13522463
2	0x3dc161e5	0.094425
3	0x3d84cb41	0.0648408
4	0xbda17a1b	-0.07884618
5	0xbd756a1b	-0.059915643
6	0x3df51afd	0.11968038
7	0xbda6c102	-0.08142282
8	0x3dbe5732	0.09293975
9	0xbd90ee1a	-0.07076664
10	0xbe389e79	-0.18029203
11	0x3de43e35	0.111446775
12	0x3cec3960	0.028835952
13	0x3b8b8f4f	0.004259027
14	0xbd5bc59d	-0.053655256
15	0xbd89cf78	-0.06729025
16	0xbd908de6	-0.07058315
17	0x3d4ecc6e	0.050487928
18	0x3d042669	0.032263193
19	0x3d87a89c	0.066239566
20	0x3dc2f4ab	0.09519323
21	0x3d9f1c3e	0.07769059
22	0x3c312669	0.01081238
23	0x3db1388a	0.08653362
24	0x3a4b2286	0.000774898
25	0xbdaf498e	-0.08558951
26	0x3de4c260	0.111698866
27	0x3d2e1654	0.042501763
28	0xbd97abbd	-0.07405803
29	0xbe1012d5	-0.14069684
30	0xbd5dc02f	-0.05413836
31	0x3e24b4ea	0.16084638
32	0x3df56ad4	0.119832665
33	0xbd17f9b1	-0.03710336
34	0xbdc15ae8	-0.09441167
35	0xbd49b16e	-0.049241476
36	0xbd8366c3	-0.064160846
37	0x3d740058	0.05957064
38	0xbdd05232	-0.101719275
39	0x3dd3f232	0.103489295
40	0x3d83ef89	0.06442172
41	0x3e0278ad	0.12741347
42	0x3e0d864a	0.13820758
43	0xbcd62f6f	-0.026145665
44	0xbd2c8a8a	-0.04212431
45	0x3e0de3f0	0.13856483
46	0x3e12fb0f	0.14353584
47	0xbd9f4373	-0.07776537
48	0xbae9aedb	-0.00178286
49	0xbd67e5e7	-0.056615736
50	0xbd201916	-0.039086424
51	0x3dc4ead7	0.09615105
52	0xb9db5f10	-0.00041841762
53	0x3cb8b809	0.022548692
54	0x3d303bde	0.043025844
55	0x3e05eb15	0.13077958
56	0x3d4fe1ed	0.05075257
57	0xbe1d469d	-0.15358968
58	0x3d8b5b62	0.06804539
59	0x3de40dc5	0.11135439
60	0xbe0cd1e1	-0.13751937
61	0x3de0e263	0.1098068
62	0x3e08577a	0.1331462
63	0xbd35f1ee	-0.044420175
64	0xbdfca077	-0.12335294
65	0xbd3b244b	-0.04568891
66	0x3d9e3579	0.07725043
67	0x3e0aa3e6	0.13539085
68	0x3d21c230	0.039491832
69	0xbd0bf512	-0.034169264
70	0xbdd0007c	-0.101563424
71	0xbd8d83e0	-0.06909919
72	0x3de48e09	0.111599036
73	0xbd9a5203	-0.07535174
74	0xbdf93165	-0.121676244
75	0xbdd27289	-0.10275752
76	0x3d3950c3	0.045243036
77	0x3d68d8e4	0.056847468
78	0x3dd3befa	0.1033916
79	0xbce79d7b	-0.028273335
80	0xbd4fd25e	-0.05073773
81	0xbda44197	-0.08020323
82	0xbd8ff6ce	-0.07029496
83	0xbd7854b3	-0.06062765
84	0x3dfc5508	0.12320906
85	0x3bf7d6a7	0.0075634304
86	0xbdad4187	-0.08459764
87	0xbab14e0a	-0.0013527286
88	0xbd9ab5ff	-0.07554244
89	0xbdf84b34	-0.12123719
90	0x3c71ebec	0.014765721
91	0x3c1c3fc0	0.009536684
92	0xbdaf8c7a	-0.08571716
93	0xbe072c2a	-0.13200441
94	0x3d182cad	0.03715198
95	0x3d3fe488	0.046848804
96	0x3da3f956	0.080065414
97	0x3b81c6f4	0.0039604846
98	0xbd41ff4c	-0.04736261
99	0x3df1ec16	0.11812608
100	0xbd1e6664	-0.038671866
101	0x3da6a53e	0.08136986
102	0xbc820f31	-0.015876384
103	0xbd436a22	-0.047708638
104	0x3e0fa838	0.14029014
105	0xbbc1efa1	-0.0059184586
106	0xbdb628ec	-0.08894524
107	0x3cb9bd64	0.022673316
108	0xbdefee89	-0.11715419
109	0x3d83ee89	0.06441981
110	0xbd7c8719	-0.061652277
111	0x3e14e68a	0.14541069
112	0x3dead796	0.11466901
113	0x3d3d4a15	0.04621323
114	0x3d56d1ce	0.05244618
115	0xbd62fe59	-0.055418346
116	0x3da36e4d	0.079800226
117	0xbe2695fb	-0.1626815
118	0xbc703bee	-0.014662726
119	0x3d82100a	0.063507155
120	0x3d55c3a8	0.052188545
121	0x3d9c4ae6	0.07631473
122	0xbc9ba9e4	-0.019001909
123	0xbdf2a005	-0.118469276
124	0xbc9fed5c	-0.019522361
125	0x3cbd2bdb	0.023092201
126	0x3dd12357	0.10211819
127	0xbe30fc97	-0.17283855
128	0x3e16484e	0.1467602
129	0x3de21efe	0.110410675
130	0x3de29506	0.1106358
131	0xbe2975bd	-0.1654882
132	0xbca889ea	-0.020573575
133	0x3d64d908	0.05587104
134	0xbd6fa6ef	-0.05850881
135	0x3d4e04bf	0.050297495
136	0xbd275831	-0.04085559
137	0xbde8eca6	-0.11373262
138	0x3bc3ffb5	0.0059814104
139	0x3cbfeb8c	0.023427747
140	0x3bb088b2	0.005387389
141	0xbdab19ed	-0.08354554
142	0x3e5a6e2a	0.21331087
143	0xbe03cbf5	-0.12870772
144	0x3e223e3f	0.15844058
145	0xbdc1b884	-0.09459022
146	0xbbfdd5ac	-0.007746419
147	0x3d87a38a	0.066229895
148	0x3da96c0b	0.08272561
149	0x3e187614	0.14888793
150	0x3d06ac9e	0.032879464
151	0xbda4fc4b	-0.080559336
152	0x3d1fb929	0.03899494
153	0xbd8d53f2	-0.06900777
154	0x3da97ee3	0.08276155
155	0xbcc49bd5	-0.024000088
156	0xbaed949e	-0.0018125956
157	0xbc962f5d	-0.018333131
158	0x3d9af9a1	0.07567144
159	0xbcfd2b3d	-0.030904407
160	0xbd7048f6	-0.05866333
161	0xbe490bd1	-0.19633414
162	0xbded0324	-0.11572865
163	0x3df1ceeb	0.118070446
164	0xbe021e71	-0.12706925
165	0xbdf1cc07	-0.11806493
166	0x3d93823f	0.07202577
167	0xbd49a859	-0.049232814
168	0xbd15aebb	-0.03654359
169	0x3db73765	0.089461125
170	0x3d426c13	0.04746635
171	0x3d21cbce	0.039501004
172	0xbb8a6d5e	-0.0042244634
173	0xbdcb8807	-0.099380545
174	0x3d10c5c5	0.035344858
175	0x3d877280	0.06613636
176	0xbd38cbff	-0.04511642
177	0xbdab5afa	-0.08366962
178	0x3b51792d	0.0031963096
179	0x3de97646	0.11399512
180	0xbd9ce331	-0.07660521
181	0x3c9107f6	0.017703991
182	0xbe449389	-0.19196905
183	0xbd826914	-0.06367698
184	0xbe2bd454	-0.16780216
185	0x3e014797	0.12624966
186	0x3dab71f0	0.08371341
187	0xbd2897e3	-0.041160475
188	0xbdcada95	-0.099049725
189	0xbe156c5f	-0.14592122
190	0xbd2b56d6	-0.04183086
191	0x3d26c372	0.040713735
192	0x3dbbd711	0.0917188
193	0x3db59214	0.08865753
194	0x3db4c4b4	0.08826581
195	0xba2edc71	-0.00066704216
196	0x3de2aa8e	0.11067687
197	0x3dddcf1f	0.10830521
198	0x3e23b573	0.15987186
199	0xbdba1caf	-0.09087502
200	0x3ca68982	0.02032924
201	0x3d72f28c	0.059313342
202	0xbd04f292	-0.032457896
203	0x3e085b83	0.13316159
204	0x3cb9798f	0.022640971
205	0x3e0820e7	0.13293801
206	0xbe3ca813	-0.1842349
207	0x3d58921d	0.05287372
208	0xbe0f71d1	-0.14008261
209	0x3d731376	0.05934473
210	0xbe865f37	-0.26244518
211	0xbe094a2c	-0.134072
212	0x3e3f937c	0.18708605
213	0x3d84b8fd	0.06480596
214	0x3dfcf38d	0.12351141
215	0xbe36d44f	-0.17854427
216	0x3d01ed77	0.031720605
217	0xbdac0f51	-0.08401359
218	0xbdb16734	-0.086622626
219	0x3c95182d	0.018200004
220	0xbdab1b9b	-0.08354875
221	0xbdd49aff	-0.10381126
222	0xbd200aae	-0.039072685
223	0x3bb50468	0.005524207
224	0xbdaa3925	-0.08311681
225	0xbc7a0bac	-0.015261572
226	0x3e34a9de	0.17642924
227	0x3d2f1cf5	0.042752225
228	0xbd6d3d52	-0.057919808
229	0xbd62bf15	-0.05535801
230	0xbe4e0beb	-0.20121734
231	0xbdd4b2a3	-0.10385635
232	0xbc0c8a55	-0.008577903
233	0xbd2d7a03	-0.042352688
234	0x3bfae66a	0.007656862
235	0x3d50a9c7	0.050943162
236	0xbe427fb8	-0.18994033
237	0x3c906389	0.017625587
238	0x3c81bd32	0.015837286
239	0xbe194b69	-0.14970173
240	0xbdee3d95	-0.116328396
241	0xbe0b8cba	-0.13627902
242	0xbd026e3a	-0.0318434
243	0xbd52f17c	-0.05149983
244	0x3db42f77	0.08798116
245	0x3dc93ea0	0.09826398
246	0x3d19b6f2	0.037527986
247	0x3d4b4ac7	0.04963186
248	0xbd90d5ba	-0.07072015
249	0xbe0d73f4	-0.13813764
250	0xbdc485ad	-0.09595809
251	0xbdf3c625	-0.119030274
252	0xbb5c5413	-0.0033619448
253	0x3df68ca1	0.120385416
254	0x3daaa7db	0.08332797
255	0xbd4a5b1b	-0.04940329

fc4.bias f4 [40]
0	0x3d467270	0.04844898
1	0x3c87f05c	0.016594104
2	0xbd3a87e7	-0.045539763
3	0xbdeac151	-0.114626534
4	0x3de6800c	0.11254892
5	0x3d2ffaac	0.04296367
6	0x3dffe562	0.12494923
7	0x3d3f2fa2	0.046676286
8	0xbc4dd86e	-0.012563808
9	0x3da9d264	0.08292082
10	0xbd7e257d	-0.06204747
11	0x3d172be8	0.036907107
12	0x3c045529	0.008076944
13	0xbd860126	-0.06543188
14	0xbd1ebec1	-0.038756136
15	0xbda40d1e	-0.080103144
16	0x3d35392d	0.04424398
17	0xbcbe072c	-0.02319678
18	0x3d5346a7	0.05158105
19	0x3d04ead3	0.03245051
20	0xbd6aa111	-0.05728251
21	0xbd5b9ed1	-0.053618256
22	0xbcba0798	-0.0227087
23	0xbd7790ef	-0.060440954
24	0xbd26a7a0	-0.040687203
25	0x3cb20a3c	0.021733396
26	0xbd859241	-0.06522036
27	0xbd0419e6	-0.03225126
28	0xbdc7cc51	-0.09755767
29	0xbdf4c375	-0.11951343
30	0xbdb6a1ac	-0.08917555
31	0xbe37152e	-0.17879173
32	0xbe0b368c	-0.13595027
33	0x3dd41720	0.10355973
34	0xbd8183e8	-0.06323987
35	0x3c61b226	0.013775384
36	0xbd32ade5	-0.04362287
37	0xbe38c611	-0.18044306
38	0xbd3bc512	-0.045842238
39	0xbdb39a6a	-0.087696865

fc5.weight f4 [1, 40]
0	0xbd45bd1f	-0.048276063
1	0xb98a24d2	-0.00026348844
2	0x3dd46484	0.10370734
3	0x3aa27700	0.0012395084
4	0x3a73089b	0.00092709967
5	0xbe22a8ab	-0.15884654
6	0x3ca80eb9	0.020514833
7	0xbac22c94	-0.0014814311
8	0xbd5196b4	-0.051169112
9	0xbd718c03	-0.058971416
10	0xbc4dc8ca	-0.012560079
11	0xbabd7fee	-0.0014457682
12	0xb964aaa7	-0.00021807347
13	0x3cdf240a	0.027238864
14	0xbd1aeeb6	-0.03782531
15	0x3e0498a2	0.1294885
16	0xbadc2e1d	-0.0016798411
17	0xbba49b43	-0.0050233915
18	0x38827fe2	6.222703e-05
19	0xbc8d2c7d	-0.017233128
20	0x3dd72326	0.10504751
21	0x3dbd3c9c	0.09240076
22	0x3a88475b	0.0010397242
23	0x3c8e62c6	0.017381083
24	0x3e35bd3b	0.17747967
25	0x39f3a630	0.0004647239
26	0x3cacc2be	0.021088954
27	0x3d16d598	0.036824793
28	0x3b3e9d16	0.002908533
29	0x3cf8fc05	0.03039361
30	0x3c027799	0.007963085
31	0x3d988062	0.07446362
32	0x3c3f693c	0.011682805
33	0x3993da82	0.00028200826
34	0xbce3ab5e	-0.027791675
35	0x3cdd6d76	0.027029734
36	0xbe1e2cad	-0.1544673
37	0x3dad7a1d	0.08470557
38	0x3ac6db74	0.0015171603
39	0x3e708be0	0.23490858
