Pytorch_PINN/non_conservative.ckpt (torch, 23689 bytes, 9 tensors)

fc1.weight f4 [40, 2]
00000000: b07f bbbe 3af7 a73d 87e7 cebe 66b1 563e
00000010: 80da 1cbf 09b3 b0bd 7bb9 da3e f704 5d3f
00000020: 3a74 c03d 8376 87be 93cb 573e 7728 9dbd
00000030: ae57 d23e 08f0 163d 1bd7 5d3e 150b 383f
00000040: 8da9 08be 7ca1 9c3c bdf9 a73e 1e85 6ebd
00000050: d625 adbe 9cb2 73bf 28f2 2fbf e242 1dbf
00000060: aee9 5dbf e2f7 cdbe a501 39bf 0b4c 4bbf
00000070: 8358 85bf 2f23 203f 5502 353f 2bf9 6a3e
00000080: 0fe4 213f 02ac c33d 0910 be3e d441 ddbe
00000090: 03a2 543f 0ba8 e3bd ef34 563f 8182 123e
000000a0: 168b 553f 31b2 053f c210 82be 62b7 72be
000000b0: 3c01 0b3b 5666 bbbc 5980 33be edd1 b33e
000000c0: 3a5a 44bf b95d 673b fe21 3ebf ae5b 2f3f
000000d0: d3dc 1bbf e0c0 293e c5e2 d6be bf65 eb3e
000000e0: f4d7 bc3c 6093 96bd 3f38 1c3f afa4 5c3f
000000f0: 6172 49bf ea84 eabe 8132 b93d af22 813e
00000100: c4dd 6b3e 2712 5f3f 161f 0a3f cfe5 ccbe
00000110: 8247 34bf d691 123f 0cdd 803f d393 cfbe
00000120: 4430 46bf 4f19 cb3e 02d9 61bf a9cd 21be
00000130: a86a 84bf d3d4 b23e c868 d7be dbd9 b5be
-0.36620855 0.082014516 -0.40411016 0.2096611 -0.61270905 -0.08627898 0.42719635 0.863357
0.093971685 -0.26457605 0.21073751 -0.07673734 0.4108252 0.036850005 0.21664087 0.7189191
-0.13345928 0.01911997 0.32807723 -0.05823242 -0.3381793 -0.9519441 -0.68728876 -0.6143018
-0.8668469 -0.40228182 -0.72268134 -0.7941291 -1.0417637 0.62553686 0.70706683 0.22946613
0.63238615 0.09554292 0.3712161 -0.43214285 0.8305971 -0.11116036 0.8367452 0.14307596
0.83415353 0.52225024 -0.2540341 -0.23702767 0.0021210453 -0.022875946 -0.1752943 0.35121098
-0.76700175 0.0035303666 -0.7427062 0.6849927 -0.60883826 0.16577482 -0.41969886 0.45976064
0.023052193 -0.07352328 0.61023325 0.8618879 -0.78690153 -0.4580453 0.09042836 0.25221774
0.23033816 0.87137073 0.53953683 -0.4001908 -0.7042161 0.5725378 1.0067458 -0.40542468
-0.774174 0.39667746 -0.8822175 -0.1580111 -1.0345049 0.34927997 -0.4207213 -0.35517773

fc1.bias f4 [40]
00000000: 01fc d2be 4964 77be f36a ab3e fdd2 9f3d
00000010: e51a 1c3f 2584 89be 7435 69be 086b 273f
00000020: 5472 27bf 060d 90be ee18 c4be 292e 373f
00000030: 5c2c cf3e 46fe 82be b609 15be 831b 143e
00000040: 93aa 86be 433d 393e 616a c0be 71c1 f1be
00000050: f097 05bd bac9 d53e f182 1e3f 7e22 f83d
00000060: 57f8 cbbe d68f b83e 5fe2 9b3e d4b7 973e
00000070: 841d 82be 94fb 0ebd 62c4 a03e e4e5 a63e
00000080: 3972 ee3e 1c0c c8be 5db2 de3e e3c4 8dbe
00000090: 4e14 b63c 0e1e a4be 1454 e1bd 8213 e93e
-0.4120789 -0.2415935 0.33480033 0.07803915 0.6097854 -0.2685863 -0.22774297 0.6539769
-0.65408826 -0.28134936 -0.3830027 0.7155481 0.4046353 -0.2558462 -0.14554486 0.1446362
-0.26302013 0.18089776 -0.3758116 -0.47217897 -0.032615602 0.41755468 0.6191855 0.12115954
-0.39837906 0.36047238 0.30446145 0.29632437 -0.25413144 -0.034907892 0.31399828 0.32597268
0.4657152 -0.3907174 0.43495455 -0.27689275 0.022226479 -0.3205418 -0.11002365 0.45522696

fc2.weight f4 [40, 40]
00000000: 1df1 123e 40f1 053e 4101 c83e b162 92bc
00000010: 4f8d 153e 3871 35be 8066 1ebf cc84 cf3d
00000020: 7946 29be dd5c 37be 1c5e b4bd 9ea6 7f3e
00000030: e064 8b3e 36fd 8abd 6ff2 ba3d a551 12be
00000040: 525f ecbe d9b8 13bc 2de3 36bf 365f 29bf
00000050: 10e2 14be 014e 923e 74ab 3a3e 0d88 ccbd
00000060: d3e2 9a3d da39 923e 5496 1b3f dc5d db3d
00000070: ec7a 5c3b ca7e 9abd 5e69 a33d 6988 413d
00000080: 958a 1ebb 2b22 46be 4e87 403e f3f8 49bf
00000090: b121 173f cace 173e 6cb7 a13e a0b8 693e
000000a0: e73c 0abe 34c4 cbbd ea2b 553d bba3 5b3c
000000b0: 790b 1ebe 844a b83d c6b7 3bbe 9c9d 923b
000000c0: ad09 14be 471b d23c 0a00 54bc 9353 1d3e
000000d0: 9cd0 943c e167 1abe 6247 393e 971d 08be
000000e0: 1a21 9e3c 6443 21be 02a5 ebbc d603 2cbd
000000f0: d024 803d 4fab 16bd f1dc 0c3e 82a6 2b3e
00000100: 9506 3fbc cc12 043c 3ff6 dc3d 3bca 003e
00000110: 56e1 1a3e 43ab 3a3e 20f8 7c3d cb87 873c
00000120: c8b5 d0bd dbe6 15be 3e19 193e 33e9 a4be
00000130: 652c c13d 5d5d 043e 0293 ebbd ec17 c0bd
00000140: 90fb 16be d131 b63d 6cb2 22bd 6eb2 9f3d
00000150: 0fa8 1bbd cc39 c2bc ab77 513e f49a f9bd
00000160: 3b2c b9bd 1e5f 0e3e da70 2b3e 862e c7bd
00000170: fdef 3dbe 0abd 7e3c 16f7 3cbc 7620 493d
00000180: d157 233e ad68 913c 1f11 7dbc 3343 5d3d
00000190: 459e a33d 326c b2ba 3d1f fcbd 8ce2 f1bc
000001a0: 7bfd fabc bbbe f6bd aad6 3c3c aa72 df3c
000001b0: 65d4 183e 68e9 fd3d 318a d7bc e894 10be
000001c0: 872c f63c 9e72 f23d 8882 503d 9f5e 4f3e
000001d0: 26de 273d 2d27 003d e31a 2fbc 5ec1 3d3d
000001e0: ae9e 0fbe f196 b93d e366 153c ab95 ba3c
000001f0: 5e9a 80bd c822 893d 3a0a 8e3d 99b2 36be
00000200: 901f 61bd e110 d33d 10f6 b0bd baab f2bd
00000210: c215 a73d b133 e43d baed febd 0aab 5f3d
00000220: 776e c2bd fb7d 043e 4256 383c b93f 7f3d
00000230: 16c7 063d 76e6 18be 2f5c bf3d 8183 febd
00000240: 6822 ffbd 1462 5f3c 6a48 c13c 12c5 be3d
00000250: 6d93 e1bd fe97 48bd 3b59 ea3d a5dc 863d
00000260: 0edc 1dbe 4ef1 5b3c 87af 923b 2aa7 dbbd
00000270: 4c33 ce3d 947b f33c 4f3b 3dbd ab43 2a3d
00000280: aaff 703d 7e80 d73d 3c03 8abd 71e3 15be
00000290: d74f 973d 39fc c33d aa79 313e 5f12 e6bd
000002a0: 14a2 9d3c a010 493e 85c9 2a3c 5b9c 18be
000002b0: 9ef9 44be 7b42 3d3c 1d01 c63c b573 713c
000002c0: 502e 0b3e fbb7 a53d 1aae 7b3e ca25 893e
000002d0: a76d c13c 19e3 16be b088 0b3c b5bb 77bd
000002e0: eeb5 9d3d 9cc4 8dbb a5d3 b4bd 0d5b 2a3d
000002f0: e285 03be c5e1 88bd 9d01 9a3d f014 a3bd
00000300: 63b6 063d 624b 183e 28ae 8c3d 5f5a 883c
00000310: 09f1 97bc fd4d a2bc 3ac3 543b 374a b63d
00000320: 2420 943d f0bf 2fbe 7e1f 5a3d 136a 2cbe
00000330: cbc6 f53d f28a fbbd 8626 173e 9bd2 f7bd
00000340: e2bd 653d d820 a03d bb18 913d 3ebc 463e
00000350: fd6d 273d 9a58 0dbe f4d5 44be 22d8 213e
00000360: 6d85 583c 9223 473c 08ea 42bd b7b1 a73c
00000370: 841c 3cbd 728c 713d b5e6 b2bd acbc 503d
00000380: edb5 2abd 2204 af3d 7f26 013e a7c0 883c
00000390: 142f 3b3d 6098 30be 313b 8fbb 79f3 ddbd
000003a0: 3a3e 0cbe d176 e83d 2e0d 25be b09a 843a
000003b0: 7efc cabd 1059 86bd f8f5 aabd cbc4 a9bc
000003c0: eb5f 173e d56a 3c3e 4ee5 583a 3115 2cbe
000003d0: 3430 7d3d 4a26 f7bd 9ac8 28bd e7e3 a43c
000003e0: 3ea8 51bd fcd0 1d3b fded e9bd aa50 513d
000003f0: 1bc5 673e b757 353e 86d6 4d3e d5a1 02be
0.1434979 0.13080311 0.39063457 -0.017869325 0.14604686 -0.17718971 -0.6187515 0.10132751
-0.1653079 -0.17906518 -0.088070124 0.24965903 0.272254 -0.067865774 0.09128272 -0.14288957
-0.46166474 -0.009016239 -0.7144039 -0.66160905 -0.14539361 0.28575137 0.18229467 -0.09986887
0.075627945 0.28559762 0.6077626 0.10711262 0.0033642603 -0.07543714 0.079790816 0.04724923
-0.0024191488 -0.19348972 0.18801615 -0.7889549 0.59035784 0.14824978 0.31585252 0.22824335
-0.13499795 -0.09949532 0.052043833 0.013405736 -0.15434064 0.08998588 -0.18331823 0.004474355
-0.14456816 0.025647772 -0.012939462 0.15363912 0.018165879 -0.15078689 0.18093637 -0.13292538
0.019302893 -0.15748364 -0.028765205 -0.041995846 0.062570214 -0.036784466 0.13756157 0.16762736
-0.011659284 0.008061122 0.10789155 0.12577145 0.15125021 0.18229394 0.061760068 0.016544243
-0.10190922 -0.14638846 0.14951035 -0.32209167 0.09432296 0.1292624 -0.11502649 -0.09379563
-0.14744401 0.088962205 -0.039720938 0.07797705 -0.03800207 -0.0237092 0.20455806 -0.12187758
-0.090416394 0.13903472 0.16742268 -0.097256705 -0.1854858 0.015548 -0.011533519 0.049103223
0.15951468 0.017750109 -0.0154459765 0.054019164 0.07989172 -0.0013612567 -0.12310646 -0.029526971
-0.030638447 -0.12048098 0.011525789 0.027276356 0.14924772 0.12398034 -0.026311012 -0.14119303
0.03005053 0.11838268 0.050905734 0.20250939 0.04098334 0.03128736 -0.010687563 0.046326987
-0.14025375 0.09061993 0.009118768 0.022776445 -0.06279443 0.06696087 0.06935544 -0.17841567
-0.05496174 0.10305954 -0.08640683 -0.118491605 0.08158447 0.11142672 -0.124476865 0.054606475
-0.09493726 0.12938683 0.011251034 0.06231663 0.032904707 -0.14931664 0.093437545 -0.12427426
-0.12457734 0.0136342235 0.0235941 0.09314932 -0.11014447 -0.048973076 0.114428006 0.06585053
-0.15415975 0.013424231 0.004476491 -0.107252434 0.10068378 0.029722013 -0.04619914 0.04156844
0.05883757 0.10522555 -0.06738898 -0.14637543 0.07388275 0.09569592 0.17331567 -0.11233973
0.019242324 0.19635248 0.010424023 -0.14903395 -0.19235846 0.011551495 0.024170453 0.014737059
0.13591886 0.08091732 0.24578133 0.26786643 0.023611857 -0.14735068 0.008516476 -0.060481746
0.07700716 -0.004326416 -0.088294305 0.04159074 -0.12844041 -0.06683687 0.07519839 -0.07962978
0.03288878 0.14872506 0.06869155 0.016644655 -0.018547552 -0.019812578 0.0032464997 0.08900874
0.07232693 -0.17163062 0.05325269 -0.16837339 0.120008074 -0.12282361 0.1476079 -0.12100717
0.05608929 0.078187644 0.07084795 0.19407746 0.040876377 -0.1380333 -0.19222242 0.15805104
0.013215405 0.012154477 -0.04758647 0.020470483 -0.045925632 0.05897183 -0.0873541 0.05096118
-0.041677404 0.0854571 0.12612341 0.016693426 0.045699194 -0.17245626 -0.00437107 -0.10837454
-0.13695613 0.113507874 -0.16118309 0.0010116901 -0.0991144 -0.06559956 -0.08347696 -0.020723721
0.14782684 0.18400128 0.0008273915 -0.16804959 0.06181355 -0.1206785 -0.041206934 0.020128204
-0.05118584 0.0024080863 -0.11422346 0.051102318 0.22633784 0.17709242 0.20101365 -0.12757047

fc2.bias f4 [40]
00000000: 64d9 6a3d 6d0f 1dbe f97b cebc c7b8 2a3d
00000010: 1ef8 bb3d 30c0 babc b973 eabd 2ed0 de3d
00000020: cb09 443d 37ee 93bd 3b4c 043d fa49 fdbc
00000030: 971e 973c 964b 043e 1396 c6bc 0cdf 1b3e
00000040: 87e1 c83d 3276 ac3d a15d d5bd b99c 0e3d
00000050: e37e 4a3d 1b27 0f3e a08a 313d 7b5e 2b3d
00000060: 7915 13be 6024 18be 6a69 9c3c df21 b4bc
00000070: c6e4 a5bc d295 313e 2b16 f13d 006e 0b3e
00000080: 5a73 aa3d 0b18 103d b947 0fbe 599d ee3d
00000090: 563d 07be 4a11 e9bc 9bcc 91bd 48e7 0fbe
0.057336226 -0.15337916 -0.0252056 0.041680124 0.09178184 -0.02279672 -0.114478536 0.10879551
0.0478609 -0.0722317 0.03229926 -0.030919064 0.018447204 0.12919459 -0.024241483 0.15221804
0.09808641 0.084209815 -0.10418249 0.03481743 0.049437415 0.13979761 0.043345094 0.04183815
-0.1436366 -0.14857626 0.019093234 -0.021988807 -0.02025069 0.17342308 0.11771806 0.1361618
0.08322783 0.03517918 -0.13992204 0.116511054 -0.13206992 -0.028450627 -0.071191035 -0.1405307

fc3.weight f4 [40, 40]
00000000: f033 79bd ebd2 0c3e 0c3d 333c f981 d63d
00000010: db28 0d3e 5daf cabd 9d9a 60bd 444e 0bbe
00000020: d30a 1fbe a51d fdbc 3b55 bbbd 9427 053c
00000030: bc4e 883b e95e f63d 9cd6 243e 8ed2 f33d
00000040: 3930 ff3d 3e6b de3d 3e44 933d 0076 77bc
00000050: bd1a 1bbe 13dc e03d 6824 19be fd1c 803d
00000060: cf7e 363e 8f97 3e3d 8950 ccbc 7f58 00bd
00000070: 2f89 c53d b432 cdbd 3afc 4bbc f672 23be
00000080: 1e77 d63c a0ee 1ebd 221b 02be 43f3 1dbe
00000090: 827d ee3d 2736 a93c d27f ba3d 7503 c5bd
000000a0: 8490 01bd bd92 58bd 621d ca3d a532 63bd
000000b0: d43b 7b3d 86b1 563e 7309 08bc 0421 9b3c
000000c0: ec7f 07bc af62 b7bc 4c50 5ebd fa06 d13c
000000d0: b025 35be df11 4d3e df11 46bc 126f e83d
000000e0: 807d bfbd 4a08 483b 6ab5 e03c fb21 24bd
000000f0: 5f6c a13c 4bfc dfbd bfe5 073d 25c0 543d
00000100: cf86 533d 5f14 d43d f611 66bc 77ec cfbd
00000110: 9b19 0a3e 15ce adbc 6ded 5abe 249a 813d
00000120: 8d08 aa3d 321d 8a3d 6b38 6ebd 60e7 b1bd
00000130: 6d17 84bd 79dc fabc 69da 2ebd 9acc 383e
00000140: b4b9 693c e456 c1bd 81ff 5e3d ae62 3dbd
00000150: 53a9 a13d b0d6 0f3d 95e0 ed3d 83ff 543d
00000160: bba2 043e 0dd5 3a3c 83c5 c6bc 81f8 04bc
00000170: 36bc 5dbd bc32 d9bd 7abd cfbd 961a dbbd
00000180: 9b69 0f3e 80f2 d6bc f524 1a3e 8d5f de3d
00000190: d426 c83d 2dca 213e 749e 11be 9d68 29bd
000001a0: ef19 97bc 4518 0cbe ca1e de3d c721 b93d
000001b0: 3939 1dbe 1b85 493c ec6e 123e 3dd6 fd3d
000001c0: a5c1 133e 2572 ed3b 094c a5bb e993 193e
000001d0: 1e90 32bd 125d 85bd ba19 833a 6f18 563c
000001e0: 325b 883e 6a0c 903e d98b cbbd 8ab7 4e3d
000001f0: a099 ebbd adce 883d df80 c03c ead6 49be
00000200: c546 ac3d e07e bf3e df3d 87bd dcd5 d6be
00000210: 4a29 c23c 09a6 b63e cbdc 953e f591 073e
00000220: 3602 b3be bd99 6ebd 45d3 a6be 9038 ad3e
00000230: 3f93 50be 4895 02be 970d 37bd 50d2 963e
00000240: bef2 443e 9aab babc ab9b a53e 604d ba3d
00000250: dc29 2cbe 9045 483e 91fe 6cbc cf2a 27be
00000260: fecd 91bd f81b b53d e2bc f7be 15d2 9b3d
00000270: c679 843d eaf9 efbd add9 aabc cac8 18be
00000280: 3c4b 89bc 265e 7abd 7f92 b93d 073d e7bd
00000290: 4af3 afbd 5593 83bd 8345 343c 9a19 c9bd
000002a0: ed5d 1c3e 0d34 f93d 275f 5d3d f583 96bd
000002b0: 451c 27bc 481c 7abd 30ca a2bd c193 253e
000002c0: ebce 8f3d dd78 a03c f602 19be f0da 553d
000002d0: a836 bfbd 2ab9 1f3d 5f3a 7c3c 4b5a 263e
000002e0: a7ed 3fbd dc54 323d 75c4 80bb 58e1 8e3a
000002f0: 16ee fcbd 7b16 b5bd 7c1e b1bd b7c6 f93c
00000300: 035b e5bd 2e51 4e3d 5cfb ad3d fc85 0fbd
00000310: 9ee5 24be 0b9d 523d dc1b 15bd d6cf f2bd
00000320: b0e0 0bbe e6d7 15be a3f2 6bbc e062 963c
00000330: 2f49 b83d 7ed7 293e d3fc 74bd 64a1 fd3d
00000340: 8ea3 1a3e 8bfe 273d d18b 99bd 530c 383d
00000350: ea1d 11bd cc81 07be 12d5 ecbd 8bf3 90bd
00000360: 159e 0b3e d2ef ee3c 1332 1ebe e5f1 87bb
00000370: d1d3 ebbd 3b5b 20bc c022 e7bc 793a f5bb
00000380: e093 fc3d 1b2d 8cbd ee4a 2e3d c4b2 12be
00000390: 14e2 153e 3ad4 99bd 3885 093e b3f2 1e3e
000003a0: c606 c43d fd06 54bc f35d 91bd 2dde 223d
000003b0: 72f2 8e3d ee00 b63d 4d30 abbd 6634 1f3d
000003c0: 1df1 c4bd f472 8a3d c14e d9bd cc25 643d
000003d0: a3cd 033d 53d5 003e 0ace e5bd f067 e13b
000003e0: f055 d5bd b317 4c3c da77 ea3d 8072 6e3c
000003f0: 2167 9e3d 34ae 863c c95a 0ebe 45a8 1d3d
-0.060840547 0.13752334 0.010939848 0.10474009 0.13785116 -0.09896729 -0.05483495 -0.13604075
-0.15531473 -0.030897925 -0.09147116 0.008127112 0.0041597765 0.120298214 0.16097492 0.119053945
0.124603696 0.108602986 0.071907505 -0.015103817 -0.15146919 0.10979476 -0.14955294 0.06255529
0.17821811 0.046531256 -0.024940746 -0.031334396 0.09645306 -0.100194365 -0.012450272 -0.15961823
0.026179846 -0.03880179 -0.12705663 -0.15424828 0.116450325 0.020655705 0.09106411 -0.096198
-0.03163196 -0.052874316 0.098688856 -0.05546822 0.061336353 0.20966157 -0.008303034 0.018936642
-0.008270245 -0.022385923 -0.054275796 0.025516022 -0.17690158 0.20026349 -0.012089222 0.1134931
-0.09350109 0.0030522519 0.027430255 -0.04007147 0.019704996 -0.10936793 0.033178087 0.051941056
0.051642235 0.10355448 -0.014042368 -0.10152524 0.1348633 -0.021216432 -0.21379633 0.06328228
0.08302412 0.0674385 -0.058159273 -0.086867094 -0.064497806 -0.030622708 -0.04268876 0.180468
0.0142654665 -0.09440401 0.054442886 -0.046236686 0.07893624 0.03511685 0.11615101 0.052001487
0.12952702 0.011403334 -0.024264103 -0.008115889 -0.05413457 -0.1060538 -0.10143562 -0.1069843
0.14005129 -0.02623868 0.1505316 0.108580686 0.09773031 0.1579978 -0.14220601 -0.041359533
-0.018444983 -0.13681133 0.10845716 0.09039646 -0.1535386 0.012299801 0.14300126 0.12394378
0.14429338 0.007246273 -0.0050444645 0.1499783 -0.043594472 -0.065118924 0.0010002174 0.013067349
0.26632077 0.2813447 -0.09938783 0.050468005 -0.11503911 0.06680045 0.02349895 -0.1971089
0.08411936 0.37401485 -0.06603598 -0.41960037 0.023701329 0.3567355 0.29270014 0.13239272
-0.34962624 -0.058252085 -0.3258306 0.33832216 -0.2036867 -0.12752259 -0.044690695 0.2945733
0.19233224 -0.022786904 0.32345328 0.09096789 -0.16812843 0.19557786 -0.01446499 -0.16324924
-0.07119368 0.08843225 -0.48386294 0.07608429 0.06468539 -0.11717589 -0.020855749 -0.14920345
-0.016759507 -0.061124943 0.09061145 -0.11290937 -0.085913256 -0.06424586 0.011002901 -0.09819336
0.15270205 0.12168131 0.054045822 -0.073493876 -0.010199611 -0.061062127 -0.079487205 0.16169645
0.07021888 0.019588882 -0.14942536 0.05221075 -0.09336597 0.038994946 0.015394776 0.16245382
-0.046857502 0.04353796 -0.0039296695 0.0010900898 -0.12350099 -0.088421784 -0.086483926 0.030490262
-0.11199 0.050370388 0.084952086 -0.035039887 -0.16103217 0.0514193 -0.036403522 -0.11856048
-0.1365993 -0.1463314 -0.014401111 0.018357694 0.08998334 0.1658611 -0.059811424 0.123842984
0.15101454 0.041014235 -0.07497371 0.04493363 -0.03542892 -0.13233107 -0.115640774 -0.07077702
0.13634522 0.02916709 -0.1544879 -0.004148709 -0.1151501 -0.009787376 -0.028214812 -0.007483777
0.123328924 -0.06844541 0.042551927 -0.14326006 0.14637023 -0.07511182 0.13429725 0.1552227
0.095716044 -0.012941119 -0.070979975 0.039762665 0.069798365 0.08886896 -0.08358822 0.03886833
-0.09616301 0.06760207 -0.10610724 0.05570011 0.032178532 0.12581377 -0.112209395 0.0068788454
-0.10416782 0.012456822 0.11448641 0.014553666 0.07734514 0.016440488 -0.1390182 0.038490552

fc3.bias f4 [40]
00000000: 9bbe cb3c ca07 3f3d 3872 ccbc 3ebf 65bd
00000010: 093f 04be d321 a0bd ba81 15be e2b3 b5bd
00000020: babb e23d fbbc 34bd a0fe c0bd 7923 8abd
00000030: 0972 df3d 2caf 153e 1103 09be fa43 f73d
00000040: e75a 7f3b 0b0a 4a3c c5e1 9a3d 62ef 0bbe
00000050: 394c cbbd f50b 3cbd 8c91 163c 7578 c63c
00000060: 01e8 383d d196 c03d f439 5e3c e81c 713d
00000070: 03dc 223e 34ed 53bd 9298 52bd 72bc cd3c
00000080: bcee 913c 2753 183e 0369 7bbd 0ad1 1f3c
00000090: 6562 81ba d76c 073d 116c 8e3d 5715 693d
0.024871161 0.046638288 -0.024956807 -0.056090586 -0.12914671 -0.078189515 -0.14600268 -0.088722005
0.11070962 -0.04412554 -0.09423566 -0.06745047 0.10910422 0.14617604 -0.13380076 0.120735124
0.0038964094 0.012331496 0.07562593 -0.13665536 -0.09926648 -0.04590984 0.0091899745 0.02422736
0.04514313 0.09403766 0.013563622 0.058865458 0.1590424 -0.051739886 -0.051415034 0.025114272
0.017814033 0.1487547 -0.061379444 0.009754429 -0.0009871243 0.033062782 0.06954206 0.056905117

fc4.weight f4 [40, 40]
00000000: d172 b7bd 327b 3c3d e691 863c 7ce1 a0bd
00000010: 4d64 223c c5ac 5e3d 2eed 23be fede 83bd
00000020: cbd9 5dbc 759e 2b3e 1750 93bd 363d f7bd
00000030: 28d4 213e 7e41 813d 9c9d 05bd 631e 163e
00000040: 9881 093e f8a9 cd3d 2148 bbbd 835c 693d
00000050: 019f 34bd 8d56 223e 1ee2 7ebc 566b c9bd
00000060: 9173 133d efeb 9a3d cf0b e83d 4eb5 0abe
00000070: 9a82 2cbd fca8 823d 1b35 0fbe 2289 0abe
00000080: e7a1 d43c 4d7a 60bd 3894 8cbd bf5b d3bd
00000090: a60b 073d 58d7 29be 6eee ecbd 2b5f ac3d
000000a0: 186e 07be ba1e 203e 5b14 28be a5a0 f03d
000000b0: 9c53 0ebe 8ae6 7ebd 9935 d3bc 5480 ec3d
000000c0: 072f 003e 3948 a23d 434c fa3d f062 ca3d
000000d0: a043 0fbe a9cc a23d cadc 373d 1c18 253d
000000e0: 5367 d7bd ef62 063e a414 abbd 982f 14bd
000000f0: a853 3abc 049f 143d cca8 66bd 605f 763d
00000100: 92d6 1ebd 55b0 5fbc 3c59 02bd 12c0 033e
00000110: 578d f9bd 9bbb db3d d154 ae3d 958e ca3d
00000120: 8736 c03d f609 a0bd afc5 a5bd 0dd9 cb3d
00000130: 199a e03d 75c9 8abd ea8c 7abd 20f7 b03d
00000140: 60ca f9bd 52c9 b63c 79bb cb3c b2c4 57bd
00000150: aa58 0d3e 0816 e83d ddf7 023e 6356 bdbd
00000160: ea75 b8bd 1cf7 cc3d 22a9 073e 4f22 d73d
00000170: 89f9 0d3e 3f05 083e ea3e f03d d33f ed3d
00000180: 1d55 833d 3230 5d3d f3a2 f8bd 0166 6e3b
00000190: 7a34 32bc 92b7 a33d 7331 05be 235a e83c
000001a0: 9017 37bd 5886 f43d 47ad 1cbe 0ef6 cabc
000001b0: 5aea f03d 8ac0 923d 371c 233d 44a4 65bd
000001c0: 090a 2dbd c6f3 603c 53ab 683c 8777 713d
000001d0: 061e 673d 9747 ca3d a47d 143e e2f1 7cbd
000001e0: 2b08 043e f9d1 13be a579 303e aa9e b2bd
000001f0: 9715 423d 6419 a43d ca26 d9bd 5dcc 03be
00000200: 1bb9 ef3d 8f90 f2bd 13b2 b3bd 91d0 9bbc
00000210: a562 d83d 038b cb3c ae1c 93bb 882e 0bbe
00000220: e2c5 923c 2e5a 763d 4d67 5fbd 07df e1bd
00000230: 9bc7 d43d 3fea 753d 7f93 b1bb ff70 aabd
00000240: 73fb 1c3d a6aa 8e3c 51b1 d0bd 6626 b33c
00000250: 4489 6ebc eec5 083d fab6 d13d 31ad ccbd
00000260: be64 01bd c7d5 fd3d 70bc 33be d699 b1bc
00000270: cb3e 81bd 2d44 163e 1056 833d 4cd9 af3b
00000280: df73 1e3e 239e 953c 0858 94bd ff21 0b3d
00000290: 0b7b a23c 1615 f4bc 9608 953d f457 ea3d
000002a0: 756b b1bd 7a17 173e a791 10bd dd9c 843d
000002b0: a6ad 68bc e39c cfbc 5408 a83d 41eb fdbd
000002c0: b32b aa3d def6 883d a527 05be 601a 49bd
000002d0: f080 ffbc 9354 0c3e c4f6 c83d 080d 6fbd
000002e0: 1959 1b3e 7065 0dbe 45ec c5bd 9be4 703d
000002f0: 6431 aebd fe8d b43d 782e 06bd 5301 4fbd
00000300: 2569 a33d 4168 3d3d 79e5 e13d c065 07bc
00000310: 0e85 19be c197 8cbd 8ff3 54bd fc09 423e
00000320: 7874 f13d 479d 493c d7ce 5a3b 2c2b 01be
00000330: 0fd8 2d3e 45a1 82bd 91dc 303d 65ca f4bd
00000340: f330 3b3d 85cc ef3d a337 b53d 7c6a af3d
00000350: cd71 8d3d 81cf 103e ea66 af3c 180a af3d
00000360: f9d3 ebbd 72c0 2f3e ce9c d13d beb3 003e
00000370: 591b d83d 69dd 22be 01c3 023c c5cf d03d
00000380: bd3c 2dbd 9491 77bd ddbf a33d 28ef bf3d
00000390: b98e 67bd daa9 943c 996f c9bd a13c f1bc
000003a0: 36e1 9cbd c3e3 09be 8cc6 a9bd b641 b8bb
000003b0: 28b7 5a3c 7840 eb3d f933 9d3d e4cd d43c
000003c0: 642d a2bd ce71 19be 6f89 2e3d 8aff eabd
000003d0: 9cf9 89bd d4c3 9dbc 7f2c 343d 0d88 19be
000003e0: 87cd 07be 89a4 77bd ecda 63bd 41b0 36be
000003f0: 2d70 113d adc0 fd3d d7b0 b23d c8b4 1f3e
-0.08957446 0.046015926 0.016426992 -0.07855508 0.009911609 0.054363985 -0.16008446 -0.06439017
-0.013540695 0.16759665 -0.0719301 -0.12072222 0.15803587 0.0631132 -0.03262101 0.14660029
0.13428342 0.100421846 -0.09144617 0.05697299 -0.04409695 0.15853329 -0.01555684 -0.09834926
0.035998885 0.07564532 0.11330377 -0.13545725 -0.04211674 0.063798875 -0.13985102 -0.13528875
0.025956107 -0.054804135 -0.06864208 -0.103202336 0.032970093 -0.16586053 -0.11568914 0.08416589
-0.13225591 0.15636721 -0.16414015 0.117493905 -0.13899082 -0.062231578 -0.025782393 0.11547914
0.1251794 0.07923932 0.12221577 0.09882152 -0.1399064 0.07949192 0.044888295 0.040306196
-0.105177544 0.13123678 -0.08353546 -0.0361782 -0.011372484 0.03628446 -0.05631332 0.06014955
-0.03877885 -0.013652881 -0.03182338 0.12866238 -0.121851616 0.10729142 0.08512271 0.098904766
0.093854 -0.078144 -0.08094346 0.099535085 0.10966892 -0.06776706 -0.061169542 0.08640885
-0.12196803 0.022312794 0.024869667 -0.052677818 0.13803354 0.11332327 0.12789865 -0.092449926
-0.09006865 0.1000807 0.13248113 0.10504591 0.13864721 0.13283251 0.1173075 0.11584439
0.064127184 0.05400104 -0.12140455 0.0036376717 -0.010876769 0.07993998 -0.13007145 0.028363293
-0.044700205 0.119396865 -0.15300475 -0.024775531 0.11763449 0.0716563 0.03982183 -0.05606486
-0.0422459 0.013729995 0.014201003 0.05895188 0.056425117 0.09876936 0.14501053 -0.061754115
0.12893741 -0.14435567 0.17233904 -0.08721669 0.04738387 0.080126554 -0.106031016 -0.12870927
0.11705228 -0.118439786 -0.08774199 -0.01902035 0.1056569 0.02484656 -0.004489503 -0.13591969
0.017916624 0.060144596 -0.054541875 -0.11028867 0.10389634 0.060037848 -0.005419194 -0.083223335
0.03832574 0.017415356 -0.101900704 0.021868896 -0.014559094 0.033391885 0.10239978 -0.09993971
-0.031590216 0.123942904 -0.17552352 -0.0216798 -0.06310805 0.14674444 0.064128995 0.00536648
0.15473889 0.018263882 -0.07243353 0.033967968 0.019834062 -0.02979521 0.07277028 0.11442557
-0.08663074 0.1475505 -0.035295155 0.06475232 -0.014201557 -0.025343364 0.082047135 -0.12398387
0.08309116 0.06687711 -0.13003404 -0.04909742 -0.031189412 0.13704138 0.09812692 -0.058362037
0.15170707 -0.13808227 -0.096642055 0.058811765 -0.08505514 0.08816145 -0.03275916 -0.050538372
0.07979039 0.046242002 0.110300966 -0.008264005 -0.14992163 -0.06864882 -0.051990088 0.18949121
0.11789793 0.012305564 0.0033387446 -0.12614125 0.16976951 -0.06378416 0.0431791 -0.11952666
0.04570098 0.11708931 0.088485025 0.08565232 0.069064714 0.14141656 0.021411378 0.08546847
-0.1151504 0.17163256 0.10234986 0.12568566 0.10552091 -0.15904774 0.007981063 0.10195879
-0.042294253 -0.06044157 0.079955794 0.09371787 -0.056532595 0.018147398 -0.09835739 -0.029447855
-0.07660143 -0.1346579 -0.08289823 -0.0056230677 0.013349332 0.11486906 0.076759286 0.025977083
-0.07918814 -0.1498482 0.042611536 -0.114745215 -0.06737062 -0.019258417 0.043987747 -0.14993306
-0.13261996 -0.060459647 -0.055628702 -0.17840673 0.03550737 0.123902656 0.08725136 0.15596306

fc4.bias f4 [40]
00000000: 8035 223e 53b9 c23d fcad 05be 39f6 89bd
00000010: b154 b53d aa59 ed3d 9106 093e f1b3 003e
00000020: 7920 94bd 9f03 1cbd 2685 c4bd d516 89bd
00000030: ddcf 3ebd 10f1 c9bd 5a31 293d cb6f d3bd
00000040: 86da 593d d52c ccbc 238e bebc 36d5 ec3b
00000050: 2f7c 9e3d 7b63 093d be24 c03d 324d 123e
00000060: 1bf2 d9bd 497c b93d 2e67 8bbd 6155 ecbd
00000070: c52a fcbc 2a66 e73d 537f 143d 389b 9c3d
00000080: 278b 303d 25b6 df3c b379 0f3e 0fb9 9fbc
00000090: cf98 853d 01ee 033d c1d1 053b 0529 14be
0.15840721 0.09508004 -0.13054651 -0.06736416 0.08854044 0.11589368 0.13381411 0.12568642
-0.07232756 -0.03808939 -0.095957085 -0.06693808 -0.046584953 -0.09860432 0.04130683 -0.10324057
0.053186916 -0.024923721 -0.023261135 0.007227565 0.0773853 0.033542138 0.09382008 0.1428726
-0.10641881 0.09056909 -0.06806789 -0.11539722 -0.030782113 0.11298783 0.03625424 0.07646793
0.043101456 0.027308533 0.14011268 -0.019497423 0.065232866 0.0322094 0.0020419213 -0.14468773

fc5.weight f4 [1, 40]
00000000: 64bc b0bd 51b6 553d b983 5c3d 3c88 833c
00000010: b77b 97bd 67f7 cf3d 03c4 453d 6540 0bbe
00000020: 7d32 10be 06e5 bcbd 97f6 1dba c243 f23c
00000030: 5a11 93bd 3a39 debc c6c1 63ba a9a8 24be
00000040: effc 44bd e5dd f43c c5e1 053d ebb9 cabd
00000050: dd35 90bd 51ff 8d3d 29de 043c eb53 86bc
00000060: f8b1 7f3c 4d76 cf3d b669 21bd 527f c4bd
00000070: b570 053d b5a9 1b3e 43d4 b03c e007 a9bc
00000080: a2be f13c 17d5 ea3d b580 1cbe 0156 b7bd
00000090: 3477 ca38 2b7b f0bb a3ff bf3d 2d0c f73d
-0.08629683 0.052175824 0.053836558 0.016056173 -0.073966436 0.1015461 0.048282634 -0.13598783
-0.1408176 -0.0922337 -0.00060258195 0.029573325 -0.07181044 -0.027126897 -0.0008688237 -0.16079964
-0.04809278 0.029890964 0.032686014 -0.09898742 -0.070415236 0.06933463 0.008109608 -0.016397437
0.015606396 0.10129986 -0.039407454 -0.09594597 0.03257819 0.15201457 0.02158559 -0.020633638
0.029509846 0.11466425 -0.15283473 -0.08951951 9.654314e-05 -0.0073389015 0.09374931 0.12062869
