Pytorch_PINN/non_conservative.ckpt (torch, 23689 bytes, 9 tensors)

fc1.weight f4 [40, 2]
-0.3790606 0.34882742 -0.42485967 0.361547 -0.6204563 -0.12915623 0.38515738 1.1804507
0.08651373 -0.21468824 0.23157537 -0.061719812 0.42117757 0.03567664 0.13623965 0.7620452
-0.12909448 0.017468015 0.35805824 -0.037051998 -0.3015627 -1.7462844 -0.72059333 -0.55200446
-0.85687774 -0.53614104 -0.7436053 -0.80013114 -1.0732706 0.78280634 0.6903291 0.25685614
0.63105804 0.07749749 0.38076508 -0.50541997 0.8351059 -0.13630901 0.8452675 0.13535385
0.8456696 0.62284327 -0.2795419 -0.25035137 -0.011932588 -0.022500116 -0.20990711 0.306256
-0.81876147 0.033788268 -0.7872649 0.79603624 -0.6243934 0.18215664 -0.42018777 0.47933534
0.03779782 -0.085629776 0.6092344 0.884498 -0.77318835 -0.67359066 0.057499547 0.27081943
0.23394544 0.74834335 0.5554819 -0.39351672 -0.75180876 0.59273297 1.0352333 -0.49051335
-0.78900427 0.5063754 -0.9568011 -0.05191808 -1.0273073 0.48874035 -0.44345847 -0.36857876
00000000: 3b14 c2be 8299 b23e 3587 d9be b01c b93e
00000010: 39d6 1ebf 8841 04be 5933 c53e 0219 973f
00000020: 1c2e b13d 3cd7 5bbe 1822 6d3e eacd 7cbd
00000030: 96a4 d73e ab21 123d 6882 0b3e 6515 433f
00000040: 5831 04be 1519 8f3c 6953 b73e d6c3 17bd
00000050: 6d66 9abe 3f86 dfbf ce78 38bf 2a50 0dbf
00000060: 575c 5bbf 8a40 09bf eb5c 3ebf 65d5 4cbf
00000070: ee60 89bf ff65 483f 68b9 303f a682 833e
00000080: 058d 213f 01b7 9e3d a4f3 c23e 3463 01bf
00000090: 80c9 553f 9794 0bbe 7363 583f 339a 0a3e
000000a0: ce7d 583f a872 1f3f 1e20 8fbe 0e2e 80be
000000b0: e780 43bc 2a52 b8bc e4f1 56be 96cd 9c3e
000000c0: 5a9a 51bf 9165 0a3d 318a 49bf 08c9 4b3f
000000d0: 3fd8 1fbf 4587 3a3e da22 d7be 716b f53e
000000e0: e3d1 1a3d aa5e afbd c9f6 1b3f 766e 623f
000000f0: acef 45bf 7070 2cbf a584 6b3d d8a8 8a3e
00000100: 658f 6f3e 6e93 3f3f 1034 0e3f 067b c9be
00000110: 8a76 40bf 59bd 173f 8682 843f 9124 fbbe
00000120: 2ffc 49bf d1a1 013f ebf0 74bf 0da8 54bd
00000130: ce7e 83bf 2d3c fa3e fd0c e3be 5bb6 bcbe

fc1.bias f4 [40]
-0.3784743 -0.21108484 0.3578959 -0.0005597605 0.6155761 -0.27212796 -0.24668995 0.5813781
-0.6200404 -0.27328113 -0.112926826 0.7195695 0.4340355 -0.22413191 -0.09824424 0.107369415
-0.28009188 0.16460556 -0.3904827 -0.49119848 -0.063383035 0.42097977 0.6271301 0.103143826
-0.36687204 0.3394097 0.31713933 0.2859336 -0.25183284 -0.04457639 0.3488838 0.29378334
0.46337092 -0.38374493 0.41896558 -0.2815237 0.03681644 -0.3059897 -0.083861046 0.46017167
00000000: 62c7 c1be a026 58be 223e b73e e4bc 12ba
00000010: 6596 1d3f 5b54 8bbe 4a9c 7cbe 32d5 143f
00000020: f8ba 1ebf 81eb 8bbe 2e46 e7bd b535 383f
00000030: e739 de3e d682 65be 4734 c9bd 7fe4 db3d
00000040: 3468 8fbe 5c8e 283e 59ed c7be 5e7e fbbe
00000050: f7ce 81bd a98a d73e 998b 203f 123d d33d
00000060: a7d6 bbbe 1cc7 ad3e 1660 a23e e465 923e
00000070: 3cf0 80be bc95 36bd e6a0 b23e c56a 963e
00000080: f43e ed3e 377a c4be a882 d63e e023 90be
00000090: d6cc 163d afaa 9cbe 57bf abbd 9f9b eb3e

fc2.weight f4 [40, 40]
0.19636776 0.22022527 -0.034598988 0.21991196 0.08049055 -0.17639607 -0.36984494 0.15037718
-0.13251515 -0.17915373 -0.22306445 -0.004655552 -0.23128588 -0.16452867 0.23956256 -0.09503039
-0.27173418 -0.20528881 -1.0316885 -0.32482952 -0.010915557 0.13473308 0.14532666 0.20117031
0.09651706 1.0404655 1.3799549 0.3470819 0.0063766097 0.16378307 -0.3514146 0.08663628
0.08093237 -0.3805765 0.5617837 -1.0838869 0.72992784 0.14829434 0.38389283 -0.028214622
-0.12555474 -0.08905008 0.12962246 -0.013171724 -0.15546477 0.0887461 -0.24752767 -0.005634887
-0.13917051 0.014106001 0.010471093 0.19329405 0.06922815 -0.13931185 0.21381366 -0.14241341
-0.048189256 -0.1647693 -0.13105445 -0.12943426 0.04640772 -0.026018558 0.13431318 0.15335129
-0.005468209 0.016747855 0.17839085 0.11868512 0.1586255 0.1562651 0.10299049 0.0048146364
-0.11576258 -0.15122582 0.15890276 -0.382061 0.11986703 0.13622151 -0.09290664 -0.068928674
-0.13383386 0.104337044 -0.06337265 0.13006566 -0.05077597 -0.021797184 0.20775667 -0.11346825
-0.08029446 0.13381302 0.10668549 -0.12553473 -0.23053376 0.006347128 -0.019485008 0.036905434
0.17150976 0.001158743 -0.032775555 0.077759616 0.08347661 -0.018871075 -0.1341514 0.02306618
-0.015679557 -0.05289823 0.042016942 0.06785148 0.1527744 0.15717144 -0.07090686 -0.13846453
0.0460269 0.09104492 0.098578006 0.19142537 0.049517013 0.04720672 -0.0009496137 0.021258717
-0.18862146 0.037916232 -0.15577723 -0.11034153 -0.024027256 0.053060252 0.22861941 -0.18449457
-0.10146169 0.12999444 0.06453699 -0.18710259 0.011065962 0.1469103 -0.1459515 0.10403239
0.0751898 0.15795207 0.19824539 0.21839225 0.028337212 -0.16625272 0.13450548 -0.08663747
-0.18442206 -0.05064143 -0.11262951 0.08508931 -0.15507157 -0.14869985 0.092052355 0.107002266
-0.18665831 0.029660942 -0.043637544 -0.018786404 0.04053636 -0.026601417 -0.11107678 -0.015371138
0.08376926 0.14503883 0.024801884 -0.013990254 0.0639485 0.070841126 0.062113505 -0.07458219
0.030745761 0.144065 -0.13139631 -0.11229319 -0.19265291 -0.03839908 0.059905015 -0.0070704073
0.053251132 0.038073793 0.11083362 0.17785151 0.045006376 -0.13248073 -0.00013917351 0.011497186
0.109797135 0.1115303 0.049842227 0.11853781 -0.12774068 0.035980072 0.044451144 -0.07186381
0.09054804 0.076927915 0.16776049 -0.106719516 0.07449772 0.011970171 0.068118185 0.120425776
0.0646787 -0.18062426 -0.02758311 -0.20736381 0.12729241 -0.121686995 0.22013916 -0.12505212
0.04675783 0.0968559 0.113306336 0.16086732 0.0062662917 -0.12386893 -0.20755139 0.16641162
0.084704585 0.015087534 0.03710839 0.09895804 -0.051637158 0.0479797 -0.07963043 0.0663428
-0.05302533 0.027609248 0.05471112 0.005986197 0.035001684 -0.20065972 -0.012634943 -0.09887822
-0.14686143 0.12981915 -0.19715062 0.047201507 -0.11519628 -0.074588284 -0.101066895 -0.047025915
0.16046332 0.20059319 0.018494165 -0.19427387 0.057537764 -0.12138704 -0.058819123 0.014269327
-0.042413544 -0.0023710027 -0.09753596 0.06788462 0.25251687 0.20095609 0.26408306 -0.16746603
00000000: a114 493e bc82 613e abb7 0dbd 9a30 613e
00000010: 3bd8 a43d 2ca1 34be 515c bdbe 7afc 193e
00000020: 0db2 07be 1374 37be 026b 64be 9a8d 98bb
00000030: 35d6 6cbe 347a 28be e34f 753e 4b9f c2bd
00000040: be20 8bbe 3b37 52be 5e0e 84bf 0e50 a6be
00000050: 2ad7 32bc 78f7 093e 83d0 143e 97ff 4d3e
00000060: bdaa c53d f92d 853f 5da2 b03f b8b4 b13e
00000070: e1f2 d03b c0b6 273e 9dec b3be 5d6e b13d
00000080: dfbf a53d ecda c2be 0ed1 0f3f cebc 8abf
00000090: 8ddc 3a3f 79da 173e 9a8d c43e 5a22 e7bc
000000a0: 6c91 00be e35f b6bd c0bb 043e 37ce 57bc
000000b0: 2832 1fbe 84c0 b53d e577 7dbe dca4 b8bb
000000c0: b782 0ebe db1c 673c f28e 2b3c e0ee 453e
000000d0: 7dc7 8d3d c4a7 0ebe f8f1 5a3e d2d4 11be
000000e0: 1962 45bd 49b9 28be 2333 06be 6a8a 04be
000000f0: 0516 3e3d df24 d5bc 6589 093e 1f08 1d3e
00000100: a92e b3bb cc32 893c 17ac 363e 2f11 f33d
00000110: b96e 223e f503 203e aeec d23d 19c4 9d3b
00000120: ee14 edbd f1da 1abe 68b7 223e 809d c3be
00000130: d87c f53d a77d 0b3e d645 bebd 7a2a 8dbd
00000140: be0b 09be a9ae d53d 85c9 81bd ef2f 053e
00000150: 77fa 4fbd 0290 b2bc 2abe 543e 0b62 e8bd
00000160: 6c71 a4bd 4806 093e ec7d da3d 2d8c 00be
00000170: 0b11 6cbe 92fb cf3b 069f 9fbc 272a 173d
00000180: 41a0 2f3e f7e0 973a a93f 06bd 6f40 9f3d
00000190: c9f5 aa3d 8397 9abc fc5e 09be 49f5 bc3c
000001a0: 6a72 80bc d0ab 58bd f519 2c3d b7f5 8a3d
000001b0: e470 1c3e 8df1 203e 9e37 91bd a5c9 0dbe
000001c0: b486 3c3d c275 ba3d 44e3 c93d 0305 443e
000001d0: 5ad2 4a3d d55b 413d 7fef 78ba c326 ae3c
000001e0: fc25 41be 0d4e 1b3d 1184 1fbe bdfa e1bd
000001f0: cfd4 c4bc b555 593d 351b 6a3e 25ec 3cbe
00000200: 26cb cfbd 431d 053e f82b 843d d297 3fbe
00000210: 024e 353c a76f 163e 4f74 15be ef0e d53d
00000220: 1cfd 993d 30be 213e d700 4b3e 38a2 5f3e
00000230: 7123 e83c 273e 2abe cebb 093e fc6e b1bd
00000240: 23d9 3cbe 636d 4fbd 4daa e6bd 4e43 ae3d
00000250: 15cb 1ebe c644 18be f285 bc3d 0124 db3d
00000260: 5b23 3fbe 81fb f23c 48bd 32bd f2e5 99bc
00000270: 7409 263d 37eb d9bc 397c e3bd 3ad7 7bbc
00000280: 388f ab3d 0f85 143e 522d cb3c 6137 65bc
00000290: 6ef7 823d 2715 913d bb6a 7e3d 8cbe 98bd
000002a0: 89de fb3c c685 133e c18c 06be f9f9 e5bd
000002b0: ce46 45be 5b48 1dbd f65e 753d e0ae e7bb
000002c0: dc1d 5a3d 44f3 1b3d bdfc e23d b51e 363e
000002d0: 9b58 383d 07a9 07be 1bef 11b9 b15e 3c3c
000002e0: 52dd e03d ff69 e43d 5d27 4c3d f4c3 f23d
000002f0: 74ce 02be d75f 133d 6712 363d 552d 93bd
00000300: 4071 b93d 628c 9d3d 68c9 2b3e c38f dabd
00000310: 4392 983d 891e 443c 8c81 8b3d caa1 f63d
00000320: 4476 843d 91f5 38be f9f5 e1bc 2e57 54be
00000330: f158 023e 0837 f9bd 296c 613e aa0d 00be
00000340: 2385 3f3d 635c c63d 270d e83d 67ba 243e
00000350: 7755 cd3b feae fdbd 5a88 54be cf67 2a3e
00000360: 9979 ad3d b431 773c f8fe 173d 83aa ca3d
00000370: 7c81 53bd 5d86 443d 4715 a3bd bcde 873d
00000380: 1731 59bd ca2c e23c c418 603d dc27 c43b
00000390: ed5d 0f3d be79 4dbe cb02 4fbc aa80 cabd
000003a0: d862 16be 50ef 043e dae1 49be 5e56 413d
000003b0: 07ec ebbd bec1 98bd 29fc cebd 3f9e 40bd
000003c0: 7f50 243e 4d68 4d3e 1381 973c bbef 46be
000003d0: b8ac 6b3d c599 f8bd 52ec 70bd e5c9 693c
000003e0: d3b9 2dbd d362 1bbb efc0 c7bd 1707 8b3d
000003f0: e449 813e 6fc7 4d3e e535 873e 377c 2bbe

fc2.bias f4 [40]
0.027748799 -0.15479276 -0.03775837 0.082134835 0.08322033 -0.016155 -0.1214216 0.120199636
0.04249414 -0.057734057 0.041720394 -0.0066947355 0.050151844 0.15238546 -0.022005457 0.16636993
0.0564252 0.13303225 -0.13646811 0.01597794 0.049134225 0.14273638 0.05558057 0.05933417
-0.14214565 -0.1121967 0.026160108 -0.021826452 0.0015189525 0.16943978 0.108743936 0.17756099
0.10900479 0.023368098 -0.1855756 0.09892524 -0.13214788 -0.015446328 -0.08007209 -0.15021673
00000000: 7351 e33c fe81 1ebe 85a8 1abd 4f36 a83d
00000010: 6c6f aa3d 7e57 84bc e3ab f8bd 3a2b f63d
00000020: 560e 2e3d 8c7a 6cbd 01e3 2a3d 835f dbbb
00000030: 056c 4d3d ef0a 1c3e ca44 b4bc e15c 2a3e
00000040: 1c1e 673d 9b39 083e 4cbe 0bbe 2be4 823c
00000050: f840 493d 7c29 123e 74a8 633d 6308 733d
00000060: a18e 11be 62c7 e5bd b94d d63c 63cd b2bc
00000070: 9717 c73a 9f81 2d3e 24b5 de3d 8cd2 353e
00000080: e73d df3d 746e bf3c 8807 3ebe 5199 ca3d
00000090: c651 07be 9812 7dbc d6fc a3bd 6ad2 19be

fc3.weight f4 [40, 40]
-0.026628157 0.09756913 0.024253136 0.061496057 0.16831532 -0.11784358 -0.07211243 -0.15866606
-0.13661529 -0.058729004 -0.10605409 -0.033070747 0.0151836 0.10583586 0.13008566 0.080267385
0.1440181 0.07180068 0.088020116 -0.049958784 -0.12553042 0.13334374 -0.15612781 0.03854439
0.14288984 0.015184952 -0.041652065 -0.049007863 0.13302726 -0.056084435 0.039305687 -0.15614232
-0.039204627 -0.013363959 -0.21122575 -0.10656435 0.08270094 0.03851826 0.075177684 -0.07094393
0.004814963 -0.0845614 0.2183847 -0.0919635 0.16099317 0.20112352 0.010950897 -0.007804206
-0.02716585 -0.15744041 0.014455723 0.031144941 -0.11513704 0.23603337 -0.092719 0.082803085
-0.051180355 0.13597213 0.061850674 -0.039967716 0.13324107 -0.0816222 0.06654077 -0.050571416
-0.007852021 0.08854962 -0.1331363 -0.07436551 0.14347303 -0.02383933 -0.18604612 0.0035208515
0.12233057 0.11384815 -0.26651508 -0.06037727 -0.09185015 -0.054146815 -0.024813365 0.22788061
-0.01323477 -0.10084605 0.05582424 -0.052957293 0.1003208 0.02137409 0.11850272 0.059562024
0.13459975 0.009209287 0.01063582 0.003242174 -0.049511477 -0.13989605 -0.097261205 -0.10429345
0.14942686 -0.018705413 0.16868263 0.08903819 0.06210425 0.1533667 -0.1609395 -0.012180244
-0.009111122 -0.12365026 0.10291756 0.10933741 -0.14082038 0.013079391 0.1412293 0.1426299
0.12792648 0.012887621 0.03800526 0.13883278 -0.060313962 -0.071711555 0.0040043737 0.019575922
0.22396713 0.26558587 -0.13524054 0.06289327 -0.07631752 0.051974762 0.0054846853 -0.19716236
0.06298008 0.38960454 -0.11272122 -0.3943188 0.02350628 0.34660152 0.2449236 0.1522267
-0.3119676 -0.13533546 -0.29344288 0.31145728 -0.24372715 -0.11513497 -0.029310903 0.39768448
0.16635059 -0.032384206 0.31619993 0.07473798 -0.07980223 0.21487579 -0.010875018 -0.12112179
-0.059710715 0.08232238 -0.3993253 0.10728258 -0.031206077 -0.100050546 -0.038107324 -0.13704437
0.029423904 -0.08994677 0.05272909 -0.09239728 -0.063893594 0.017329045 0.00067779113 -0.11724423
0.13710614 0.14130117 -0.024636265 -0.106912315 -0.0360844 -0.12041563 -0.07749136 0.1207309
0.08295149 -0.06844422 -0.14703733 0.006239324 -0.10924632 0.041965526 -0.03287874 0.17705773
-0.044696547 0.055717573 0.012304766 0.011700709 -0.11933357 -0.056890048 -0.029383447 0.03390418
-0.09442154 0.0073859 0.041145567 0.021628385 -0.13719574 0.06330488 -0.041176554 -0.15065064
-0.112606935 -0.15614015 -0.009592591 0.01702979 0.08859134 0.13672581 -0.09250846 0.10628375
0.16387519 0.035804894 -0.105208315 0.03831802 -0.041927222 -0.11862942 -0.13033132 -0.07854832
0.13769913 0.007986917 -0.1544658 -0.012313524 -0.071937 0.018808154 -0.031786133 -0.04759046
0.08979843 -0.09998388 0.045544058 -0.1959944 0.1433251 -0.057513293 0.14496775 0.12856013
0.09808514 -0.022693103 -0.063676514 0.03243954 0.04648401 0.12609415 -0.11853768 0.046429753
-0.094406575 0.06325407 -0.09435828 0.055232126 0.014187598 0.1320749 -0.13255522 0.02489039
-0.09238473 0.010388336 0.095267676 0.02607386 0.08512836 0.02783425 -0.15071495 0.028473962
00000000: 4b23 dabc 53d2 c73d 83ae c63c 4ae3 7b3d
00000010: da5a 2c3e fa57 f1bd afaf 93bd 5b79 22be
00000020: e1e4 0bbe d38d 70bd e332 d9bd 3175 07bd
00000030: a2c4 783c 79c0 d83d 2d35 053e 3a63 a43d
00000040: 7b79 133e 3c0c 933d e443 b43d 95a1 4cbd
00000050: 0c8b 00be 438b 083e f8df 1fbe b9e0 1d3d
00000060: b751 123e 4eca 783c 5b9b 2abd 78bc 48bd
00000070: 4c38 083e cbb8 65bd 00ff 203d c6e3 1fbe
00000080: 0895 20bd 82f4 5abc 904b 58be 693e dabd
00000090: 1c5f a93d 53c5 1d3d c2f6 993d 0d4b 91bd
000000a0: d6c6 9d3b 872e adbd 3da0 5f3e 5c57 bcbd
000000b0: 65db 243e 53f3 4d3e 646b 333c 6dba ffbb
000000c0: eb8a debc 0f38 21be b2d7 6c3c ad23 ff3c
000000d0: f8cc ebbd bbb2 713e 76e3 bdbd aa94 a93d
000000e0: 7ea2 51bd 473c 0b3e 2257 7d3d 30b5 23bd
000000f0: 5970 083e 8a29 a7bd 8746 883d f923 4fbd
00000100: c3a5 00bc 8159 b53d e254 08be f24c 98bd
00000110: 98ea 123e b34a c3bc e082 3ebe 16be 663b
00000120: 7388 fa3d 3829 e93d aa74 88be 284e 77bd
00000130: ee1b bcbd 0dc9 5dbd 6645 cbbc 8959 693e
00000140: a6d6 58bc 6088 cebd f5a7 643d bfe9 58bd
00000150: fe74 cd3d b718 af3c 8eb1 f23d 4ff7 733d
00000160: 84d4 093e 8de2 163c dd41 2e3c a77a 543b
00000170: 8ccc 4abd e940 0fbe e230 c7bd ce97 d5bd
00000180: 5b03 193e 183c 99bc 24bb 2c3e a859 b63d
00000190: 0761 7e3d 290c 1d3e 53cd 24be a58f 47bc
000001a0: d146 15bc 593c fdbd 71c6 d23d 4bec df3d
000001b0: 3833 10be f14a 563c 6a9e 103e 930d 123e
000001c0: 29ff 023e 9a26 533c 67ab 1b3d 2e2a 0e3e
000001d0: c60b 77bd 82dd 92bd 1f37 833b af5d a03c
000001e0: a457 653e dffa 873e 7f7c 0abe 30ce 803d
000001f0: 5c4c 9cbd 7de3 543d e0b8 b33b eee4 49be
00000200: b3fb 803d 3f7a c73e 62da e6bd 27e4 c9be
00000210: 3e90 c03c c175 b13e 41cd 7a3e 51e1 1b3e
00000220: 38ba 9fbe 6195 0abe 253e 96be 5477 9f3e
00000230: 9c93 79be e2cb ebbd 6b1d f0bc 4d9d cb3e
00000240: cf57 2a3e 4da5 04bd f5e4 a13e 3a10 993d
00000250: 5a6f a3bd 6608 5c3e 222d 32bc b30e f8bd
00000260: 3993 74bd a398 a83d 5e74 ccbe f8b6 db3d
00000270: e3a3 ffbc 4de7 ccbd 6d16 1cbd 5c55 0cbe
00000280: 660a f13c 0336 b8bd 75fa 573d c93a bdbd
00000290: a5da 82bd a4f5 8d3c cbad 313a be1d f0bd
000002a0: 8d65 0c3e 41b1 103e fed1 c9bc d8f4 dabd
000002b0: 3ccd 13bd 789c f6bd cab3 9ebd c341 f73d
000002c0: 79e2 a93d 7c2c 8cbd f490 16be 3e73 cc3b
000002d0: 89bc dfbd 0be4 2b3d dcab 06bd 9f4e 353e
000002e0: ba13 37bd 1c38 643d ee99 493c 55b4 3f3c
000002f0: 2965 f4bd 8a05 69bd 8eb5 f0bc 1cdf 0a3d
00000300: 1560 c1bd 6b05 f23b 4188 283d 032e b13c
00000310: 0a7d 0cbe fda5 813d bfa8 28bd 2944 1abe
00000320: 779e e6bd 34e3 1fbe 3e2a 1dbc 0f82 8b3c
00000330: 606f b53d da01 0c3e 1375 bdbd 4bab d93d
00000340: e6ce 273e 27a8 123d 7577 d7bd 5bf3 1c3d
00000350: e1bb 2bbd fbf3 f2bd 9375 05be f1dd a0bd
00000360: 0001 0d3e 8fdb 023c 482c 1ebe aabe 49bc
00000370: b553 93bd 8f13 9a3c 2d32 02bd 37ee 42bd
00000380: 3de8 b73d 59c4 ccbd 688c 3a3d c2b2 48be
00000390: d1c3 123e 0f93 6bbd 6d72 143e 44a5 033e
000003a0: dde0 c83d e3e6 b9bc d568 82bd 53df 043d
000003b0: 0466 3e3d d31e 013e e2c3 f2bd 202d 3e3d
000003c0: 3c58 c1bd 5a8b 813d ea3e c1bd 153b 623d
000003d0: 1973 683c a53e 073e 8ebc 07be eee6 cb3c
000003e0: 3534 bdbd d733 2a3c b31b c33d d998 d53c
000003f0: c757 ae3d a704 e43c 0555 1abe 3a42 e93c

fc3.bias f4 [40]
0.04608825 0.035529897 -0.016670356 -0.04980118 -0.14790417 -0.04983878 -0.1521899 -0.10825656
0.12140134 -0.02599679 -0.099797264 -0.08525093 0.122790776 0.16301195 -0.17085245 0.09684642
0.040537737 0.007279795 0.10125142 -0.15539895 -0.094105355 -0.06525299 0.056508016 0.035695784
0.006647018 0.08303221 0.037691113 0.06368925 0.20741716 0.034844335 0.023600131 0.03560043
0.06083763 0.13729091 -0.049972225 -0.018389495 -0.040662058 -0.021847403 0.095919184 0.043080125
00000000: 08c7 3c3d cc87 113d 4590 88bc 52fc 4bbd
00000010: 3174 17be c023 4cbd abd7 1bbe 9eb5 ddbd
00000020: 44a1 f83d 38f7 d4bc 8262 ccbd 0a98 aebd
00000030: bb79 fb3d 9bec 263e f2f3 2ebe 6a57 c63d
00000040: e60a 263d 598b ee3b e85c cf3d e720 1fbe
00000050: 4fba c0bd 5ca3 85bd f374 673d be35 123d
00000060: 3acf d93b cb0c aa3d ff61 1a3d 826f 823d
00000070: 2a65 543e efb8 0e3d 1055 c13c c2d1 113d
00000080: e130 793d fd95 0c3e adaf 4cbd 91a5 96bc
00000090: 428d 26bd 53f9 b2bc 4771 c43d c974 303d

fc4.weight f4 [40, 40]
-0.077473186 0.04102801 -0.00901778 -0.0860682 0.009474485 0.039602265 -0.18068078 -0.031642698
-0.048172183 0.14574288 -0.059945624 -0.106208354 0.16676065 0.035411347 -0.045593552 0.18575914
0.10514269 0.105109654 -0.09744922 0.089926235 -0.029600939 0.19844979 -0.007615675 -0.13667482
0.05297903 0.11969364 0.13948078 -0.1544567 -0.062714726 0.029059667 -0.18142197 -0.14800489
0.006202228 -0.057288494 -0.049432483 -0.10483664 0.031354032 -0.15149035 -0.090344936 0.09634603
-0.18625002 0.09834272 -0.12264083 0.12192614 -0.16904026 -0.07257742 -0.07233807 0.11189866
0.12199226 0.04403156 0.09954133 0.105937965 -0.14238203 0.079564035 0.03948568 0.08745145
-0.07138391 0.12408627 -0.08715601 -0.03021651 -0.03664265 0.024425736 -0.032149933 0.04465575
-0.053034667 0.02485706 -0.09584305 0.112447746 -0.10835968 0.07789548 0.0952763 0.06956928
0.07416988 -0.065693684 -0.11428553 0.076987 0.11251544 -0.06437807 -0.099233374 0.106635846
-0.109657735 -0.010016491 0.028886953 -0.047706373 0.06668007 0.103898734 0.11488149 -0.09741128
-0.08616836 0.108054996 0.07401505 0.08262823 0.13286483 0.134465 0.10178896 0.12579489
0.09013007 0.037326727 -0.12682797 -0.027233819 -0.047074035 0.073555075 -0.13178593 0.03085625
-0.055136807 0.11679537 -0.15875122 -0.029837193 0.15078051 0.07905227 0.06273037 -0.041195467
-0.04705911 0.027487373 -0.0132730305 0.03429777 0.053156294 0.091227695 0.11619749 -0.051904187
0.055153955 -0.19097176 0.17618607 -0.062223192 0.055416662 0.080933236 -0.11364237 -0.13189252
0.12148767 -0.096286476 -0.14384206 -0.05313004 0.08688044 0.029615944 0.0077062207 -0.120231815
0.06861401 0.02694313 -0.03726129 -0.15875298 0.08230905 0.06503723 -0.034329083 -0.063116975
0.006262624 -0.031574473 -0.13379414 0.024504488 0.05124932 0.06804037 0.12929443 -0.10116619
-0.021769509 0.13293655 -0.20478168 -0.004465727 -0.038126066 0.1209869 0.035397094 0.012346254
0.20031382 0.05966264 -0.09960845 0.018843684 0.014227676 -0.02933716 0.08806078 0.13095182
-0.110289074 0.14870588 -0.016115574 0.059174925 -0.008778758 -0.038275268 0.08287439 -0.13895462
0.05107328 0.077583626 -0.11931477 -0.031430684 0.0040300325 0.1710834 0.09868055 -0.05480646
0.1728583 -0.14862822 -0.057181317 0.055993237 -0.109706245 0.077659406 -0.052782368 -0.03247258
0.08793232 0.03178529 0.14880592 0.004342862 -0.13818008 -0.064844064 -0.021865696 0.17562729
0.14515702 0.02080853 0.03207385 -0.12285659 0.16790627 -0.044688944 0.053533003 -0.15423311
0.08309732 0.13720815 0.074729785 0.098128684 0.050875057 0.16983221 0.039167996 0.038526133
-0.081755154 0.16351788 0.11024503 0.08389196 0.07542875 -0.20582804 -0.006074938 0.110568635
-0.04384648 -0.09373167 0.09813888 0.11361681 0.0024733571 0.07385711 -0.04224641 -0.014302973
-0.059504963 -0.13290505 -0.10292887 -0.010085345 0.021685608 0.09005062 0.063196115 0.016136022
-0.1439696 -0.19938834 0.08835283 -0.10884824 -0.053063963 -0.027521752 -0.024045672 -0.14921314
-0.16839899 -0.068274304 -0.08100922 -0.16156937 0.018509952 0.11270662 0.0874 0.16401136
00000000: 43aa 9ebd fd0c 283d 50bf 13bc 8644 b0bd
00000010: df3a 1b3c fc35 223d 6204 39be c69b 01bd
00000020: 3250 45bd 9f3d 153e 8b89 75bd c483 d9bd
00000030: 4ec3 2a3e 7d0b 113d 4ec0 3abd a537 3e3e
00000040: 0d55 d73d bb43 d73d 7593 c7bd 3f2b b83d
00000050: ab7d f2bc 6c36 4b3e ea8c f9bb 7cf4 0bbe
00000060: 8a00 593d f021 f53d 0dd4 0e3e e629 1ebe
00000070: 9470 80bd 8a0e ee3c aec6 39be 988e 17be
00000080: 0f3c cb3b 57a7 6abd b779 4abd 98b4 d6bd
00000090: 166d 003d 4920 1bbe c406 b9bd 1151 c53d
000000a0: 53b8 3ebe e867 c93d 1e2b fbbd 69b4 f93d
000000b0: e418 2dbe 78a3 94bd fb25 94bd 202b e53d
000000c0: 14d7 f93d 705a 343d 53dc cb3d 01f6 d83d
000000d0: 98cc 11be 78f2 a23d bdbb 213d bf19 b33d
000000e0: ba31 92bd f120 fe3d da7e b2bd 9d88 f7bc
000000f0: 9a16 16bd 7b18 c83c a6af 03bd f3e8 363d
00000100: e13a 59bd 08a1 cb3c 5c49 c4bd 014b e63d
00000110: aeeb ddbd aa87 9f3d 3920 c33d 577a 8e3d
00000120: 61e6 973d 698a 86bd 880e eabd 5cab 9d3d
00000130: 7f6e e63d a6d8 83bd de3a cbbd e563 da3d
00000140: 3c94 e0bd 351c 24bc 55a4 ec3c c267 43bd
00000150: 8f8f 883d dcc8 d43d fd46 eb3d 917f c7bd
00000160: 0a79 b0bd f04b dd3d 3495 973d fd38 a93d
00000170: b80d 083e 31b1 093e bb76 d03d 60d0 003e
00000180: 1d96 b83d e9e3 183d 31df 01be 7519 dfbc
00000190: b4d0 40bd 0ba4 963d e4f2 06be 3fc6 fc3c
000001a0: 22d7 61bd 6932 ef3d ae8f 22be 216d f4bc
000001b0: 3566 1a3e 28e6 a13d c878 803d 94bc 28bd
000001c0: 0ec1 40bd 332d e13c 2077 59bc d27b 0c3d
000001d0: 6aba 593d 96d5 ba3d f3f8 ed3d 7c99 54bd
000001e0: 1de9 613d 1a8e 43be 1f6a 343e bfdd 7ebd
000001f0: 95fc 623d 53c0 a53d 55bd e8bd d50e 07be
00000200: 87ce f83d d831 c5bd 554b 13be e39e 59bd
00000210: 5fee b13d 239d f23c 7784 fc3b 193c f6bd
00000220: 8185 8c3d d7b7 dc3c 4b9f 18bd 2490 22be
00000230: a691 a83d 3d32 853d a79c 0cbd 7943 81bd
00000240: b336 cd3b 3c54 01bd 5501 09be a3bd c83c
00000250: cfea 513d c058 8b3d c265 043e 3830 cfbd
00000260: f855 b2bc 8520 083e 4ab2 51be 3c55 92bb
00000270: 142a 1cbd fbc7 f73d 8bfc 103d f147 4a3c
00000280: 111f 4d3e d060 743d 84ff cbbd 125e 9a3c
00000290: 331b 693c 7c54 f0bc 3659 b43d 3c18 063e
000002a0: 3ddf e1bd 5b46 183e cf04 84bc 6861 723d
000002b0: c8d4 0fbc 87c6 1cbd 0cba a93d 1f4a 0ebe
000002c0: 3732 513d 2ae4 9e3d 4d5b f4bd 76bd 00bd
000002d0: 5d0e 843b 7d30 2f3e 0719 ca3d bd7c 60bd
000002e0: c401 313e ff31 18be f536 6abd 2a59 653d
000002f0: abad e0bd e50b 9f3d 5332 58bd f801 05bd
00000300: dc15 b43d 4b31 023d 9460 183e 914e 8e3b
00000310: 147f 0dbe f7cc 84bd b01f b3bc a4d7 333e
00000320: 0ba4 143e a676 aa3c df5f 033d 3c9c fbbd
00000330: 9fef 2b3e c10b 37bd 6c45 5b3d 49ef 1dbe
00000340: ed2e aa3d 4b80 0c3e ee0b 993d b1f7 c83d
00000350: 5d62 503d 7fe8 2d3e 9f6e 203d 94cd 1d3d
00000360: 3f6f a7bd 3b71 273e 25c8 e13d 8ccf ab3d
00000370: 637a 9a3d 96c4 52be 4610 c7bb cf71 e23d
00000380: 5e98 33bd 64f6 bfbd 0afd c83d eeaf e83d
00000390: 0c18 223b 6642 973d 920a 2dbd 0457 6abc
000003a0: 7abb 73bd 4318 08be 5fcc d2bd 013d 25bc
000003b0: 04a6 b13c 766c b83d f76c 813d b12f 843c
000003c0: c46c 13be 752c 4cbe 54f2 b43d d3eb debd
000003d0: 9959 59bd 4c75 e1bc 6efb c4bc 54cb 18be
000003e0: c970 2cbe 66d3 8bbd 29e8 a5bd 7172 25be
000003f0: 2fa2 973c bad2 e63d c5fe b23d 98f2 273e

fc4.bias f4 [40]
0.13678883 0.07250085 -0.10771281 -0.04222622 0.07275432 0.13569328 0.07882219 0.12041803
-0.06485023 -0.061446648 -0.05754219 0.0025826704 -0.057211183 -0.029150693 0.059613362 -0.15169103
0.033673752 -0.039328527 -0.018735016 -0.007284999 0.077104636 0.042703327 0.060416006 0.10747835
-0.06996939 0.10616837 -0.09294681 -0.101228304 -0.0047431234 0.124732226 0.0113838585 0.048379444
0.054154392 0.046984486 0.15010262 -0.014731618 0.028666787 -0.008161888 0.038849097 -0.15225075
00000000: 5f12 0c3e 537b 943d 8998 dcbd 67f5 2cbd
00000010: 3800 953d 2ef3 0a3e 876d a13d ba9d f63d
00000020: 33d0 84bd 7baf 7bbd 5cb1 6bbd 0542 293b
00000030: 4656 6abd 6fcd eebc 242d 743d e554 1bbe
00000040: 7ded 093d f316 21bd 2d7a 99bc 00b7 eebb
00000050: 09e9 9d3d afe9 2e3d c676 773d 9c1d dc3d
00000060: 1d4c 8fbd cd6e d93d e65a bebd c950 cfbd
00000070: 346c 9bbb 9c73 ff3d 5d83 3a3c 8629 463d
00000080: ffd0 5d3d ce72 403d 80b4 193e e25c 71bc
00000090: 9cd6 ea3c 71b9 05bc 3b20 1f3d 9fe7 1bbe

fc5.weight f4 [1, 40]
-0.016559657 0.015932618 3.786139e-05 0.004029921 -0.054940753 0.09907938 0.008702585 -0.052135345
-0.13572033 -0.068179384 0.0013125828 0.00018229644 -0.05544256 0.0006199643 -0.0011308499 -0.1474297
0.00091468776 0.00047423967 0.013401543 -0.04141371 -0.027700441 0.015268581 0.00015796327 0.00207481
0.0002978103 0.096583754 0.00611686 -0.044655055 0.0013646376 0.15569222 -0.00018493223 -0.0060630674
0.02031667 0.032183442 -0.14556515 -0.07081205 -0.0026833217 0.0025802795 0.0012182553 0.036265824
00000000: 1ea8 87bc 1f85 823c 5ccd 1e38 6d0d 843b
00000010: 8e09 61bd 21ea ca3d 4995 0e3c df8b 55bd
00000020: 45fa 0abe a2a1 8bbd f80a ac3a d426 3f39
00000030: bd17 63bd 1a85 223a 0739 94ba d0f7 16be
00000040: a8c7 6f3a 5fa3 f839 2592 5b3c 6ca1 29bd
00000050: 09ec e2bc 1229 7a3c f1a2 2539 89f9 073b
00000060: 6c23 9c39 b4cd c53d f16f c83b 38e8 36bd
00000070: a4dd b23a c86d 1f3e 5eea 41b9 b2ac c6bb
00000080: 256f a63c c9d2 033d 080f 15be e805 91bd
00000090: abda 2fbb e819 293b ddad 9f3a 798b 143d
