Pytorch_PINN/skew_symmetric_1.ckpt (torch, 23689 bytes, 9 tensors)

fc1.weight f4 [40, 2]
000000 60 af 0a bf 6e 88 5a bf 46 94 5e 3f c8 84 40 be
       -0.5417385 -0.85364425 0.86945 -0.18800652
000010 cc e7 54 3f 03 65 80 be d9 a7 58 be 7d c0 10 bf
       0.83166194 -0.25077066 -0.21157779 -0.56543714
000020 8e 37 f9 3e 3b 21 29 bf 90 14 37 3f 4e a8 2d bc
       0.48675197 -0.6606633 0.7151575 -0.010599209
000030 f6 3c 65 3f 4d 6a ef be 61 3a bc be 39 79 3b 3f
       0.89546144 -0.4676079 -0.3676329 0.73231846
000040 c0 26 c8 be e9 8f 1a 3f 5b dc 61 3d 5b 67 44 bf
       -0.39092064 0.6037584 0.055141788 -0.7672021
000050 97 92 18 bf 64 0d 69 3e 97 1b b2 be cb c6 8a 3a
       -0.5959868 0.22759014 -0.34786674 0.0010587809
000060 e3 79 3d 3f 34 1e 1b 3f 47 2b 64 3f 1f 7d 0f bf
       0.7401411 0.6059296 0.89128536 -0.56050295
000070 a7 4d 4e bf 33 73 f0 be ff 4f bb be f8 6e 03 3f
       -0.8058724 -0.4696289 -0.3658447 0.513412
000080 ad c5 b2 be c5 b1 44 3f cf 9d f8 3e 34 40 ab 3e
       -0.3491644 0.76833755 0.48557898 0.3344742
000090 27 a3 0e 3f f5 2c 20 3f 1c 38 32 3f 16 8c 85 3f
       0.557177 0.625686 0.69616866 1.0433376
0000a0 01 e2 41 3f 4e 2c 10 bf b3 59 7b 3d dc 84 52 3d
       0.7573548 -0.56317604 0.06136484 0.051396236
0000b0 a7 5b 42 3f a5 cc f8 bd 68 23 e5 be bf c4 b9 be
       0.759211 -0.12148408 -0.44753575 -0.36282918
0000c0 7b 94 12 bf e7 03 05 3f 94 30 7d be ab 6f 34 bf
       -0.57257813 0.5195908 -0.24725562 -0.7048289
0000d0 fc 34 4b bf eb e0 9e be 7b e8 5c 3e 21 68 43 3d
       -0.7937772 -0.31030974 0.2157306 0.047706727
0000e0 99 8a e3 3e 9b dc 28 bf 30 69 37 be a6 3b e0 be
       0.4444168 -0.6596162 -0.1791122 -0.43795508
0000f0 df 04 f9 3d 49 89 23 bf ef d0 b4 3e bb 30 49 bf
       0.12159132 -0.63881356 0.35315654 -0.7858998
000100 df 4e 2e 3f 8a 35 9d be 34 55 11 3f 8c 89 68 3e
       0.680891 -0.3070491 0.56770635 0.2270872
000110 ab 1a 85 3e f6 02 57 3f 14 1b 48 3f 7c 4d 79 3d
       0.2599691 0.83988893 0.7816632 0.06086491
000120 b7 8a 23 3f bc 2b 72 be f8 a5 93 3d aa bb 9a 3e
       0.6388354 -0.23649496 0.072093904 0.302213
000130 d3 0d f6 3d 86 1b 08 3f 7f 92 60 3e c9 14 86 bd
       0.120143555 0.53167 0.21930884 -0.06546933

fc1.bias f4 [40]
000000 0a cf 5b bd ad 63 9a 3b 58 58 25 be 4c cf e9 3e
       -0.053664245 0.0047115893 -0.16146982 0.45665967
000010 05 9c 07 3f e9 f8 2e bc 0e 47 44 bd 52 61 d9 3e
       0.5297244 -0.010679462 -0.047919326 0.42457062
000020 cb 3b 61 be 46 58 08 bf 58 06 9e be f9 7b 9d 3e
       -0.21995465 -0.53259695 -0.30864215 0.30758646
000030 c6 fd 41 bf 3b e6 c6 3c 73 b6 10 bd f1 88 21 3e
       -0.7577785 0.024279704 -0.035330247 0.15774895
000040 71 cf 12 bf 3f fb 04 bf 35 0d 2f bf aa e2 79 3e
       -0.5734778 -0.5194587 -0.6837953 0.24402872
000050 dd c9 9b be e0 3d ef 3e d5 4b 2c 3e 96 b4 22 be
       -0.30427447 0.46726894 0.16825803 -0.158892
000060 e1 cb 61 3e 83 89 36 3e 53 48 f9 3e 9a 2f a6 3e
       0.2205043 0.17825894 0.48687991 0.32458192
000070 f2 f2 15 3f cb ee 47 3d b3 20 53 be ac 94 0a bf
       0.5857383 0.048811715 -0.20617943 -0.54133105
000080 27 d4 07 bf a0 cf f7 be 5d 93 2b be 67 e3 1e 3f
       -0.53058094 -0.48400593 -0.16755433 0.6206574
000090 fa 74 a0 3e 20 1c 23 3f 9e 27 95 3e b4 c6 29 bf
       0.31339246 0.6371479 0.29131788 -0.6631882

fc2.weight f4 [40, 40]
000000 14 ec 33 bc 0c e1 85 bc a1 86 8d 3c d0 db d7 bd
       -0.010981578 -0.016342662 0.01727611 -0.10539973
000010 ce a6 5d bd b8 ca 10 be 91 2d 72 bc ee 4a c3 3d
       -0.054114155 -0.14139831 -0.014781372 0.09535776
000020 06 6b 20 3e 6e 2d 94 3d f5 a5 ea 3d 58 0d c7 bd
       0.15665826 0.072352275 0.11457435 -0.09719342
000030 80 02 40 be 66 94 44 be 31 04 0f bd 19 97 04 3e
       -0.18750954 -0.19197235 -0.034916107 0.12948264
000040 7e ca ab bd 22 39 8a 3d b2 ae 39 be 51 64 09 3e
       -0.08388232 0.067491785 -0.18133047 0.13417174
000050 57 24 a5 bd e7 0d c6 bd 3e 32 51 3d d1 82 01 be
       -0.08063572 -0.096706204 0.051073305 -0.12647559
000060 03 fa d4 bb 3e 05 84 3d 6e 7f e7 3b 7c 54 32 be
       -0.0064995303 0.06446312 0.0070647513 -0.1741504
000070 d9 5a b9 3d 18 57 d2 3d 56 28 7e bd 5f 83 9a 3d
       0.09050531 0.10270518 -0.062050186 0.07544588
000080 3f 15 1b 3e a0 d4 d0 bd 74 c6 81 3d bc 51 07 3e
       0.15144823 -0.10196805 0.0633668 0.13214773
000090 13 27 4a bb b1 4b 04 3e 94 5e 2a be d9 9d ca 3d
       -0.0030846044 0.12919499 -0.16637641 0.09893388
0000a0 21 18 2a 3d ba 3a 19 3e c1 ef 75 3e e3 1c d3 bd
       0.041526917 0.14963809 0.2401724 -0.10308244
0000b0 af 6d 7a 3c 7b b8 17 bd 65 c8 38 bd 5a 3d 0c be
       0.01528494 -0.03704117 -0.045112986 -0.13695279
0000c0 e1 f8 ff 3d 2b fc e8 bc dd cc 51 3c f1 1c f2 3c
       0.12498642 -0.028440556 0.012805191 0.029554816
0000d0 b9 8f 86 bd 61 85 34 3e c3 80 9f 3d 27 76 b3 3d
       -0.06570382 0.17629005 0.07788231 0.0876277
0000e0 79 a7 46 3d d8 04 b1 3d a2 2e 65 bc 5d 94 fb bd
       0.048499558 0.08643502 -0.013988169 -0.122841574
0000f0 33 b2 50 3e 5f 11 30 3e 45 46 52 bd bb 10 a6 3c
       0.20380478 0.17194127 -0.051336545 0.02027165
000100 82 98 36 be fe 9a 01 3e 4c 01 75 be 01 ca a0 bd
       -0.17831615 0.12656781 -0.23926276 -0.07851029
000110 7c 4e e0 3d c7 21 12 3d 4a 58 16 3c f2 1c f0 bd
       0.1095247 0.035676744 0.009176323 -0.11724271
000120 50 bb 27 3e 2e 29 d0 3d 81 9e f9 3d fc 7b 3f bc
       0.16380048 0.101641044 0.12188435 -0.011687275
000130 f3 46 dd 3c 63 04 b5 bd 5d fa 68 bc ec 0a 82 3c
       0.02701137 -0.08838727 -0.0142198475 0.015874349
000140 83 96 b3 3d 7e 67 7d 3d 31 fb a2 bd d0 38 b0 bd
       0.08768942 0.061866276 -0.07958067 -0.08604586
000150 fc 8d f6 3d 9e 2a 61 bd 68 14 0c 3c a7 c3 73 bd
       0.120388 -0.054972284 0.008549787 -0.05951276
000160 69 36 c6 bd 4a 54 ce bd 9f 23 1a 3e 5d da 9e bd
       -0.09678347 -0.100746706 0.15052651 -0.07756493
000170 44 6e 5e 3e af b2 98 bd 09 96 13 3e 3f 46 bc 3d
       0.2172175 -0.07455956 0.14412703 0.09193086
000180 9b 79 1b 3d 32 8f d4 3d d9 5e c2 3d 22 d6 b7 bb
       0.03795777 0.10378875 0.09490747 -0.0056102434
000190 d0 28 df 3c 36 75 8e ba 00 29 08 be 20 bb 20 bd
       0.02724114 -0.0010868672 -0.1329689 -0.039240956
0001a0 2d e1 d0 3d 8b 8b 9b bd 9b 04 0d be 92 34 b2 bd
       0.10199199 -0.07594975 -0.13771288 -0.08701433
0001b0 28 06 f0 3d 42 45 83 bd 81 c2 b2 bb 4a ae ad bd
       0.11719924 -0.06409694 -0.0054553156 -0.084805086
0001c0 ba 33 8b b9 07 17 ba 3d f2 4a 6e bd f2 9a 48 bd
       -0.00026550685 0.09086423 -0.058176942 -0.048975892
0001d0 b3 ca 0e be c1 94 1f 3e 09 35 48 bd 9b dc 8c 3d
       -0.13944511 0.15584089 -0.048878703 0.06878015
0001e0 73 9c e0 bd b7 e5 7b be 98 25 8c be c6 ac eb 3d
       -0.1096734 -0.24599348 -0.27372432 0.11507563
0001f0 5c 82 87 bd 2f 80 17 be 1a cf d2 be 3b 0c 8f bd
       -0.06616661 -0.14794992 -0.4117363 -0.06984755
000200 8f 2e 1f 3e a9 21 a9 3d c8 ae 9f bd 11 2d 8a 3d
       0.15545104 0.08258373 -0.07797009 0.06746877
000210 a6 52 68 be 2e 05 ae be 39 b4 8e 3c b0 0c 90 3d
       -0.22687778 -0.33988327 0.017419921 0.0703367
000220 0b 80 8f 3d bc 67 9e bd 02 f4 7e bd 79 eb 13 3e
       0.07006844 -0.077346295 -0.062244423 0.14445294
000230 07 40 be bd 1e a7 fd 3d 38 7e da bd cb 2e 3d 3e
       -0.09289556 0.12385391 -0.106686056 0.18474881
000240 06 a7 78 3e ff e3 50 bd 47 39 c8 3d b8 aa f6 bd
       0.24282464 -0.050998684 0.0977655 -0.12044281
000250 5b 22 e7 bd 3e ff 02 3e e7 0e 2e be f5 a7 aa bd
       -0.1128585 0.1279268 -0.16997872 -0.083328165
000260 67 cd 0f be a2 1a 96 be 72 05 f9 ba a5 74 30 be
       -0.14043199 -0.29317194 -0.0018998815 -0.17231996
000270 0d 1c 73 bd 89 d8 dd 3d e3 fc bb 3d 16 97 b0 bb
       -0.059352923 0.108323164 0.09179094 -0.0053891046
000280 fc 70 96 bc d3 97 a1 be de c7 33 bf fc 48 da 3d
       -0.018364422 -0.31561145 -0.7022685 0.10658452
000290 4c 63 7c bd ee 28 49 be f3 59 3b bf df a6 3a 3e
       -0.061618134 -0.1964452 -0.73184127 0.18227719
0002a0 c0 8f 8f 3e 76 23 8c bd 54 69 61 3e 17 19 4d 3e
       0.2803936 -0.06842701 0.22012836 0.20029102
0002b0 e7 78 00 bf f8 e1 04 bf 02 e1 27 3e 0b 7d d8 3e
       -0.5018448 -0.519073 0.16394427 0.422829
0002c0 1c f1 14 bd 2a 93 01 bf 8a 75 0b bf 1b e1 f3 bd
       -0.036362752 -0.5061518 -0.54476225 -0.1190817
0002d0 9b 4d 14 bf 35 0c 99 bd 4f dc 0b 3c 02 a4 9f bd
       -0.57930917 -0.074730314 0.008536412 -0.07794954
0002e0 82 f0 20 3f a3 15 80 3d aa 97 14 3f fa 02 33 3e
       0.62866986 0.06254127 0.5804392 0.17481604
0002f0 ed 21 9a 3d 3a dd c6 3d 6d cc 9a bd e9 43 79 bd
       0.07526002 0.09710164 -0.075585224 -0.06085578
000300 98 60 cf be 42 13 19 bf 50 8a 7a 3d fa 78 24 3e
       -0.40503383 -0.5979501 0.06116706 0.16061774
000310 e4 8d 3c bc 34 8c 2d 3e 03 3e 70 bd ce e5 3b be
       -0.011508439 0.16948014 -0.05865289 -0.18349382
000320 99 3a 2c 3e a3 94 3a bd d8 d4 c0 3e 67 27 d5 3d
       0.16819228 -0.045551907 0.37662387 0.10407906
000330 27 cd 39 3e b6 ef 8f bd 2d 8d 42 3e 1f a0 f3 bd
       0.18144666 -0.07028143 0.18999167 -0.11895775
000340 25 bb 17 be 88 22 b2 3d 9b ed 59 be 44 f1 c0 bd
       -0.14817484 0.086979926 -0.21282046 -0.09421018
000350 46 af 98 3e 62 52 85 3e fe f3 5b bd 52 a5 62 bc
       0.29821223 0.26039416 -0.053699486 -0.013833361
000360 d9 4f b8 3d dd 0c 45 3e c2 26 c3 3d 9e 35 e2 bd
       0.08999605 0.19243188 0.09528877 -0.11045383
000370 e2 ae 83 3e 59 86 33 3e 42 d5 5f 3c 97 31 0b 3e
       0.25719362 0.17531718 0.0136616845 0.13593136
000380 20 fa 1d 3d 86 c4 b0 3d d9 0c 3f bb 66 dc 33 bd
       0.038568616 0.08631234 -0.0029151945 -0.04391136
000390 95 26 02 bc 57 d8 30 bd 04 8f 4d 3d b4 8b 27 3e
       -0.007943769 -0.043175068 0.05018522 0.16361886
0003a0 e6 48 66 3d fb 45 66 3e 01 e7 e1 bc f6 eb 8f 3d
       0.056221865 0.22487633 -0.027575972 0.07027428
0003b0 f5 a5 40 3e 43 dc b1 bc e9 ce 05 3e ac 68 02 bc
       0.18813308 -0.021711474 0.13067211 -0.007959526
0003c0 98 24 85 bd 01 95 06 bc 5f df 77 3e 90 a4 8b be
       -0.0650112 -0.008214236 0.24206303 -0.2727399
0003d0 ab 72 18 3d c8 7c be bd 8b cf 49 3e 2a ff 80 3d
       0.03721873 -0.09301144 0.19708078 0.06298669
0003e0 85 87 29 3d 22 93 e0 bc 48 ec 90 bd 5a 9c 4f bd
       0.041389007 -0.027413908 -0.07076317 -0.050686218
0003f0 69 21 4e 3e c6 b6 79 3d 84 b0 0b be 9b 52 ad bd
       0.20129932 0.060965322 -0.13641554 -0.08463021

fc2.bias f4 [40]
000000 de 2d 44 3c c0 5e 8f 3d 1b 6d d5 3d d0 0c b1 3c
       0.011973826 0.07000494 0.10421201 0.021612555
000010 09 10 4b 3b 30 b7 02 3d 12 84 08 bb 38 55 4a 3d
       0.00309849 0.031912982 -0.0020830673 0.049397677
000020 4b a9 05 be db f4 12 bd 4a 17 56 bd 4c fa 15 bd
       -0.13052861 -0.035878044 -0.052268304 -0.036615655
000030 2b a0 9d bd c7 17 25 bd f0 d6 ac bd e2 11 83 3d
       -0.07696565 -0.04030588 -0.084394336 0.06399895
000040 4e d6 d4 bc 6f 1e f7 bd ba 25 c5 bd f2 5b 76 bd
       -0.025981095 -0.120663516 -0.096263364 -0.06014628
000050 a5 de ac 3d 8b 42 4f bc e6 69 28 be 14 7f cf 3d
       0.084409036 -0.012650142 -0.16446647 0.1013166
000060 ec 77 20 3e f3 4e fa bd f7 63 00 be 16 65 d7 3d
       0.15670747 -0.122220896 -0.12538134 0.105173275
000070 c3 84 fc bd 58 5d 3a 3c c7 b1 af bd 66 da cf bd
       -0.1233001 0.011374794 -0.0857883 -0.10149078
000080 5f 37 2e be 54 27 ba 3d 71 a5 3a 3b e3 2c 97 3d
       -0.1701331 0.090895325 0.0028479958 0.07381608
000090 50 af ad bd 07 d8 91 bd b1 25 c0 3d de 37 26 3e
       -0.08480704 -0.07121282 0.09382189 0.16232249

fc3.weight f4 [40, 40]
000000 33 6b 35 bd a7 21 08 3e f5 ab 07 3e 8b 97 73 bd
       -0.044291686 0.13294087 0.1324919 -0.059470695
000010 53 a2 a3 3c f8 fe b5 3d 6f aa 19 be 15 9d ae 3d
       0.019974863 0.08886522 -0.15006422 0.08526055
000020 f6 81 01 3e 78 5b 78 bd db 48 9e bd 9c 90 08 3e
       0.12647232 -0.060634106 -0.0772874 0.13336414
000030 a7 a7 5c bd 50 9d 0b 3e be 41 03 3e f5 14 bf 3d
       -0.053870823 0.13634229 0.12818047 0.09330169
000040 33 40 1c 3e 4d b4 63 bd 1e 60 06 bd 72 9e 0f be
       0.15258865 -0.05559187 -0.03280651 -0.14025286
000050 90 a8 c6 bb 10 a5 77 bd 0c c7 f3 3d 63 b2 e2 3d
       -0.0060625747 -0.06046015 0.119031996 0.11069181
000060 78 c6 03 be 2d 55 2d bd 28 2b 79 3d a3 33 0c 3e
       -0.12868679 -0.042317558 0.060832173 0.13691573
000070 6e 1f b9 bd 59 9e 5c bc 33 d1 51 3d 7c ac 63 bd
       -0.09039198 -0.013465487 0.0512249 -0.055584416
000080 3f 66 e7 bc 89 a8 6f 3d e5 f0 de 3d 45 bf 47 bd
       -0.028246997 0.058510337 0.10885791 -0.048766393
000090 65 ce 59 3e 33 d5 9a bd 5e eb 18 be f5 bf 01 3e
       0.2127014 -0.07560196 -0.14933535 0.12670882
0000a0 b9 aa 6f bd a1 e2 2a 3d b6 f0 26 3d d1 03 69 be
       -0.058512423 0.041720036 0.040756904 -0.22755362
0000b0 02 11 33 bf a2 81 94 bc 6a 36 43 3e 11 75 33 3e
       -0.69947827 -0.01812822 0.19063726 0.17525126
0000c0 6b 27 fa 3c 27 44 b9 bd 4c ad 21 be bf dd 16 3f
       0.030536374 -0.09046202 -0.15788764 0.5893211
0000d0 65 33 b4 bd f4 d4 10 be 0c d9 c8 3d 3c 37 62 be
       -0.08798865 -0.14143735 0.098070234 -0.22091383
0000e0 26 da ed bc e5 2a ac be 06 cc 9d 3c 16 c7 3f bd
       -0.029034685 -0.33626476 0.019262325 -0.046820723
0000f0 0e 63 96 be 98 06 12 bf a5 f8 51 3d e6 25 33 3e
       -0.29372448 -0.5704131 0.051262517 0.17494926
000100 77 7e b7 be 9e 08 a3 3d 60 9d cf 3e 1b cc ac 3e
       -0.35838673 0.07960628 0.40549755 0.3374947
000110 9b 0b 68 3c b3 d2 22 bd 2d 40 73 bd eb a8 a5 bd
       0.014162923 -0.03975172 -0.059387375 -0.08088859
000120 89 fd e6 3d 55 71 87 3d f7 cb ad 3d df fc 89 3e
       0.11278827 0.06613413 0.08486169 0.26950738
000130 9d 0f d7 3d 2a 5b db 3d 49 ad 3e 3e 97 81 f9 bc
       0.10501025 0.107107475 0.1862079 -0.030457301
000140 c1 75 f7 3d 41 63 b7 3d 67 33 1e be b6 1a 7d bd
       0.12083007 0.08954478 -0.15449296 -0.06179305
000150 61 4c 08 bd 77 72 c7 bc e5 da 81 bd bf f7 22 bd
       -0.033275966 -0.024346573 -0.06340579 -0.03978705
000160 b6 c5 fe 3c 5f 0b f2 bc 4f f4 18 3d bd 14 04 be
       0.031100135 -0.029546438 0.037342366 -0.12898536
000170 54 f7 06 bd ea f6 65 3c 37 5c 1c 3d 8a ae 81 bd
       -0.032950714 0.01403592 0.03817388 -0.06332119
000180 27 43 5f 3e 44 9d e7 3d 7e ca b9 bd 1f d2 82 3e
       0.2180296 0.11309293 -0.090718254 0.25550935
000190 23 09 1d 3e 4e e7 48 be c4 74 0a be 78 44 0f 3e
       0.15335517 -0.19619486 -0.13521105 0.13990963
0001a0 76 dd c9 3d d7 c8 58 be 84 24 8c 3c 80 f0 14 3e
       0.098566934 -0.21170364 0.017107256 0.14544868
0001b0 e7 9a 0f bd cf 68 3f 3e b3 26 e7 bd ab 0e d3 3d
       -0.035059836 0.18692325 -0.11286678 0.10305532
0001c0 58 61 cd 3c 29 59 f2 bd 48 0e 04 be 0a 2c cc bc
       0.025070831 -0.11833412 -0.12896073 -0.024923343
0001d0 dc a5 2b 3d 1f 25 4e 3d 71 33 1b 3e 74 7c 19 bc
       0.041906223 0.05032837 0.15156342 -0.009368051
0001e0 c9 2d db 3d 93 02 22 be 56 9c 81 bd 45 20 99 3d
       0.10702092 -0.15821294 -0.06328647 0.07476858
0001f0 74 d0 8b 3f 58 07 d4 bd 04 17 05 be e6 7e 0b bd
       1.092299 -0.10352963 -0.12997061 -0.034056567
000200 7c 75 9c be dd 4f 93 bd a6 34 11 3c d8 78 74 bf
       -0.30558383 -0.07192967 0.00886265 -0.9549689
000210 22 5f 9f 3e ce c8 b7 3e b9 99 30 bc c4 ab 6c 3e
       0.31127268 0.3589539 -0.010778838 0.23112398
000220 f8 a2 d4 bd 53 3b a0 3e 87 a3 49 be 82 ea 08 3d
       -0.10382646 0.3129526 -0.19691287 0.03342677
000230 76 5f 7a 3e 33 5b 82 3f bd bc ff 3d e2 21 cf 3b
       0.24450478 1.0184082 0.12487171 0.006321178
000240 a2 70 07 3f d0 34 93 bd b9 01 3e bf 7e 52 b6 be
       0.5290624 -0.071878076 -0.7422138 -0.35609812
000250 84 3a de 3d 39 73 ec bd 61 78 48 3e fb b7 8a 3c
       0.10851005 -0.115454145 0.19577171 0.016933432
000260 fa eb b4 be 87 d5 b9 3b a9 4b d5 be 4e b5 9c be
       -0.35336286 0.0056712064 -0.41659287 -0.30607074
000270 23 85 3c be 05 f7 b6 bb 82 c9 2b be 06 0b 81 bd
       -0.18410163 -0.0055836462 -0.16776088 -0.06300931
000280 78 7c 6d bd 81 8a 0d be 98 07 4d 3e 3a 2b 07 3b
       -0.05798003 -0.13822366 0.20022428 0.002062513
000290 6b c6 f2 bd 94 85 0c 3d 7a 05 a6 bd 4a cb 0f 3e
       -0.118542515 0.034307078 -0.08106513 0.14042392
0002a0 fd 5a c9 3d 6c 16 39 3d 76 b2 ff bd 13 f0 68 3d
       0.09831808 0.0451874 -0.124852106 0.056869578
0002b0 6b 3a f0 3d 8f 79 b2 bd e0 53 39 bd 22 ed c9 bd
       0.11729892 -0.08714592 -0.045246005 -0.098596826
0002c0 82 2f a9 bd 05 bb a8 3d 86 5d a3 b9 07 a7 a2 bc
       -0.082610145 0.08238796 -0.00031159463 -0.019855035
0002d0 18 88 f1 bd c1 cd 17 3e a4 fd 00 be 4c 4f c2 bd
       -0.11793536 0.14824583 -0.12596756 -0.09487781
0002e0 8d cf ec 3d 96 9c 37 3a bd 52 c8 3d d4 aa b3 bd
       0.11563025 0.0007004229 0.09781406 -0.08772817
0002f0 ef ae bc 3d 00 ea eb bc e6 84 ce 3d 00 85 06 be
       0.092130534 -0.028798103 0.10083942 -0.13136673
000300 50 27 c1 bd 28 12 00 be 11 14 83 3b 19 3a f9 3c
       -0.094313264 -0.12506926 0.004000195 0.030423211
000310 f7 1b 2f 3e c8 15 ed 3d a5 ec 91 3d f9 a9 00 3d
       0.17100511 0.1157642 0.071252145 0.0314121
000320 4c 17 6b be 55 4e f7 3b bc 89 1f 3e c5 b2 a9 3d
       -0.22958106 0.0075471797 0.15579885 0.08286051
000330 a0 b6 a2 3d c0 44 44 3e 7d 66 2d bd c5 e2 fb 3c
       0.07944989 0.19166851 -0.04233407 0.03074778
000340 3e 11 1e 3e 3e 59 23 be 88 d1 0f be ad b8 05 3e
       0.15436265 -0.15952012 -0.14044774 0.1305873
000350 15 44 aa bd 4e 2c 24 3d 18 db 27 bd 98 a1 00 be
       -0.08313767 0.040081315 -0.04098043 -0.12561643
000360 2c 89 05 3e 85 94 40 bd a6 52 bb 3d 8e 2a b2 3d
       0.13040608 -0.04701664 0.09146623 0.08699523
000370 9a d7 68 be fd cb ca bd ea a7 d4 3d d5 f2 c6 3c
       -0.22738495 -0.09902189 0.103835896 0.024285713
000380 3f 49 94 bd 78 c1 0e be f6 ac 5f 3d c7 85 80 3d
       -0.07240533 -0.1394099 0.054608308 0.06275516
000390 87 03 36 be 8f bf 26 bd c6 0e a8 3d f9 42 33 3d
       -0.17774783 -0.04071003 0.08205943 0.043765042
0003a0 28 e7 02 3e e1 12 16 bd 83 3a 82 3d bb 57 ab bd
       0.12783492 -0.036639098 0.063588165 -0.08366343
0003b0 e6 3f 98 3e 02 63 00 be 07 5f f5 3d ea 8e 5e 3d
       0.2973625 -0.12537768 0.11981016 0.054335512
0003c0 12 6c 81 bd 03 a7 ea 3d 99 9a fa 3d e7 8a 41 3e
       -0.06319441 0.11457636 0.122365184 0.18900643
0003d0 78 ad d7 3e 7f 87 dd bd e5 01 d7 3d 1b da c5 3d
       0.42124534 -0.108168595 0.10498408 0.09660741
0003e0 9e 2c ce bd 15 e1 66 3e 87 af a8 bc e7 54 f4 bd
       -0.10067104 0.225468 -0.02059151 -0.11930256
0003f0 45 47 0f be ac 81 35 be 77 be b4 3d 4c 38 88 3e
       -0.13992031 -0.17725247 0.08825391 0.2660545

fc3.bias f4 [40]
000000 3b 79 35 3d 25 98 37 bd 75 db 0c be b7 72 3c 3e
       0.044305068 -0.04482283 -0.13755591 0.18403135
000010 ca d2 ee 3d 5a e3 13 3d 33 d3 ea bc 52 b0 93 3c
       0.116612986 0.03610549 -0.02866516 0.018028412
000020 f4 81 c6 3d ef 40 a2 3d 21 8b 8c bd 94 68 6e bd
       0.09692755 0.07922541 -0.06862474 -0.058205202
000030 90 60 db 3d 05 d2 1e 3d 7e 18 08 be 05 dd ba 3d
       0.10711777 0.03877451 -0.13290593 0.091241874
000040 80 ef 48 bd 09 66 1c bc 7e c2 ee bd b6 02 00 3e
       -0.04905653 -0.009545811 -0.1165819 0.12501034
000050 dc 95 db bd bb 04 17 be 54 2b 01 3d 9b da 1f 3e
       -0.10721943 -0.14747898 0.03153546 0.15610735
000060 be 68 e1 3d 43 70 3c 3e 56 da 82 bd 05 9b d2 3b
       0.11006306 0.184022 -0.063893005 0.006427171
000070 e7 06 fe 3c 11 91 09 bd d4 26 63 3d 72 94 9d 3c
       0.03100915 -0.03358561 0.05545695 0.019235823
000080 ce db 0c 3c cd 0a 05 3e 87 0f 38 3d 9a 95 a0 3d
       0.008597327 0.12992401 0.044936683 0.07841034
000090 4d 27 ef bd 8f 19 d3 3d 1c 82 16 be ee 51 f5 bd
       -0.11677418 0.10307609 -0.1469807 -0.119785175

fc4.weight f4 [40, 40]
000000 1f 31 2c bd 79 5f 36 be b4 e5 f4 bc 2f 06 14 3e
       -0.042039033 -0.17809857 -0.029894687 0.14455484
000010 81 77 8f 3c 49 65 97 3b 53 04 05 3e 8c aa 7c bd
       0.017513039 0.0046202284 0.12989931 -0.061686084
000020 3d 68 ef 3d e0 f4 f6 3d 43 cb 07 3e 3d 65 3e bd
       0.11689804 0.12058425 0.13261132 -0.046483267
000030 dc 38 df bd e9 70 5d bd 78 bd 73 bd 6a f0 5c 3d
       -0.10899517 -0.054062758 -0.059506863 0.053940214
000040 ce da c7 bd 5b 4a d8 bd 7c d5 08 3c 03 1d ca 3d
       -0.097585306 -0.10561057 0.00835168 0.09868815
000050 ca 2e bb bd 29 55 8c bd 7e 64 16 3e 35 27 f1 bd
       -0.09139784 -0.068521805 0.14686772 -0.11775056
000060 ed 38 10 be f3 77 d1 bd 42 ba 04 be 64 c7 06 3c
       -0.14084215 -0.102279566 -0.12961677 0.008226249
000070 f0 71 63 bc 14 7d 66 38 c6 25 f6 bd 81 01 09 bd
       -0.013882145 5.495276e-05 -0.120189235 -0.0334487
000080 7b 09 12 be 46 f5 46 be 84 d8 7b 3d 7f 47 44 3c
       -0.14261429 -0.19429502 0.061485782 0.011979937
000090 6b 61 ef 3d 20 20 04 3c b2 e1 74 3d 36 02 09 3d
       0.11688503 0.0080643 0.059785552 0.033449374
0000a0 b5 c1 2a be ee 35 b2 bd 98 00 bc bd eb ed 75 3e
       -0.16675456 -0.087016925 -0.09179801 0.2401654
0000b0 0b e1 43 be 35 68 b2 bb e6 d5 7b 3d cc 25 24 be
       -0.19128816 -0.0054445514 0.061483286 -0.16030043
0000c0 c6 0a b5 3d 55 08 e4 3d 04 68 44 3e c1 d7 64 3a
       0.088399455 0.11134402 0.19180304 0.00087296596
0000d0 0f 5c 07 3e 0f 07 8c 3c 92 e7 12 be 1f 38 6e 3d
       0.13218711 0.01709321 -0.1434615 0.05815899
0000e0 7d c9 06 be 15 dd bf 3d 15 ae 3c 3d 5d 31 37 3d
       -0.13162799 0.0936834 0.046064455 0.04472481
0000f0 12 00 9a 3c 2c cc 81 3e dc 75 4e 3e d1 58 c9 bd
       0.018798862 0.25351083 0.20162147 -0.098313935
000100 69 4f 1f be 1a e6 8a 3d 79 ad 88 3d e0 b1 f9 3d
       -0.15557636 0.0678217 0.06673712 0.1219213
000110 6f bd e2 bd 80 d6 57 3d 92 d8 b3 bd 16 09 26 3e
       -0.11071288 0.052694798 -0.08781542 0.16214404
000120 57 bc c4 bc 81 97 09 3e 6d 00 73 3d 64 6b 3f be
       -0.024015589 0.134367 0.059326578 -0.1869331
000130 80 3f 4e bd 39 71 85 3d a9 9b 34 bd 51 ac 09 3c
       -0.050353527 0.06515736 -0.04409376 0.0084029
000140 21 e5 00 3e a3 c4 1b be 14 fe 11 bd 25 da fc bd
       0.12587406 -0.1521173 -0.0356427 -0.12346295
000150 1e a1 c5 bb 62 cf 2a be cd 3e 6a bd de fa 26 be
       -0.0060311696 -0.16680673 -0.057188798 -0.16306636
000160 fc 42 7d bd 33 8c ab 3b a4 2d af 3d de b0 18 bc
       -0.06183146 0.005235219 0.08553627 -0.009319512
000170 e1 8d 12 bd d2 bc f9 3c 01 a2 ac bd be 8e 1a 3c
       -0.035779838 0.030485544 -0.08429337 0.009433446
000180 4c 12 ff bd d0 47 95 3d 1f 1d b1 bc 56 25 a1 bd
       -0.12454662 0.07289088 -0.021620331 -0.078684494
000190 18 2d cf bd 79 bb af 3d 08 d3 37 bd de c4 47 bd
       -0.10116023 0.085806794 -0.04487899 -0.04877173
0001a0 d1 c5 5a bd eb b9 f7 3d 7c 50 4a bc bf 71 90 3d
       -0.05341131 0.12096008 -0.0123482905 0.07052945
0001b0 6a eb be 3c 01 c1 20 be f6 3c 21 3e 30 4d f4 ba
       0.023305614 -0.15698625 0.15745911 -0.0018638726
0001c0 4f a5 b5 3b ce d7 1a bd 45 8c c2 bc b9 e8 81 3c
       0.005543388 -0.037803464 -0.023748526 0.015858041
0001d0 91 0f bd 3c ec 86 75 bd fa cd b2 3c 99 d3 73 bc
       0.023078712 -0.059943125 0.021826733 -0.014881992
0001e0 b9 04 8f bd 7b 18 37 3d f0 f6 4d 3d 69 1b e8 bc
       -0.06983323 0.04470108 0.050284326 -0.028333383
0001f0 92 0d f6 bd 38 b1 a9 3a 54 3d 14 be e2 11 5a 3e
       -0.12014307 0.0012946492 -0.1447652 0.21295884
000200 68 cf d9 bd 01 b8 0a 3e 90 47 a7 bd 6d 93 95 bc
       -0.10635263 0.13546754 -0.08167946 -0.018258775
000210 b5 d1 c7 bc 36 ea 0c 3e ff a9 4d 3d 17 6a 23 be
       -0.024391988 0.1376122 0.05021095 -0.15958439
000220 cd c2 17 be bf 6d f1 3d 22 4a f6 3d f3 03 8c 3b
       -0.14820404 0.117885105 0.120258585 0.0042729317
000230 69 89 c5 bc 13 98 f4 3c 64 11 2e 3e 6c 0b fd bd
       -0.024113374 0.02985767 0.16998821 -0.12355694
000240 49 ee f0 bd 14 bc 49 3c d3 18 9c 3d 36 27 88 3d
       -0.11764199 0.012312908 0.07621922 0.06648104
000250 13 ac dc bd af 9f 19 bd 04 b1 ef 3d eb 57 0e be
       -0.10775008 -0.0375058 0.11703685 -0.13900726
000260 b7 a5 ed bd e8 07 ea 3d 52 1d b5 3d 21 df c7 bd
       -0.11603873 0.11427289 0.08843483 -0.09759355
000270 60 05 c7 bc ba e8 ee bd a1 24 99 bd 1d 30 b5 3d
       -0.024294555 -0.11665483 -0.074776895 0.088470675
000280 26 0f 18 be 5e b5 6d 3d 0c e5 0b be 46 0b e9 3b
       -0.14849529 0.058034293 -0.13661593 0.0071119396
000290 18 e8 00 3e 14 b4 10 3e 41 0a d3 3d b2 10 27 be
       0.12588537 0.14131194 0.1030469 -0.16314963
0002a0 cd b8 4c bd 76 93 37 bd 0b 10 c3 3d 59 5b 01 3d
       -0.049980927 -0.044818364 0.09524544 0.031581257
0002b0 23 96 da 3d 3c 6e 68 bd 75 14 df bb 11 8e d4 bd
       0.106731676 -0.056745753 -0.0068078586 -0.103786595
0002c0 73 7d 0b be 78 a5 b6 3d 62 ca 83 bd a9 2e 1d 3e
       -0.13622074 0.089182794 -0.06435086 0.1534983
0002d0 51 93 44 be 39 34 10 be 03 2a 48 bd d3 09 3d 3d
       -0.19196822 -0.14082421 -0.04886819 0.046151947
0002e0 5d 37 88 bd dd f3 1a be e3 22 ce bd 97 56 12 3d
       -0.06651185 -0.15132089 -0.10065248 0.03572711
0002f0 9e c4 9b bd 02 df 55 3d 54 d1 4b bd bd 36 fd bd
       -0.07605861 0.05221463 -0.049760178 -0.12363956
000300 ce 74 f7 3d 34 43 c2 bd 0c 08 06 3e 2c 1a 41 bd
       0.120828256 -0.09485474 0.13089007 -0.0471441
000310 e5 1d 0f be 89 24 04 be 29 34 04 be b0 f9 9d 3c
       -0.13976248 -0.12904562 -0.12910523 0.0192841
000320 bc d7 c2 bd d9 c8 d4 bc df 79 28 be d1 c9 6d 3c
       -0.09513804 -0.025974678 -0.1645274 0.014513449
000330 c9 6f 9b bb 51 6a d2 3d fd fc 1c be 98 c3 fc bd
       -0.0047435504 0.102741845 -0.15330882 -0.12341994
000340 92 62 a1 3d 64 86 6c 3d 51 55 7c 3d 5d 1b 96 bd
       0.07880129 0.057745352 0.0616048 -0.07329438
000350 b8 89 10 3e c0 aa 80 3d 0b a5 73 ba d0 1c 2a bd
       0.14115036 0.06282568 -0.00092943077 -0.041531384
000360 6b 6a d5 3d 08 21 c9 bd 89 d5 5a bd ac 0f ce 3d
       0.10420688 -0.09820753 -0.0534263 0.10061583
000370 9b 47 77 bd b1 5c 7d be ea de 81 3d 92 15 84 bd
       -0.060371023 -0.2474239 0.063413456 -0.06449427
000380 da ad 06 3e 6c 71 70 bd d8 22 4a bd e1 4f fb 3d
       0.13152257 -0.058701918 -0.049349636 0.12271095
000390 2a 44 9e 3d 2b 5d c1 bd 8f d2 5c 3d ba 74 c9 bd
       0.07727845 -0.094415985 0.05391174 -0.09836717
0003a0 2e 7d 10 bd a8 d3 cb bc cd 83 0a be 07 97 82 3d
       -0.03527563 -0.024881199 -0.1352684 0.063764624
0003b0 2b 35 53 3c 48 92 96 bd c5 ff fa 3d 10 af d4 bd
       0.012891094 -0.0735212 0.122558154 -0.10384953
0003c0 a6 8b 64 3d e3 61 16 be f4 89 7c 3d 6a 6d 08 be
       0.05579724 -0.14685778 0.061655 -0.13322988
0003d0 c9 7b 41 bc 8e 78 f4 bd 10 ac ce 3d b1 e8 0d bd
       -0.011809298 -0.119370565 0.10091412 -0.03464574
0003e0 f7 3c e1 bd a7 16 f8 b8 17 b7 ac b9 36 4e f9 3d
       -0.10997956 -0.00011829781 -0.0003294281 0.12173121
0003f0 90 45 38 be 42 59 05 be 1a ae 81 3d ec 4d 1c be
       -0.17995286 -0.1302233 0.06332035 -0.152641

fc4.bias f4 [40]
000000 0f 67 da bd 66 c2 18 bd 39 65 52 bd dd 04 c4 bd
       -0.10664188 -0.037294768 -0.051366065 -0.0957124
000010 3c 1d ea bd 09 d6 5a 3d 53 fb 29 3d 7f bc f1 bc
       -0.11431357 0.053426776 0.041499447 -0.029508827
000020 9b 36 9b bd a9 a8 1b be 07 a3 14 3e 1e 87 db 3c
       -0.075787745 -0.15201057 0.14515315 0.026797827
000030 f8 bd 9b 3d ad db c4 3d cd 3e 48 3d d7 f0 76 bb
       0.07604593 0.09612212 0.048888016 -0.0037680173
000040 c6 dc 56 bd ee a4 e4 3d 52 08 d9 3d 2f 86 12 be
       -0.05245664 0.1116427 0.1059729 -0.14309
000050 63 28 1a bd 5e b0 89 bd bb 26 d4 bd c3 2e cb 3b
       -0.037636172 -0.067230925 -0.1035895 0.006200643
000060 12 bb 20 3d 87 0b 09 3c 21 2f cb 3d da 76 97 3d
       0.039240904 0.008364565 0.099210985 0.07395716
000070 64 7d 28 3e 46 95 6d bd 30 13 75 3a 08 f8 a8 bc
       0.16454083 -0.058003686 0.00093488675 -0.020626083
000080 3a 86 d2 bb 6d 6f 04 be 59 bd a6 3d 88 d7 13 3c
       -0.0064246925 -0.1293313 0.08141584 0.009023555
000090 f9 5f 21 3e 6d 7f 24 be 67 ac e7 3d e7 1a 92 3b
       0.15759267 -0.16064234 0.1131218 0.0044587734

fc5.weight f4 [1, 40]
000000 69 5f 1d be 59 71 07 3e c9 78 1c bd d8 cb 09 39
       -0.15368427 0.13226832 -0.038201127 0.00013141276
000010 74 d1 21 bc 28 b4 dc bc 18 a5 a2 3a c6 0e 08 be
       -0.009876598 -0.026941374 0.0012408821 -0.13286886
000020 51 6e 8a bd ce 7f 81 3c 1d 24 7d 3d 52 1f 4a bd
       -0.067593224 0.015808012 0.06180202 -0.049346276
000030 35 8e 11 bd 9a 97 36 b9 dd 2f ae 3d e1 de 0d bd
       -0.03553601 -0.00017413349 0.08505223 -0.034636382
000040 e5 8f cf bd 6c 59 19 be a6 2c 93 3c 95 a6 17 be
       -0.101348676 -0.14975518 0.017965626 -0.1480964
000050 ce 7a 24 3e 2f 58 83 b7 9d 86 8f 3d 23 ef e6 39
       0.16062471 -1.565748e-05 0.07008097 0.0004404719
000060 fb b3 d5 bc 74 e8 40 ba 84 a8 49 bb 15 76 a9 3d
       -0.026086798 -0.0007358857 -0.003077061 0.082744755
000070 db fe 82 be 27 03 07 3d df d0 f3 3b 04 22 44 3d
       -0.25585064 0.03296199 0.007440671 0.047884002
000080 c8 b9 e1 3d 62 5b ad 3d 6d cd fa bd b3 97 2b be
       0.11021763 0.084646955 -0.12246213 -0.16757087
000090 b5 ca 49 bd 8e 6e a9 bd ac a4 37 3d 4b 62 f9 bc
       -0.049265582 -0.0827304 0.044834778 -0.030442378
