Pytorch_PINN/skew_symmetric_0.ckpt (torch, 23689 bytes, 9 tensors)

fc1.weight f4 [40, 2]
00000000: a235 f63e d1a8 8dbe 0570 13bf 6ccf 963e
00000010: 56f0 03bf 94a6 083f e9fd 333f d263 613d
00000020: 1767 773f 80a7 413e 9b08 cdbd 39ec 88be
00000030: 59f8 9ebe a0af 2d3e dec9 57bf cb0b fc3e
00000040: d835 cfbe ece0 813e 2390 253f 369d bfbe
00000050: 451f 183f 6d34 37bf 559d 693f 8279 053f
00000060: 0683 463e e7b7 43be 4359 143f 9f15 083e
00000070: d637 5bbf 0aa3 a9bd 432d 1fbf 48f8 f6be
00000080: 04c2 6b3d 7028 2e3f f0c0 7d3f 12a4 c63e
00000090: 06b2 a0be bbf6 023f ecf1 30bf 893d 99be
000000a0: f6d6 d83e b83e f6bd 5c73 15bf 932f acbf
000000b0: ed69 23bf 355a 973e 22b6 acbe 70d3 a93d
000000c0: 9d9e 45bf a596 a6be f160 703f 4e72 62be
000000d0: 8aeb fcbe 4824 323f 0769 bd3e 9d2b 8dbe
000000e0: 1c06 843f 98d1 7fbe caf1 88bf 602c b2be
000000f0: 0c91 c13e a0b0 4ebe 896e 47bf 6883 dfbe
00000100: 3de5 1e3f 382c 0c3f 097c 013f 96bc 843e
00000110: d0e1 cd3e c997 8bbe 6fce 3bbf ec35 3c3f
00000120: 721e 3d3e 8682 11bf 8509 18bf 687a f53d
00000130: e235 f2be ec98 dcbc fc8c 6c3f 49b0 4d3f
0.48087794 -0.2766786 -0.57592803 0.29455125 -0.515386 0.5337918 0.7030931 0.055026837
0.9664168 0.18911552 -0.10011407 -0.26742724 -0.3104885 0.16961527 -0.842924 0.49227747
-0.40470767 0.25366914 0.6467306 -0.3742463 0.59422714 -0.7156437 0.91255695 0.5213853
0.19385919 -0.19113122 0.579487 0.13289498 -0.85632074 -0.0828305 -0.6217844 -0.482363
0.057558075 0.6803045 0.99122524 0.3879705 -0.3138582 0.5115773 -0.69119143 -0.2992976
0.42351502 -0.120236814 -0.5837915 -1.3452018 -0.63833505 0.2956101 -0.33732706 0.08292282
-0.7719515 -0.32536808 0.9389792 -0.22113916 -0.49398452 0.6958661 0.36994192 -0.27572337
1.0314364 -0.24982297 -1.0698788 -0.3479948 0.37805974 -0.20184565 -0.7790304 -0.43654943
0.6206854 0.5475497 0.5057989 0.2592513 0.40211344 -0.2726424 -0.7336187 0.7351978
0.18468645 -0.5683979 -0.59389526 0.11986238 -0.47306734 -0.026928388 0.92402625 0.80347115

fc1.bias f4 [40]
00000000: 45ed d53e 3f6f fa3d 7210 183e 7ab5 e8be
00000010: b5f9 073f 2713 bbbd be77 ecbe 3776 1abf
00000020: c51e e9be 6edb 8b3e c880 8dbe 1724 053f
00000030: 0c06 9e3e 18a4 e1be 9caa 4e3e 3ac8 0f3f
00000040: 1793 5c3d 4b12 643e b675 1bbf c4cd a23d
00000050: 2e7d 033f 9c3e 67be 62ca 1b3e 221b e1be
00000060: 41dc 16be efb8 3ebe 00d1 903d 4465 ff3e
00000070: 5b5c 0fbf 9c79 98be 677f b33e 36e9 1e3f
00000080: 5878 11bf 2f47 30bf 8daa 0ebf 439b 113f
00000090: 5ce5 1c3f 4bd4 303f a5c7 d63e cb33 f33d
0.41782585 0.1222825 0.14850023 -0.45450956 0.531154 -0.091345124 -0.46185106 -0.6033663
-0.45531288 0.2731585 -0.27637315 0.52008194 0.30863988 -0.44070506 0.2018227 0.56164896
0.053851213 0.22272603 -0.6072649 0.07949403 0.51362884 -0.22582477 0.15213922 -0.43966013
-0.14732458 -0.18625234 0.070711136 0.49881947 -0.560003 -0.2978028 0.35058138 0.620746
-0.56824255 -0.6885862 -0.5572899 0.56877536 0.61287475 0.69073933 0.41949192 0.11875113

fc2.weight f4 [40, 40]
00000000: 9a5d 0fbe acfa a53e 38cc dd3c 5ce0 42be
00000010: d288 25be 7895 e03c 00a2 4d3e 0448 553e
00000020: 8815 e53d 108f 27bd 1e46 a03c 9c3a e33b
00000030: 1aa4 7fbd db0b 35be a577 c23e e039 323e
00000040: 217f 5cbc 7f67 4cbe 9e03 5f3d 7296 c33e
00000050: 3f1f 99bc 945a 463e 5703 973e dda8 cc3d
00000060: 45c6 ae3e 5a34 00bf d880 dc3d dd03 18bd
00000070: 954b 4abe b7e4 743e 04e9 eebd b5f5 643e
00000080: 1309 4abe dec1 223d f3d8 613d e8dc 0b3d
00000090: a72a e4bd fe06 cfbd 265f d53d 1037 8cbe
000000a0: 3182 a73d 1e38 d0bd 191c 4dbe 9c51 77bc
000000b0: 530b d33d 5cc8 28be 7ad9 63bc e769 953d
000000c0: 30a5 0bbd 74aa a83c 933c 603e f7cf 0abe
000000d0: 6953 debd 9eaf 633e e2ff efbd b66d 20be
000000e0: 0c2d 4f3d 887f 96bd 7012 093e 9702 3abe
000000f0: bfd2 cc3d 6533 4dbd 3188 a7bd 7f27 b1bc
00000100: 8aa6 00be 644a 803e 0d5b a1bd 30d6 293e
00000110: c694 523e 98be 053e 1449 f8bd f2ac 2abd
00000120: 569a fe3c 350c ee3d 2209 d8bd db89 47be
00000130: 19a1 7abc 3e62 d7bc 2554 d6bd 8dd8 b83d
00000140: 71c5 1dbe 98dd 993d ff6c 93bd 41fc a73d
00000150: b006 a43d 8e98 203e 12e3 313d 6495 ab3a
00000160: ebdf 0d3e aa2b 843c d649 26be b633 073e
00000170: 9b98 ebbd 4b2d 31bc e91e 15bd 3cf4 063e
00000180: 6edb 1d3d 8471 2fbe 7d3a 3c3e d696 a4bd
00000190: caf2 693d ebaf 8dbc 11a0 4b3d c7da 5dbc
000001a0: 30b7 803d 526d f5bc f483 533b c0ed bebd
000001b0: 355b bebd 612f ffbd 5f27 4bbd 13ef 0f3d
000001c0: f0ba 24be ef63 2abc ada8 293e ce15 20bd
000001d0: e615 a63c 485d 063e f195 ab3d 3e0f ccbc
000001e0: 1361 48bd eb66 6a3c 6fd6 c33d a1a7 05bd
000001f0: aae5 4d3d c9ac d7bd 67d2 0d3d a44e c63b
00000200: 001a e1bd 9da1 843c 30ed c63c 17a5 073e
00000210: 49da 0fbe 478c 003e bca9 18be 1e2c 3e3c
00000220: 3a8e 203d 529c b3bd 356d 2c3e 762f 093e
00000230: 3c51 3fbc 2eac 35bc d482 16bd b6b2 f4bd
00000240: 1792 cf3d 4813 38bd 0d66 223e 97be 063d
00000250: 13b5 6cbc 332a 52bd 2956 00be 759c 053c
00000260: 31c3 9bbd 79ea d23d 55a6 b0bc b99e 183e
00000270: b809 013b eac4 133e 2e67 bbbd d21e 0b3e
00000280: 466f 80bc c033 073e 205c 043e 73c0 ddbd
00000290: 8c94 1c3e 3437 033e 973e 123d 20ce d73d
000002a0: 870c 943d c034 cdbd 44e1 90bd 5de6 603a
000002b0: 6084 69bd c270 9c3c a1f7 953c 31a6 5e3e
000002c0: 26c4 97bd f5b4 bcbc 5255 b53d 7c8f 82bc
000002d0: 1e29 17be f4e9 24be 9d1e 473d d1f4 82bc
000002e0: 5a0e 98bd 4bfe 2abe 8891 063e 040a 96bd
000002f0: 10d9 82bd 93cd 503d be63 0ebe f106 453e
00000300: 29da aabc 38f6 10bd 922f 5cbd 90d6 323d
00000310: f438 203e 6f7f 503d 3a50 593e bcd0 11bc
00000320: 95e8 0ebe 9920 1b3f 7c4c 8e3e 4dc1 dbbe
00000330: a423 73bc 2d91 cabc 58ca 0c3e 8624 e4bd
00000340: 6741 9e3d e6dd 02be 7de3 debe 8274 d73c
00000350: 6dcd cd3d 88b8 debe 156d 1d3d 6661 923e
00000360: f4df 8ebd 135e cd3d c2e4 243d 0b24 3b3d
00000370: 9827 953d 5b84 c2bc 6e9e f43e 1380 913c
00000380: 9776 863d 4210 ccbe 3c86 e03e 4e7c 193d
00000390: da22 0abf 12e3 90bc 97dd 15be 5661 983e
000003a0: ec35 f5bd 5bd3 04be be60 38be f6a6 803e
000003b0: ea47 5abd 5cb1 8bbc d1c2 6e3e 982f 1dbe
000003c0: 69aa 25be 673e 483f c733 a23e 6cbb 5ebf
000003d0: cae8 0bbe 93a7 a33b be0f 38bb 1491 b83d
000003e0: c691 673a 21fc 603c ed41 f5be 682b ff3d
000003f0: a52e 8bbc 02b0 2fbf 2ecb 483e c03f bf3e
-0.1400055 0.3241781 0.027074918 -0.19030899 -0.16165474 0.027415022 0.2008133 0.20828253
0.111857474 -0.04090792 0.019564684 0.006934477 -0.06241236 -0.17680304 0.37981907 0.1740489
-0.013458044 -0.19961356 0.05444681 0.38200718 -0.018691657 0.1937049 0.29494736 0.099931456
0.34135643 -0.5007988 0.107667625 -0.03711306 -0.19755395 0.23915373 -0.11665538 0.22359355
-0.19730024 0.039735667 0.05513854 0.03414622 -0.11140948 -0.101087555 0.10418539 -0.2738576
0.08179129 -0.101669535 -0.2003025 -0.015095141 0.10304894 -0.16482681 -0.013906831 0.0729559
-0.034093082 0.02058909 0.21898107 -0.13555895 -0.10855753 0.22234961 -0.11718728 -0.15666851
0.05058007 -0.073485434 0.1338594 -0.1816505 0.10001134 -0.05009784 -0.08180273 -0.021625279
-0.1256353 0.25056756 -0.07878695 0.16585612 0.20564565 0.13060987 -0.121233135 -0.04166884
0.031079452 0.11623422 -0.10548617 -0.19486181 -0.015297198 -0.026291963 -0.10465268 0.09025679
-0.15407349 0.07512969 -0.07198524 0.082024105 0.08009088 0.15683195 0.04342944 0.0013090787
0.13854949 0.016134102 -0.16239104 0.1320332 -0.115037166 -0.010814021 -0.03640643 0.13179106
0.038539343 -0.17133147 0.18381687 -0.08036582 0.057116307 -0.017295798 0.049713198 -0.01354093
0.0628494 -0.029959355 0.0032274695 -0.09322691 -0.0929474 -0.12460209 -0.049598094 0.03514011
-0.16086936 -0.010399803 0.16568251 -0.039083295 0.020274114 0.13121521 0.083782084 -0.024909612
-0.048920702 0.014306764 0.09562384 -0.032630567 0.050267853 -0.10531003 0.034624483 0.006051855
-0.10991287 0.016190344 0.024283022 0.1324657 -0.14048113 0.12553512 -0.14908499 0.011607198
0.039198138 -0.0877005 0.16838534 0.13397011 -0.011677083 -0.011088414 -0.03674586 -0.11948149
0.10135286 -0.044940263 0.15859242 0.032896604 -0.014447468 -0.051309776 -0.12532867 0.008154978
-0.07605589 0.10298628 -0.021563688 0.14904298 0.001968963 0.14430586 -0.09150539 0.13585976
-0.01567806 0.13203335 0.12925768 -0.108277224 0.15291041 0.12814027 0.03570422 0.10537362
0.07228952 -0.10019827 -0.07074216 0.00085792487 -0.05701101 0.019096736 0.018306555 0.21743084
-0.07410459 -0.023035506 0.08854164 -0.01593756 -0.14761779 -0.16104871 0.04861318 -0.015985878
-0.07424612 -0.16698568 0.13141453 -0.07326129 -0.06389058 0.0509773 -0.13905236 0.19240929
-0.02085598 -0.035391062 -0.053756304 0.043661654 0.15646726 0.05090278 0.2122201 -0.008899864
-0.1395591 0.60596615 0.27792728 -0.42920914 -0.01484004 -0.024727428 0.13749063 -0.11139779
0.07727318 -0.1277996 -0.43532935 0.026300672 0.100489475 -0.4350016 0.038434107 0.28589934
-0.069763094 0.10027709 0.040257223 0.04568867 0.072829425 -0.023744753 0.47777122 0.017761266
0.06565588 -0.39856154 0.43852413 0.03747206 -0.5395943 -0.0176864 -0.14635311 0.2976176
-0.119731754 -0.1297125 -0.18005654 0.2512738 -0.05329124 -0.017052345 0.23316504 -0.15350187
-0.16178288 0.7822022 0.31680128 -0.87004733 -0.1366302 0.0049943416 -0.0028085555 0.090120465
0.00088336726 0.013731987 -0.4790186 0.12459451 -0.016990015 -0.6862794 0.19608757 0.37353325

fc2.bias f4 [40]
00000000: 6a75 24be 5c43 113e 6611 e73d d123 b8bd
00000010: 4f2e a9bd 3335 1f3e b320 0a3e 8bb7 a9bd
00000020: 0a1e 843d 5b08 46bc fa57 10bd 7904 303b
00000030: 2f18 f93c e84d 2ebe b33d 81bd 0b8a 9fbd
00000040: ef66 dcbd aa6c dfbc f06a 313d 6051 f43d
00000050: 1bdf bc3d a592 e03d 9e70 01bc a67e e6bb
00000060: 2a82 1e3e 0af9 033d ec64 ecbd 46f5 9fbd
00000070: bb06 1d3d 5c1c b6bd ccc7 373e dae4 11be
00000080: 0800 ac3d e02a 1c3e 24af edbb 0680 7cbd
00000090: 533f 41bd efc1 a33b c283 e3bd b2bd ae3d
-0.16060415 0.14185852 0.11282615 -0.089912064 -0.08260786 0.15547638 0.13489036 -0.08286961
0.06451042 -0.012086953 -0.03524015 0.0026858135 0.03040704 -0.17021906 -0.06310596 -0.077900015
-0.107618205 -0.027273495 0.043314874 0.119295835 0.092222415 0.1096547 -0.007900385 -0.0070341406
0.15479341 0.032219924 -0.11542687 -0.07810454 0.038336497 -0.08892128 0.1794731 -0.14247456
0.083984435 0.1525073 -0.0072535444 -0.06164553 -0.04717953 0.004997484 -0.11109115 0.08532275

fc3.weight f4 [40, 40]
00000000: 4d5d 5abe deea 0bbc 9e85 0ebe ac7f 11be
00000010: 8a75 cebd 6643 dfbb 9350 c73d fde8 68bc
00000020: 37b4 f53d 617a e03d ea16 18be 29e4 ff3d
00000030: a642 3b3d 5d82 233e 6dc8 50bd 4460 2dbd
00000040: 7af1 a2bd 346e 16be 0254 76bd af35 3cbe
00000050: c48c 5a3d e99e 943d 084e 1bbe f97c dcbd
00000060: 0627 1cbe 4966 953b ef18 ab3c fdd5 783d
00000070: 546a 3d3d 4660 ed3d 420c 4a3d e8cc 783d
00000080: 1eff c2bd ef3c 3abd d5a8 96bd c4c0 d63d
00000090: 0e6c 233d 06fc e7bd d5d9 5a3d 9f1a 233d
000000a0: 19c4 2bbd cd6b a3bd e72b bfbc 7810 2fbd
000000b0: e18b 11be 0eeb 203e b0bc 763e 85b2 443e
000000c0: 2c62 abbd 4a05 303e a9da 923d b6d0 ba3c
000000d0: 19cb 6cbc 1589 18be 5aa9 923d b282 293e
000000e0: 733b 2abe c48f 83bd 4175 e63d 8882 a2be
000000f0: baa8 bcbd 123a 163c 17a2 d63d d662 c3bd
00000100: 7210 c6bd 1437 663e e929 2a3e 876f debd
00000110: dd67 0f3e 012c 253e 8039 b23d e229 c5bd
00000120: c1d6 71bc 1113 463e 5bdb 2fbc fd62 113e
00000130: 3fde b0bd 999d 443e 3df0 15be 5dc8 943b
00000140: 120f 0e3e 05be 21be 9b64 e5bd 05c7 e43d
00000150: 7c67 333e d085 20bd 36a1 3b3e c33a 9a3d
00000160: c248 9bbd 9cdd 183e 4ad4 f0bd ed20 413e
00000170: 438a ee3d 73b2 06bd 8fed 98bd 1e96 ac3d
00000180: deb8 eabd 98ec f33d 8376 60ba 933d ccbd
00000190: 299e a23d 39ca 3a3d 168c 77bd a301 e73c
000001a0: 67d8 41bd 44a4 93bd c72d 4cbb 20b9 9dba
000001b0: 290a 28be e82d e53d 3f57 203e b2dd ebbd
000001c0: 931c 283d a6a5 aabc f018 69be 0103 0a3e
000001d0: ff82 36bc 96c7 c53d 1224 bfbc 0e2b 94bd
000001e0: 785b 94be 7f98 023e 95d0 03be ea32 4abd
000001f0: 4101 98bd dfdd 03be 7ec6 01be 2b6d 6c3d
00000200: 63c5 a2bd 53e6 77bd 140d 5f3d 23a3 30be
00000210: 30ac 013e 4598 343e 7ae3 d63c 81c1 733d
00000220: 236e cbbc 76f7 5ebd 84e2 ffbd a918 d6bd
00000230: d474 e1bc a6d9 413e f13d f63d f2c9 86bd
00000240: e335 853d e7c1 be3d 5eda 28be 4879 3f3d
00000250: 43ef cdbd 486c b9bd b54c ef3c 869b 86bb
00000260: 3e4a 3fbe 7635 19be c825 5d3d df8f a1bd
00000270: da95 33bd 1f9a 923d a752 143e 76a0 e03c
00000280: 074a 823d cd94 07be 0ae0 a1bd ddfe 1a3c
00000290: af14 06be b6e5 a03d f4f5 e63d 0ca3 42bd
000002a0: 31ce c93d cbe8 413d 5bf1 94bd 1706 cbbd
000002b0: c55b 6fbd 2642 02be d028 353e 05eb ca3d
000002c0: 3872 65bc 45b1 f9bd 050d abbd 1434 1a3c
000002d0: 29b9 06be 5d9f 8bbc 3e2e d0bd 6e28 1fbe
000002e0: 1600 2b3d d562 23be 72a3 023d 81d9 e6bd
000002f0: 9a17 1c3d d16d 043e c3a3 3fbd 549e a43d
00000300: 0be1 a9bd adeb 0e3e a636 0abd 16d1 a63a
00000310: 420a 2ebe 4cff 433d 16af 073d a7c3 913c
00000320: ddfa ca3d 0c5f bf3d 0818 6d3c b314 84bc
00000330: 342d 1e3e 57d0 b93d 39d2 a43d f436 86bd
00000340: 9f8a 823d 47cd 183e 7426 263d e658 8f3d
00000350: b4bc d53a d3a2 77bd 2d7e e63d a8d4 b43d
00000360: ab2e d43d 7b3a 98bc b56c ccbb fd28 e53d
00000370: 1ceb 913d 2fcf 46bd 75be 923d ac28 3dbe
00000380: 42ae acbd 0255 67bc 6518 3d3e 0ff2 b33d
00000390: 5323 57bc 5d99 9dbd 1a9d 5b3e 86a7 ee3d
000003a0: fa4e 7cbd fcce 32be 6c25 163e 8f60 283e
000003b0: 8573 41bd bc87 fdbc 07a1 063d b84e ae3d
000003c0: 9d52 52be 5b82 8ebd ca50 8d3d b011 07be
000003d0: c66b c43d 1ac6 5fbd 30d0 393d 0736 f53b
000003e0: bfc7 8cbc c60f 21bd 748b 08be 9535 cf3d
000003f0: f88f 393c 4f29 1f3e f445 c63d 132a 0f3e
-0.21324654 -0.008539883 -0.13918158 -0.14208859 -0.100810125 -0.0068134544 0.09732165 -0.014215705
0.11997264 0.10960842 -0.14852491 0.1249469 0.045717858 0.15967698 -0.05097239 -0.042328134
-0.07956214 -0.14690477 -0.06013871 -0.18379854 0.0533569 0.07256872 -0.15166485 -0.10766024
-0.15249261 0.0045593125 0.020885913 0.06075095 0.04624398 0.11590628 0.049328096 0.06074229
-0.09521316 -0.045468267 -0.07356421 0.10485986 0.03989797 -0.113273665 0.053430397 0.03982031
-0.04193506 -0.07979546 -0.023336364 -0.042740315 -0.14213516 0.15714666 0.24095416 0.19208725
-0.08368334 0.17189518 0.07170612 0.0228046 -0.014452719 -0.14896043 0.071612075 0.16553763
-0.1662424 -0.064239055 0.11252833 -0.31740212 -0.092118695 0.0091691185 0.10480135 -0.09540336
-0.096711054 0.22481948 0.1661755 -0.10861116 0.14004464 0.16130067 0.087023735 -0.09627129
-0.014760674 0.19343211 -0.010733451 0.14197917 -0.0863614 0.19200744 -0.14642425 0.0045404867
0.13872936 -0.15795143 -0.112008296 0.111707725 0.17519945 -0.039190114 0.18323216 0.07530739
-0.07582237 0.14928287 -0.11759241 0.18860216 0.11647465 -0.032885026 -0.07467186 0.0842707
-0.11461042 0.11910361 -0.00085625815 -0.09972682 0.07940323 0.04560301 -0.06043633 0.028199023
-0.047325518 -0.072090656 -0.0031155215 -0.0012033321 -0.16410126 0.111903965 0.15658282 -0.115168944
0.041042875 -0.02083094 -0.22763419 0.13477708 -0.01113963 0.096572086 -0.02333263 -0.072347745
-0.28976035 0.12753485 -0.12872536 -0.04936496 -0.07422114 -0.12877606 -0.12673375 0.0577213
-0.07947805 -0.06052239 0.05445583 -0.17249732 0.1266334 0.17636211 0.026231516 0.05951071
-0.02483279 -0.054435216 -0.12494376 -0.10453922 -0.027521528 0.18930683 0.12023533 -0.06581487
0.06504419 0.09314328 -0.1648955 0.046746522 -0.10055401 -0.09053856 0.029211381 -0.0041078953
-0.18680665 -0.149618 0.05399111 -0.07888769 -0.04384408 0.071583025 0.14484654 0.027420264
0.06361776 -0.13240357 -0.0790406 0.009460178 -0.13093828 0.07856314 0.112773806 -0.047518775
0.09853781 0.04734115 -0.072725974 -0.09913271 -0.058437128 -0.12720546 0.1769135 0.09908108
-0.014004283 -0.121920146 -0.08352093 0.00941183 -0.1315657 -0.017043764 -0.1016507 -0.15542766
0.04174813 -0.1595567 0.031894155 -0.11271954 0.038108446 0.12932517 -0.046787035 0.08038011
-0.08294877 0.1395709 -0.033743523 0.0012727107 -0.169961 0.047850892 0.03312596 0.01779349
0.099111296 0.09344301 0.0144710615 -0.016123151 0.15446931 0.09072941 0.08047909 -0.0655345
0.06374096 0.14922057 0.040564016 0.06999378 0.0016306848 -0.060458016 0.11254535 0.088296235
0.10360464 -0.018582573 -0.006238545 0.111894585 0.07124922 -0.04853743 0.07165233 -0.18472546
-0.084316745 -0.014119389 0.18466337 0.087864034 -0.013130981 -0.07695267 0.21446648 0.11653046
-0.061598755 -0.17461771 0.14662713 0.16443084 -0.04722931 -0.030948512 0.03286841 0.08511108
-0.20539327 -0.06958457 0.06900175 -0.13190341 0.09590869 -0.054632284 0.04536456 0.007483247
-0.01718509 -0.039321683 -0.13334447 0.10117642 0.011325829 0.15543102 0.09681311 0.13980894

fc3.bias f4 [40]
00000000: 46f3 3bbe 7f1b 21be 75dd dc3c bdc3 fcbd
00000010: 6cac 573d d4cc 773c 043f d4bd 4b99 303d
00000020: 60b3 273e a212 203d ade0 02be 09ac 9fbc
00000030: a82b 053d 1cce f23d 6d52 3fbc 287c 88bd
00000040: ad36 66bd fabb efbd a65b 07bd b969 0f3e
00000050: 2993 32be ebd9 0c3d 4dec a4bd 8ad3 50bd
00000060: 9dc4 933b c98b 083d 0201 b53d 2a65 16b9
00000070: 5257 cb3d 3da6 2dbc c246 2bbe 2a68 d4bc
00000080: 3b08 1cbe 0654 a53c 4894 e03c 5e3a 163e
00000090: 9704 5e3a 20e9 ed3d 9934 bebd d1ef 173e
-0.1835452 -0.15733145 0.026961068 -0.123420216 0.05265467 0.015124518 -0.10363582 0.04311494
0.1637702 0.03908027 -0.1278102 -0.019491212 0.032512337 0.118557185 -0.011677367 -0.06664306
-0.056204487 -0.117057756 -0.033046387 0.14005174 -0.1743895 0.03438751 -0.08052883 -0.05098299
0.004509522 0.033336435 0.08838083 -0.00014342801 0.099287644 -0.010598716 -0.1672621 -0.025928576
-0.15237515 0.020181667 0.027414456 0.14670703 0.0008469312 0.11616731 -0.09287376 0.14837576

fc4.weight f4 [40, 40]
00000000: 9a43 79bb aaa2 043d 68ef 013d 8842 fbbd
00000010: 0cda 05be 3b8e 9cbc c997 b63c 7251 523d
00000020: 651c a0bc df90 c8bd 9a3f a6bd e259 2f3d
00000030: 2e87 2b3b b047 71bd be9f 40bc 2b0e e23d
00000040: 9d95 babc a915 b7bd a712 4fbd a97d dabd
00000050: 0553 843d 4bc6 a7bd 5b4b ab3d 8c82 da3d
00000060: 2647 023d a7d2 5cbc b6a3 31bc 013d e6bd
00000070: 6bfc 14be 876d bc3d 698e 44be 4a4e f1bc
00000080: ab97 f8bd b3e9 a63d 823d b33d eb61 b43c
00000090: b803 01be 73de a63d 2029 343e a050 c8bc
000000a0: 2c2f 0e3e 572a 403e c781 a3bc 0755 97bc
000000b0: 3024 d03d 6ee3 b0bd 03ee 063e 6d94 7ebc
000000c0: 415b 01be 8939 d83c d855 733d c782 7b3c
000000d0: c035 0d3e ff34 30bc 426c dbbd 7b48 eebd
000000e0: dd94 06be b4d5 af3d 4269 1ebd 2cfb e6bc
000000f0: 8284 f63d 17d7 10bd 7b77 343e a733 9cbd
00000100: 664f 62bd d4cd 79bd 8f2e f2bd 4d4d 893d
00000110: a534 df3b 0133 a63d 2ffe f6bd 7683 a2bd
00000120: ec96 683c 86eb ed3d 4356 8e3d ff50 1fbe
00000130: 03ca 18be c4a4 023b c49f c0bc 3755 3ebe
00000140: 2908 50bd 7a9e a8bd b401 46be 1221 85bd
00000150: fb66 fdbd 814d 363c b489 a2bd c013 dcbd
00000160: e597 15bd 20de dfbd cb63 b93c 9d33 05bd
00000170: 9659 00be 8999 863d 4d82 9fbc 77bd c5bb
00000180: cd4e b33d 9774 0abd 2a9a c6bd d935 e7bd
00000190: 8279 193e 455b 80bd c33e 853d 2cca 69bc
000001a0: 6424 04be 547d 5d3d 01c4 1abe bf3d f93d
000001b0: d2bc f4bd 0cdc ea3d af60 143e a4cb 8cbd
000001c0: 332f 113d 1df1 8abd a1a8 5f3d dd0e ce3d
000001d0: 1880 e0bd 1f4c f6bd 5a49 0fbe 8108 ad3d
000001e0: 1871 12ba 53ba f13c 61e7 8cbc e1e8 2dbd
000001f0: 40fb c03d 627b 5fba 6000 97bd 75b5 103e
00000200: b270 90bd 45e3 b83d 3b1b b8bd daef 373d
00000210: 63b3 02be a249 743d 9884 853c e13f 0dbe
00000220: 06c8 a6bd 0c5c 3a3e 1fed 88bd ab4e a73d
00000230: 0598 ccbd 718f 03bd 84de f73d 35d6 8bbd
00000240: ec15 94bd a52d 2d3e e065 c03d a309 d3bd
00000250: 64cc 1ebd 4993 7b3d 3c46 993a b0ee eabd
00000260: dd77 07bd 6ade 2b3e ab76 b5bc cc9e 59bd
00000270: 920d 9bbd 5552 b9bc ffa5 cfbd 0c48 20bc
00000280: b87d 0e3e 463c a6bd f660 b53c 168a 383e
00000290: 0021 ab3d 9cd7 303e d414 933d 7381 39bd
000002a0: ff23 20be 231b 66be f6cf 60bc cdc1 0dbe
000002b0: 4050 b7bc e542 8fbd 381f 4f3c 69e3 1cbc
000002c0: 2945 0abe 67cb e03c 78b1 8d3c 6519 8d3d
000002d0: 9ccc 42bd ddb2 023e d2f7 6fbd ed8b d03b
000002e0: 7700 0fbd fddf c0bd 45f3 573c fd60 d5bc
000002f0: ecd4 263e a7ba ccbd da04 e63d 48bd c33c
00000300: 7a69 073e e7ef afbc 5bbe 993c ab60 243d
00000310: 3f67 75bd de1c 343d f03c ed3d 4533 02be
00000320: 326d ae3d 1e78 dabd 44f0 b03c 3bdf a6bc
00000330: 988c a4bd 621a 06be 098d a0bd d402 abbd
00000340: 7ae8 b93d 6485 26bb 8a60 0a3d 3e69 263e
00000350: 5ce3 3ebd 7680 e23c 0c42 d83d e7b1 e63d
00000360: 7b66 02bd 4c18 933d af95 7e3c 4b9a e2bd
00000370: 7605 a53c df55 8cbd 4fdc f1bd d8bc 823d
00000380: 4541 173e c7fd 5dbd abe7 e93d 1d08 083d
00000390: 6171 d1bd 1bcb 093e 7606 df3d d1e3 91bd
000003a0: 30f9 b2ba b78a 72bd d846 273c bc76 8f3d
000003b0: 4bca b63d 1c7d 08be 9f46 b53c ec79 8dbd
000003c0: dd65 f2bd 9df6 f43d 2d79 d6bd 910c 82bd
000003d0: aafe 0b3e be32 0abe aca1 2dbe 04b6 67bd
000003e0: 2054 73bc 4e43 103d 0c15 153e de48 653d
000003f0: 5863 e8bd 3ed2 87bc 2638 233d a19c ccbc
-0.0038034678 0.03238169 0.031722456 -0.12268549 -0.1307146 -0.01911079 0.022289174 0.051347204
-0.01954479 -0.09793257 -0.081176 0.04281033 0.0026173103 -0.058906257 -0.0117568355 0.110378586
-0.02277642 -0.08939678 -0.050554898 -0.10668499 0.06461147 -0.08192118 0.08363982 0.10669431
0.031806134 -0.013477958 -0.010842254 -0.11242104 -0.14549415 0.09200578 -0.1919495 -0.029456276
-0.12138303 0.08150043 0.08751966 0.022019347 -0.12599075 0.081478976 0.17593813 -0.024452507
0.13885182 0.18766151 -0.019959344 -0.018473161 0.10163152 -0.08637129 0.13176732 -0.015538317
-0.12632467 0.026394622 0.05940804 0.015351004 0.13790035 -0.010754823 -0.10714008 -0.11634918
-0.13142724 0.085856825 -0.0386746 -0.02819594 0.120369926 -0.035361376 0.17623703 -0.076270394
-0.0552515 -0.06098731 -0.118252866 0.06704197 0.0068116956 0.08115197 -0.120602004 -0.079352304
0.014196139 0.11617188 0.06950047 -0.15558241 -0.14920811 0.0019934634 -0.023513682 -0.18587194
-0.050789032 -0.08233352 -0.19336587 -0.06500448 -0.123731576 0.011126877 -0.07936421 -0.107459545
-0.03652181 -0.10931039 0.022630593 -0.032519925 -0.12534174 0.06572253 -0.019471312 -0.006034549
0.087552644 -0.033802595 -0.09697373 -0.112895675 0.14987758 -0.06267408 0.065061115 -0.014269393
-0.12904507 0.0540746 -0.15113832 0.1216998 -0.11950077 0.11467752 0.14490007 -0.06874779
0.035445403 -0.0678427 0.054604176 0.10061429 -0.10961932 -0.12026238 -0.13992825 0.084488876
-0.000558631 0.029507792 -0.017200174 -0.04245842 0.09422922 -0.00085251604 -0.073731184 0.1413172
-0.07052745 0.09027723 -0.08989569 0.044906475 -0.12763743 0.059640534 0.016298577 -0.13793899
-0.0814362 0.18199176 -0.06685852 0.081693016 -0.09989933 -0.03211922 0.12102988 -0.06827966
-0.07230744 0.16911943 0.09394431 -0.103045724 -0.03876914 0.06141976 0.0011693905 -0.11471307
-0.033073295 0.16784063 -0.022151312 -0.053129956 -0.07570948 -0.022622267 -0.10139083 -0.009782802
0.13915145 -0.08116965 0.022140961 0.18021426 0.083559036 0.17269748 0.07181707 -0.045289468
-0.15638731 -0.2247129 -0.013721457 -0.1384346 -0.022377133 -0.06995181 0.0126417205 -0.009575703
-0.13502945 0.02744074 0.017296538 0.06889609 -0.047558412 0.12763543 -0.05858595 0.0063643367
-0.034912553 -0.094177224 0.013180559 -0.026047224 0.16292161 -0.099965386 0.11231394 0.023893967
0.1322383 -0.021476699 0.018767526 0.040131252 -0.059912916 0.043972842 0.115838885 -0.1271487
0.08516921 -0.10667442 0.021598943 -0.020370116 -0.08034629 -0.13096002 -0.078394 -0.08350149
0.090775445 -0.0025409097 0.033783473 0.16251084 -0.046603546 0.027649146 0.105594724 0.11264401
-0.031836014 0.07182369 0.015538617 -0.11064585 0.020144206 -0.06852316 -0.11809599 0.06383675
0.14770992 -0.0541971 0.1142114 0.033210862 -0.102267034 0.13456385 0.10889904 -0.07123531
-0.0013654586 -0.05921432 0.010209762 0.07005069 0.08925303 -0.13328975 0.022128401 -0.069080204
-0.11835835 0.119611 -0.10472331 -0.06350053 0.13671365 -0.13495919 -0.16956204 -0.056570068
-0.0148516 0.035220437 0.1455881 0.055977695 -0.11347073 -0.016579743 0.03984847 -0.02497703

fc4.bias f4 [40]
00000000: 006a 033e 0595 dfbd 7e7b 10be c55d 04be
00000010: f287 75bd d4a3 003e 8962 c53d 3902 8fbd
00000020: f86f 90bd b3db 55bd 2e41 72bd 10e7 69bd
00000030: b192 06be 400f be3c 920e 9dbc 8d23 11bd
00000040: 8737 9c3d 4dc0 303e d018 81bc d1a2 34bd
00000050: 15f3 af3d dabe 783d 552e 6a3c 2733 ddbc
00000060: c987 b73d bc46 d23d 8723 b63d 287a bdbc
00000070: 67e4 1b3e f35c 96bd d884 eb3d 466d 2dba
00000080: 1416 f83c ed62 073e 785c f53d c964 fdbc
00000090: b80f edbd 9777 b73d 43c0 293e 884a d3bd
0.12833405 -0.10917095 -0.14109609 -0.12926395 -0.0599441 0.12562495 0.09637935 -0.06982846
-0.07052606 -0.052211475 -0.05914419 -0.057105124 -0.13141896 0.023200631 -0.019171987 -0.035434294
0.076277785 0.17260857 -0.015758902 -0.044100586 0.08591286 0.060728885 0.014293273 -0.02700193
0.08961446 0.10267398 0.08893495 -0.023129538 0.15223847 -0.073419474 0.11499947 -0.0006615709
0.030283965 0.13221331 0.11980528 -0.030931847 -0.11575264 0.08958357 0.16577248 -0.1031695

fc5.weight f4 [1, 40]
00000000: 32c6 4cbd fced 173e 5e2d 113d 7e99 1abd
00000010: d0c7 2d3e 8325 1c3d ef91 7138 a47b 103c
00000020: 2834 8abd a00c 82bc 69ee 8239 1ed0 e5bd
00000030: fd41 ce3c 9d55 23b9 18d8 aa3d 6efa 02bd
00000040: e1bb 4ebc 6ad7 88bd 0f7a babd 9f80 fdbd
00000050: 5a78 123e ae90 a43c 2bc1 38be 59fa 023b
00000060: 8054 24be 55a2 e03c f759 2ebb dc9b b7bd
00000070: f817 ea3d ae7b 153d f0f3 27bc d01f 813a
00000080: 4db0 373d 74b0 08bc fa03 0f3e 0882 313e
00000090: 2475 56bc b2c9 2dbd 3e79 1eba 29fd 2abd
-0.0499937 0.14836878 0.035443656 -0.037744038 0.16970754 0.03812171 5.759479e-05 0.008818541
-0.06748229 -0.01587516 0.00024973162 -0.11221336 0.02517795 -0.00015576785 0.08341998 -0.03197711
-0.012618036 -0.06681712 -0.09105312 -0.12378048 0.14303723 0.02008852 -0.18042438 0.0019985645
-0.16047859 0.027421156 -0.0026603916 -0.08965275 0.11430353 0.036494903 -0.01025103 0.00098514
0.044845868 -0.008342851 0.1396636 0.17334759 -0.013089452 -0.04242868 -0.0006045288 -0.04174534
