Pytorch_PINN/skew_symmetric_0.ckpt (torch, 23689 bytes, 9 tensors)

fc1.weight f4 [40, 2]
0	0x3efa528e	0.4889111
1	0xbe8ddf13	-0.27709255
2	0xbf15f16d	-0.5857151
3	0x3e942f05	0.28942123
4	0xbf079a4a	-0.529698
5	0x3f151419	0.5823379
6	0x3f371deb	0.71530026
7	0x3db8a7ab	0.09016355
8	0x3f75e9c5	0.9605983
9	0x3df86fb3	0.1213068
10	0xbdb46455	-0.08808199
11	0xbebd3165	-0.36951748
12	0xbe9a640b	-0.30154452
13	0x3e59a8dd	0.21255822
14	0xbf57a68d	-0.8423851
15	0x3f05a8f1	0.5221091
16	0xbeaf7276	-0.34267014
17	0x3eb191e2	0.34681612
18	0x3f279690	0.65464115
19	0xbebd5e8b	-0.36986193
20	0x3f1c8629	0.6114221
21	0xbf49dcd3	-0.78852576
22	0x3f5018eb	0.8128802
23	0x3e80f12b	0.25183997
24	0x3e21443d	0.15748687
25	0xbe491479	-0.19636716
26	0x3f177360	0.59160423
27	0x3e25dbce	0.1619713
28	0xbf5bb52c	-0.8582332
29	0xbdd27f4f	-0.102781884
30	0xbf22c1fc	-0.63577247
31	0xbefd17b1	-0.49432138
32	0x3d43d2fc	0.047808632
33	0x3f659aa6	0.896891
34	0x3f7c4e43	0.9855692
35	0x3ed2924f	0.4112725
36	0xbe5fc0cf	-0.21850894
37	0x3f1f0589	0.6211782
38	0xbf2fa475	-0.68610317
39	0xbeaf1eae	-0.34203094
40	0x3ed3d131	0.41370538
41	0xbde29f5f	-0.11065554
42	0xbf00d571	-0.50325686
43	0xbfe3b986	-1.7790992
44	0xbf2868f7	-0.65785164
45	0x3e9814a2	0.29703242
46	0xbea50422	-0.32229716
47	0x3ddf1dca	0.10894354
48	0xbf44d4b8	-0.76887083
49	0xbebc0a98	-0.36726832
50	0x3f737a93	0.9510891
51	0xbe6bca3a	-0.23026362
52	0xbf021fe8	-0.50829935
53	0x3f3db50e	0.7410439
54	0x3e9c1f27	0.30492517
55	0xbeb0d906	-0.34540576
56	0x3f8526db	1.0402483
57	0xbe708956	-0.2348989
58	0xbf8df49d	-1.1090275
59	0xbea4e1b7	-0.32203457
60	0x3ebfdc9d	0.37473002
61	0xbe40d2a3	-0.18830352
62	0xbf4b1f9d	-0.79345113
63	0xbeea1ad0	-0.4572358
64	0x3f2045ef	0.6260671
65	0x3f173e95	0.5907987
66	0x3f0698fb	0.5257718
67	0x3e8eae77	0.2786748
68	0x3ed14672	0.40874058
69	0xbe66a0d4	-0.22522289
70	0xbf4200d3	-0.7578251
71	0x3f337cdf	0.70112413
72	0x3d76ec89	0.06028417
73	0xbf215bea	-0.63030875
74	0xbf1d7d5e	-0.6151942
75	0x3dc61686	0.09672265
76	0xbefcb704	-0.4935838
77	0xbd7d6db7	-0.06187221
78	0x3f6da642	0.92831814
79	0x3f747517	0.95491165

fc1.bias f4 [40]
0	0x3ec8be04	0.3920747
1	0x3e0303ff	0.12794493
2	0x3e1af481	0.15132333
3	0xbeec0b90	-0.4610257
4	0x3f00e787	0.5035328
5	0xbd518f51	-0.051162068
6	0xbedd43cd	-0.4321579
7	0xbf1429e4	-0.5787642
8	0xbecc9e0e	-0.39964336
9	0x3e825e15	0.25462404
10	0xbe8b271d	-0.2717828
11	0x3efe7a14	0.49702513
12	0x3e86870a	0.26274902
13	0xbee50f60	-0.44738293
14	0x3e5c1fa1	0.2149644
15	0x3f112a85	0.56705505
16	0x3cf75b8b	0.030195018
17	0x3e51df51	0.20495345
18	0xbf111ddd	-0.5668619
19	0x3dcbba89	0.09947688
20	0x3ef35e77	0.47533008
21	0xbdca0170	-0.098635554
22	0x3e1c466a	0.15261236
23	0xbecbae38	-0.39781356
24	0xbdf9c5f8	-0.12195963
25	0xbe46007e	-0.19336125
26	0x3d989a67	0.07451325
27	0x3ed82949	0.42218998
28	0xbf0fc19a	-0.5615479
29	0xbe8ec697	-0.27885887
30	0x3ea593e3	0.3233939
31	0x3f20bb2e	0.62785614
32	0xbf140891	-0.5782557
33	0xbf30196f	-0.6878881
34	0xbf0f3985	-0.5594714
35	0x3f0f9fb8	0.56103086
36	0x3f0c22ce	0.5474061
37	0x3f2e6aa2	0.6813146
38	0x3ed7bf40	0.421381
39	0x3da4702b	0.08029207

fc2.weight f4 [40, 40]
0	0xbe166f34	-0.14690858
1	0x3ebf1ba6	0.37325782
2	0x3d7ed9f4	0.062219575
3	0xbe5503ad	-0.20802183
4	0xbe30ac49	-0.17253222
5	0x3d2393c6	0.03993585
6	0x3e4fd464	0.20295864
7	0x3e59d84e	0.2127392
8	0x3deb8baf	0.11501252
9	0xbd6ff57d	-0.058583725
10	0xbc154059	-0.00910958
11	0x3a93c6b4	0.0011274428
12	0xbd868f5a	-0.06570311
13	0xbe44c7a7	-0.19216786
14	0x3edc4ba3	0.43026456
15	0x3e42c74e	0.19021341
16	0xbcdb90fe	-0.026802536
17	0xbe6ed2da	-0.23322621
18	0x3d50c6b4	0.050970748
19	0x3ef9ce64	0.48790276
20	0xbcbc3d77	-0.022978527
21	0x3e563f49	0.20922579
22	0x3eb37626	0.35051078
23	0x3dd584d7	0.10425728
24	0x3ec4c240	0.3842945
25	0xbf0e9e97	-0.5571074
26	0x3e2395c4	0.159751
27	0xbd25611b	-0.04037581
28	0xbe5f33bf	-0.21797083
29	0x3e88a930	0.2669158
30	0xbdfcc465	-0.12342147
31	0x3e75e18a	0.24011818
32	0xbe5a89eb	-0.21341674
33	0x3cfede74	0.031111933
34	0x3d3c6e77	0.046003785
35	0x3d5ed038	0.05439779
36	0xbdd9f1d1	-0.10641826
37	0xbdb9d65c	-0.09074089
38	0x3df244c3	0.118295215
39	0xbea9a1f3	-0.3313137
40	0x3d974a4a	0.073872164
41	0xbdf79d09	-0.12090499
42	0xbe5c3144	-0.21503168
43	0x3d195c59	0.037441585
44	0x3dc1e37f	0.094672196
45	0xbe2215ac	-0.1582858
46	0xbb45f83e	-0.0030207778
47	0x3da02e73	0.078213595
48	0xbccb8fe3	-0.024848884
49	0x3c8ea5ff	0.017413137
50	0x3e6b92bb	0.23005192
51	0xbe1030cd	-0.14081116
52	0xbdec2119	-0.115297504
53	0x3e877acc	0.26460874
54	0xbe08c17d	-0.1335506
55	0xbe46c8af	-0.19412492
56	0x3d62869f	0.055304166
57	0xbd9e2026	-0.077209756
58	0x3e12210c	0.14270419
59	0xbe40b79e	-0.18820044
60	0x3db90d6e	0.09035765
61	0xbd4bc910	-0.049752295
62	0xbde69f2d	-0.11260829
63	0xbc3d5707	-0.0115563935
64	0xbdfcb410	-0.12339032
65	0x3e8ba370	0.2727313
66	0xbdb65bd6	-0.08904235
67	0x3e234961	0.1594596
68	0x3e7ecd3c	0.24882978
69	0x3e0b1e24	0.13585716
70	0xbe057714	-0.13033706
71	0xbdabdc65	-0.08391646
72	0x3d72b3e3	0.059253585
73	0x3e105958	0.14096582
74	0xbdbe6fb3	-0.09298649
75	0xbe5206e5	-0.20510443
76	0xbcd6db73	-0.026227688
77	0xbd3be13e	-0.045869105
78	0xbe08216a	-0.13293996
79	0x3db6a7b2	0.08918704
80	0xbe1988f1	-0.14993645
81	0x3da10bc1	0.0786357
82	0xbd78a2b3	-0.060702037
83	0x3d9d345d	0.07676003
84	0x3dadd8a0	0.084885836
85	0x3e165219	0.14679755
86	0x3d1cb4af	0.03825825
87	0xba875cf8	-0.001032739
88	0x3e08f8f0	0.13376212
89	0x3c967cb2	0.018370006
90	0xbe2f5ae8	-0.17124522
91	0x3e0982f4	0.13428861
92	0xbde5fb4c	-0.11229572
93	0xbc7d281b	-0.015451456
94	0xbd1a37fe	-0.037651055
95	0x3e08e4e0	0.13368559
96	0x3d26e64d	0.040746976
97	0xbe2c4983	-0.16824917
98	0x3e3ae09d	0.18249746
99	0xbdaeee64	-0.08541563
100	0x3d80455e	0.06263231
101	0xbc8001fb	-0.015625944
102	0x3d69666b	0.05698244
103	0xbc9fbe07	-0.019499792
104	0x3d6f6bc8	0.058452398
105	0xbd10da9c	-0.035364732
106	0x3c9bb261	0.019005956
107	0xbdb979f8	-0.09056467
108	0xbdcd7299	-0.100316234
109	0xbe032a8e	-0.12809202
110	0xbd378a03	-0.044809353
111	0x3d1e414a	0.038636483
112	0xbe2392ab	-0.15973918
113	0xbc6e3ef1	-0.014541374
114	0x3e251396	0.16120753
115	0xbd119d74	-0.03555055
116	0x3ca5a977	0.020222409
117	0x3e0c8235	0.13721545
118	0x3db553e7	0.08853894
119	0xbcc9e505	-0.024645338
120	0xbd5a29b4	-0.053262427
121	0xbb9fabf1	-0.004872792
122	0x3d854f90	0.06509316
123	0xbd58112f	-0.052750763
124	0x3d09d668	0.03365174
125	0xbd98f1c4	-0.07467988
126	0x3d1deee3	0.0385579
127	0x3bf5ab52	0.0074972296
128	0xbddffd06	-0.10936932
129	0x3c67b37e	0.014141915
130	0x3d1ff748	0.039054185
131	0x3ded90f1	0.11599911
132	0xbe1173b4	-0.14204293
133	0x3dd3767a	0.10325332
134	0xbdfc16ca	-0.12309034
135	0x3d32d535	0.04366036
136	0x3ce276eb	0.027644595
137	0xbde4c05c	-0.11169502
138	0x3e21b0be	0.15790078
139	0x3e2ac50a	0.16676727
140	0xbca58a7c	-0.020207636
141	0xbd3ae409	-0.045627628
142	0xbd5253f4	-0.051349595
143	0xbde2ed99	-0.110804744
144	0x3e009fae	0.12560913
145	0xbd2fdb5e	-0.042933814
146	0x3e082118	0.13293874
147	0x3cff8b2c	0.031194292
148	0xbc5dedbc	-0.01354545
149	0xbce38a84	-0.02777601
150	0xbe066faa	-0.13128534
151	0x3d216f95	0.039413054
152	0xbde5f625	-0.11228589
153	0x3dc29479	0.09500975
154	0xbc90230d	-0.017594839
155	0x3e1a327d	0.15058322
156	0x3c8ecd48	0.01743187
157	0x3e10a878	0.14126766
158	0xbda190aa	-0.078889206
159	0x3df93cb5	0.12169782
160	0xbbbf2acf	-0.0058339606
161	0x3df50d02	0.11965372
162	0x3e05d99f	0.13071297
163	0xbe068987	-0.131384
164	0x3e26a81d	0.16275068
165	0x3df66ce5	0.12032489
166	0x3cca9a20	0.024731696
167	0x3dc8235b	0.097723685
168	0x3d8021b7	0.062564306
169	0xbdbb31a2	-0.09140326
170	0xbd90a277	-0.07062238
171	0x3c05c3bc	0.0081643425
172	0xbd4ba8a2	-0.049721368
173	0xbb0fac6f	-0.0021922847
174	0x3cd6cb77	0.026220066
175	0x3e80d42a	0.25161868
176	0xbd98090c	-0.074236006
177	0xbc6df178	-0.014522903
178	0x3da1a8bc	0.07893512
179	0xbc7bd923	-0.015371594
180	0xbe0d0c2f	-0.13774179
181	0xbe32f480	-0.17476082
182	0x3d3bc5cd	0.045842934
183	0xbcd5d1cd	-0.026101017
184	0xbda5b043	-0.0809026
185	0xbe309ac8	-0.17246544
186	0x3e02552a	0.127278
187	0xbd892e0a	-0.066982344
188	0xbda7b4ef	-0.08188807
189	0x3d2b16c9	0.041769776
190	0xbe0349ac	-0.12821072
191	0x3e6a6b5f	0.22892521
192	0xbd49ab7d	-0.04923581
193	0xbd572be9	-0.05253211
194	0xbd779a40	-0.06044984
195	0x3d3fc767	0.046821024
196	0x3e2c0cb1	0.16801716
197	0x3d7ef677	0.062246766
198	0x3e66c2b0	0.22535205
199	0x39ffa22b	0.00048758215
200	0xbe10dfe1	-0.14147903
201	0x3f27f97b	0.6561505
202	0x3e8fdaa6	0.28096503
203	0xbf1c1025	-0.60962135
204	0xbc7b5bca	-0.015341708
205	0xbc84a35c	-0.016191177
206	0x3e0a0326	0.13477764
207	0xbddd6815	-0.10810868
208	0x3d9aee9b	0.07565042
209	0xbe0b996b	-0.13632743
210	0xbee80f86	-0.45324343
211	0x3cbd6d42	0.023123387
212	0x3dc2f266	0.0951889
213	0xbf0d9629	-0.5530725
214	0x3d9542c8	0.07288128
215	0x3ebb2740	0.36553383
216	0xbdb9f483	-0.0907984
217	0x3dbb2d3b	0.091394864
218	0x3d198b0d	0.037486125
219	0x3d91b88f	0.0711528
220	0x3d974756	0.07386653
221	0xbbd183d1	-0.0063938876
222	0x3f065b39	0.52482945
223	0x3c8bc4e1	0.017061653
224	0x3d9decca	0.077111796
225	0xbede829c	-0.43459022
226	0x3ee107c4	0.43951237
227	0x3d0d32d7	0.034472313
228	0xbf3e19aa	-0.7425791
229	0xbc4c6492	-0.01247515
230	0xbe17176a	-0.14755026
231	0x3ec77da0	0.38963032
232	0xbe3d42de	-0.18482539
233	0xbe2bc5b1	-0.16774632
234	0xbe41eb49	-0.1893741
235	0x3e88b7de	0.2670278
236	0xbd2c5d92	-0.042081423
237	0x3c15edfa	0.009150976
238	0x3e93e2f4	0.2888409
239	0xbe2d6fe4	-0.16937214
240	0xbe213b4b	-0.15745275
241	0x3f45c69e	0.7725619
242	0x3e9ea080	0.30981827
243	0xbf7210f8	-0.9455714
244	0xbe0845fd	-0.13307948
245	0x3c0b742c	0.008511584
246	0xbc239089	-0.00998319
247	0x3db15291	0.086583264
248	0xbbc052e5	-0.005869257
249	0x3c839aad	0.016064966
250	0xbef6b0fd	-0.48181906
251	0x3e000d34	0.12505037
252	0xbc824cad	-0.015905702
253	0xbf3c87df	-0.7364482
254	0x3e57669b	0.21035235
255	0x3ed477e8	0.4149773

fc2.bias f4 [40]
0	0xbe21ada9	-0.15788902
1	0x3e03f446	0.12886152
2	0x3df2e5b9	0.11860222
3	0xbdc52184	-0.09625533
4	0xbd93dbdb	-0.072196685
5	0x3e26a5b7	0.16274153
6	0x3e127a5e	0.14304492
7	0xbd9fa74c	-0.07795581
8	0x3db9ae4e	0.09066449
9	0xbcae8d9d	-0.02130776
10	0xbd178b45	-0.036998052
11	0x3c23ae23	0.009990248
12	0x3d066537	0.03281137
13	0xbe2682c1	-0.16260816
14	0xbd8b2b8b	-0.067954145
15	0xbd9ce68c	-0.07661161
16	0xbddee63e	-0.10883759
17	0xbcce2973	-0.025166249
18	0x3d289798	0.041160196
19	0x3dddebbf	0.108359806
20	0x3db02925	0.08601598
21	0x3dd61809	0.10453803
22	0xbc86e86c	-0.01646825
23	0xbcad4bec	-0.021154366
24	0x3e1bc295	0.15210946
25	0x3d0b3788	0.033988506
26	0xbdc60ff5	-0.09671012
27	0xbd98f379	-0.07468314
28	0x3d529a69	0.05141679
29	0xbdc432f3	-0.0958003
30	0x3e395c8d	0.18101712
31	0xbe0a4941	-0.13504507
32	0x3dbb3b7c	0.09142205
33	0x3e23dab3	0.16001396
34	0xbc87ab2d	-0.016561115
35	0xbd79b788	-0.060966045
36	0xbd3ff069	-0.046860132
37	0x3ca24e82	0.019812826
38	0xbde29cf2	-0.11065091
39	0x3dc47cc4	0.0959411

fc3.weight f4 [40, 40]
0	0xbe73c899	-0.2380699
1	0xbba619eb	-0.0050690076
2	0xbe1303c0	-0.143569
3	0xbdf5e071	-0.120056994
4	0xbde2dd93	-0.11077418
5	0x3bb5bd49	0.005546246
6	0x3dd92220	0.10602212
7	0x3bbd7bf7	0.0057826
8	0x3e09aa94	0.13443977
9	0x3ddc957a	0.10770698
10	0xbe11a191	-0.14221789
11	0x3ded1df1	0.115779765
12	0x3d01a5a1	0.031652097
13	0x3e2268aa	0.15860239
14	0xbd941df6	-0.07232277
15	0xbd623c20	-0.05523312
16	0xbd9cccdf	-0.076562636
17	0xbe1e7a1e	-0.15476272
18	0xbd69cd97	-0.05708083
19	0xbe2e26df	-0.17007016
20	0x3d57ad7b	0.05265568
21	0x3d93b42d	0.072121
22	0xbe14de61	-0.14537956
23	0xbdd37d34	-0.10326615
24	0xbe250d27	-0.16118298
25	0xb9769205	-0.00023514785
26	0x3cf68f91	0.030097755
27	0x3d3f9810	0.046775877
28	0x3d1498dc	0.03627859
29	0x3de77ff4	0.11303702
30	0x3d5e01bd	0.054200877
31	0x3d8078e4	0.06273058
32	0xbdbf9305	-0.093542136
33	0xbcfa13a4	-0.030526944
34	0xbd72b5bd	-0.05925535
35	0x3deb8fc6	0.11502032
36	0x3d96dc1d	0.07366202
37	0xbddf2e55	-0.10897509
38	0x3d52d465	0.051472086
39	0x3d10d0e8	0.03535548
40	0xbd280df8	-0.041028947
41	0xbdd7993d	-0.10527275
42	0xbd11bc54	-0.035579994
43	0xbce25111	-0.027626546
44	0xbe23efbc	-0.1600942
45	0x3e873f6c	0.26415575
46	0x3ebc38dc	0.3676213
47	0x3e42dbed	0.19029208
48	0xbde6f3da	-0.1127698
49	0x3e41873d	0.18899246
50	0x3d872ea9	0.066006966
51	0x3cecacce	0.028890993
52	0xbc956d40	-0.018240571
53	0xbe114415	-0.14186127
54	0x3dd973b1	0.106177695
55	0x3e245690	0.16048646
56	0xbe52a641	-0.20571233
57	0xbd6769ce	-0.056497388
58	0x3e298fb0	0.16558719
59	0xbea430ac	-0.32068384
60	0xbda591f5	-0.0808448
61	0xb91a18de	-0.00014695848
62	0x3dea17ef	0.11430346
63	0xbdbccd61	-0.092188604
64	0xbdafbd1e	-0.08580993
65	0x3e8850de	0.26624197
66	0x3e3ab79c	0.18234104
67	0xbde2e47e	-0.11078738
68	0x3dd13612	0.10215391
69	0x3e493ba5	0.19651659
70	0x3e28b45a	0.16475049
71	0xbdf97689	-0.12180812
72	0x3b28409e	0.002567328
73	0x3e76d9d4	0.24106532
74	0x3bcdce61	0.006280706
75	0x3e0b23bd	0.13587852
76	0xbba989e8	-0.0051739104
77	0x3e97f3ea	0.2967828
78	0xbe5cef07	-0.21575557
79	0xb9b71985	-0.00034923494
80	0x3e2beeed	0.16790362
81	0xbe0735cf	-0.1320412
82	0xbe0d05a3	-0.13771681
83	0x3e18c87e	0.14920232
84	0x3e2b8f97	0.16753994
85	0xbd7962ea	-0.060885347
86	0x3e2464a9	0.16054024
87	0x3d6d2090	0.057892382
88	0xbd3f4e23	-0.046705376
89	0x3e1afaa4	0.15134674
90	0xbdd4ecdc	-0.1039674
91	0x3e3d9298	0.18512952
92	0x3dd52322	0.10407092
93	0xbd56ed45	-0.05247237
94	0xbda1f349	-0.07907731
95	0x3d946152	0.07245125
96	0xbdca1ec3	-0.098691486
97	0x3e09da62	0.13462213
98	0xbc160c3d	-0.009158191
99	0xbdbe84b4	-0.09302655
100	0x3dbbf86c	0.09178242
101	0x3d1723cb	0.03689937
102	0xbd6b3861	-0.057426814
103	0x3d398cb8	0.045300215
104	0xbd8c3982	-0.06846906
105	0xbda6316b	-0.081148945
106	0xbb312cf3	-0.0027034848
107	0xbc52c676	-0.0128647
108	0xbe11a532	-0.14223173
109	0x3ddef0e7	0.10885792
110	0x3e0deb43	0.13859276
111	0xbe0d86a0	-0.13820887
112	0x3d43c71b	0.047797304
113	0xbd88c87b	-0.066788636
114	0xbe4bf140	-0.19916248
115	0x3e06015b	0.13086455
116	0xbd0aa968	-0.033852965
117	0x3dab3d9d	0.08361361
118	0x3bbba03b	0.005725888
119	0xbdc14420	-0.09436822
120	0xbeb3a54c	-0.3508705
121	0x3df750d4	0.120759636
122	0xbdf2673c	-0.11836097
123	0xbdc983e7	-0.098396115
124	0xbd8ca3fe	-0.068672165
125	0xbdf68825	-0.12037686
126	0xbdecaa09	-0.11555869
127	0x3d924eac	0.07143912
128	0xbd9d1c64	-0.07671431
129	0xbd8b4263	-0.06799772
130	0x3d790f08	0.06080535
131	0xbe357bb1	-0.17722966
132	0x3e06b631	0.13155438
133	0x3e4800fa	0.19531623
134	0x3cde570e	0.02714112
135	0x3d6d8a55	0.05799325
136	0xbcf345ed	-0.02969643
137	0xbdbf0a54	-0.09328142
138	0xbdfb59cc	-0.12272987
139	0xbdd2aaf4	-0.10286513
140	0xbd5a8ac6	-0.053355
141	0x3e5bb57f	0.21455954
142	0x3df7a400	0.120918274
143	0xbdc6c16d	-0.09704862
144	0x3d927eb0	0.0715307
145	0x3dc0de74	0.094174296
146	0xbe2c5899	-0.16830672
147	0x3d438e19	0.047742937
148	0xbdd5507a	-0.1041574
149	0xbdc299a7	-0.09501963
150	0x3d0777a8	0.033073097
151	0x3c894688	0.016757265
152	0xbe5531ef	-0.2081983
153	0xbde4dd7f	-0.111750595
154	0x3d095942	0.03353239
155	0xbdbf4158	-0.09338635
156	0xbd811cb0	-0.063043
157	0x3da31c92	0.07964434
158	0x3e07e844	0.13272196
159	0x3d4eb36d	0.050464083
160	0x3da54516	0.08069818
161	0xbde4ca4c	-0.111713976
162	0xbda51d45	-0.08062223
163	0x3dc2f6c7	0.09519725
164	0xbdfe18b0	-0.124070525
165	0x3d918182	0.0710478
166	0x3de47457	0.111550026
167	0xbd69d15b	-0.057084423
168	0x3df63ec4	0.1202369
169	0x3da5f1a0	0.08102727
170	0xbc6847bf	-0.014177262
171	0xbdbd95e1	-0.09257103
172	0xbda306e1	-0.079602964
173	0xbe5ad169	-0.21368946
174	0x3e5b697d	0.2142696
175	0x3db134f2	0.08652677
176	0xbbc43cd8	-0.0059886985
177	0xbdca66d2	-0.09882893
178	0xbdc338cc	-0.095323175
179	0x3d598011	0.05310065
180	0xbda0add1	-0.07845653
181	0xbd2c5bc2	-0.042079695
182	0x3c198a8e	0.009371413
183	0xbddbe15c	-0.10736343
184	0x3bae2233	0.0053141355
185	0xbe2a6ca8	-0.16643012
186	0xbc317074	-0.010830034
187	0xbe1abd65	-0.15111311
188	0xbca2b916	-0.019863646
189	0x3e0ac70e	0.13552496
190	0xbd35854e	-0.044316582
191	0x3d33c59c	0.043889627
192	0xbdac9e9f	-0.08428692
193	0x3d6f8f65	0.05848636
194	0xbac48d43	-0.0014995713
195	0x3d6439ff	0.055719372
196	0xbc7ee183	-0.015556696
197	0x3cf25c56	0.029585045
198	0x3d187b84	0.03722717
199	0xbdebcf8f	-0.11514198
200	0x3db0df42	0.08636333
201	0x3e04445c	0.12916702
202	0xbc2cac79	-0.010539168
203	0xbcc99518	-0.024607226
204	0x3df01f37	0.11724704
205	0x3dcd18a1	0.10014463
206	0x3d9e9245	0.077427424
207	0xbda26b90	-0.07930672
208	0xbbe98efe	-0.0071276417
209	0x3e12460b	0.14284532
210	0x3cd103ae	0.02551445
211	0x3d2dc4c3	0.042423975
212	0xbce4a718	-0.027911708
213	0xbccf5cca	-0.0253128
214	0x3dd3eb26	0.103475854
215	0x3dabe0d8	0.08392495
216	0x3e06c1e8	0.13159907
217	0xbd17eabb	-0.03708909
218	0xbbcf519f	-0.0063268687
219	0x3def63b9	0.116889425
220	0x3d013d79	0.031552766
221	0xbd006f69	-0.03135625
222	0x3da60089	0.08105571
223	0xbde5a833	-0.11213722
224	0xbdb82c7c	-0.0899286
225	0xbc700162	-0.014648767
226	0x3e1f64b6	0.15565762
227	0x3da4a99d	0.08040164
228	0xbc0d58ad	-0.008627099
229	0xbdb23edb	-0.08703395
230	0x3e4ccd40	0.20000172
231	0xbad68443	-0.0016366321
232	0xbd9a2dc2	-0.07528259
233	0xbe461992	-0.19345692
234	0x3e421259	0.18952312
235	0x3e2947c7	0.16531287
236	0xbcf703b6	-0.030153137
237	0xbcc74567	-0.024325086
238	0x3d82d408	0.06388098
239	0x3d60e678	0.054907292
240	0xbe54e86f	-0.20791791
241	0xbd934d46	-0.07192473
242	0x3d978b7e	0.07399653
243	0xbdade809	-0.08491523
244	0x3dc5ad8b	0.09652241
245	0xbd108f28	-0.035292774
246	0x3d6caba9	0.057780895
247	0x3cd0fb3d	0.025510425
248	0xba32e9f3	-0.0006825022
249	0xbcf8368a	-0.030299444
250	0xbe16b784	-0.14718443
251	0x3de5f4cc	0.11228332
252	0x3a8098d2	0.0009811169
253	0x3e0d6306	0.13807306
254	0x3d8f8f06	0.070097014
255	0x3e0b79d5	0.13620694

fc3.bias f4 [40]
0	0xbe3d69b5	-0.18497355
1	0xbe1b31aa	-0.15155664
2	0x3c24dfc8	0.010063119
3	0xbdde35e0	-0.108501196
4	0x3ce37066	0.027763557
5	0x3c4821bf	0.012215077
6	0xbde4f49f	-0.1117947
7	0x3d048a6a	0.032358564
8	0x3e4168ce	0.18887636
9	0x3d5511e5	0.05201902
10	0xbdb75c0a	-0.08953102
11	0x3cdaeeab	0.026725134
12	0x3cf40bfd	0.029790873
13	0x3de10d1c	0.109888285
14	0xbbb66e82	-0.005567373
15	0xbd84b28a	-0.06479366
16	0xbd6bca0d	-0.057565738
17	0xbde30c0e	-0.110862836
18	0xbc4eda95	-0.012625356
19	0x3e041235	0.1289757
20	0xbe55a438	-0.20863426
21	0x3da583c4	0.08081773
22	0xbd9c6a0c	-0.07637414
23	0xbd3ddf01	-0.04635525
24	0x3d78a7c1	0.060706858
25	0x3cb9b3a6	0.02266867
26	0x3dce2dac	0.10067305
27	0x3d1ee8f4	0.03879638
28	0x3dc82795	0.09773175
29	0x3c390ab4	0.011294056
30	0xbe2421b5	-0.16028483
31	0xbd05c4bb	-0.03265832
32	0xbe3a034c	-0.1816532
33	0x3b106849	0.0022034815
34	0x3cb150a3	0.021644896
35	0x3e1611a7	0.14655171
36	0xbb7604e0	-0.0037539527
37	0x3db5d6b3	0.08878841
38	0xbdc5c32f	-0.09656369
39	0x3e1d4a72	0.1536043

fc4.weight f4 [40, 40]
0	0x3d2fceec	0.042921945
1	0x3cc13de9	0.023589091
2	0x3d0a6d1e	0.03379547
3	0xbe0d8467	-0.13820039
4	0xbdf046b0	-0.117322326
5	0xbc9fb622	-0.019496027
6	0x3d2f3065	0.042770762
7	0x3d50f48b	0.051014464
8	0xbcc14352	-0.023591671
9	0xbdbdccf5	-0.09267608
10	0xbdb6bc42	-0.08922626
11	0x3d41cf86	0.04731705
12	0x3afdfc21	0.0019377508
13	0xbdb73d53	-0.089472435
14	0x3c036fd1	0.008022265
15	0x3ddd08f2	0.10792722
16	0xbb8a09a6	-0.004212576
17	0xbdd20cc8	-0.10256344
18	0xbd229b72	-0.039699025
19	0xbdc4e9ed	-0.0961493
20	0x3da779a9	0.08177502
21	0xbd8d7154	-0.06906381
22	0x3daabdbf	0.083369724
23	0x3dcc6f0b	0.09982117
24	0xbb563f5f	-0.003269158
25	0xbb2a3f1b	-0.0025977555
26	0xbc4231b3	-0.0118526695
27	0xbdf1362a	-0.11777909
28	0xbe13e9cc	-0.14444655
29	0x3dad13c1	0.084510334
30	0xbe3d3097	-0.18475567
31	0xbc9fd077	-0.019508583
32	0xbdfa4a60	-0.12221217
33	0x3daa5b38	0.0831818
34	0x3db1d82b	0.08683809
35	0x3cadf3e0	0.021234453
36	0xbe06c8e3	-0.1316257
37	0x3da8fcb5	0.08251325
38	0x3e502bd6	0.20329222
39	0xbca9640f	-0.020677594
40	0x3dae63d3	0.08515134
41	0x3e48d570	0.1961267
42	0xbc7fe17d	-0.015617725
43	0xbc19aeb7	-0.009380034
44	0x3d8bd03b	0.06826826
45	0xbdb4f4a0	-0.08835721
46	0x3df89a6c	0.12138829
47	0xbc9af96e	-0.018917765
48	0xbe0885ab	-0.1333224
49	0x3ca25075	0.019813756
50	0x3d8f71c9	0.07004125
51	0x3bb4b08d	0.0055142106
52	0x3e080967	0.13284837
53	0xbc092cab	-0.008372466
54	0xbdea1c9e	-0.114312395
55	0xbdf5678e	-0.11982642
56	0xbe0e11c5	-0.13873966
57	0x3ddceb70	0.10787094
58	0xbd71a227	-0.05899253
59	0xbce113fc	-0.02747535
60	0x3da4a7d5	0.08039824
61	0xbd23bfd0	-0.03997785
62	0x3e3c6382	0.18397334
63	0xbd94f11d	-0.07272551
64	0xbd75de77	-0.060026612
65	0xbd89f7b8	-0.06736702
66	0xbdfa34b2	-0.12217082
67	0x3dbbceeb	0.09170326
68	0x3c5ba287	0.013405449
69	0x3d826326	0.06366567
70	0xbdf3937d	-0.118933655
71	0xbda394b8	-0.0798735
72	0x3c2bc60f	0.010484233
73	0x3df3ac1c	0.11898062
74	0x3d80ccec	0.06289086
75	0xbe273ca7	-0.16331731
76	0xbe137c9f	-0.14403008
77	0xbc69b880	-0.01426518
78	0xbd31b737	-0.043387618
79	0xbe41e601	-0.18935396
80	0xbd9533ab	-0.072852455
81	0xbd97d9b5	-0.07414571
82	0xbe44624d	-0.19178124
83	0xbd59b3ba	-0.053149916
84	0xbddaf78b	-0.10691746
85	0x3bd5bcf3	0.0065227686
86	0xbdd6f9fa	-0.10496898
87	0xbde6e518	-0.11274165
88	0xbcee025c	-0.02905386
89	0xbddba9e8	-0.107257664
90	0x3cef8db1	0.029242368
91	0xbd15b17d	-0.03654622
92	0xbe035e17	-0.12828861
93	0x3ddf363b	0.108990155
94	0xbd4a122a	-0.04933373
95	0xbb54fa4f	-0.0032497828
96	0x3d91cda1	0.07119299
97	0xbcc6d6a0	-0.024272263
98	0xbde1565a	-0.110027984
99	0xbdf83cf0	-0.12120998
100	0x3e1d17f2	0.15341166
101	0xbd891f93	-0.066954754
102	0x3d9282a3	0.07153823
103	0xbc44bd22	-0.012007983
104	0xbdf3da02	-0.11906816
105	0x3d5305f0	0.051519334
106	0xbe147474	-0.14497548
107	0x3e09adb6	0.13445172
108	0xbde9af0d	-0.114103414
109	0x3de0ea3e	0.10982178
110	0x3e041346	0.12897977
111	0xbd978442	-0.07398273
112	0x3cd24c1d	0.02567106
113	0xbd7d1280	-0.06178522
114	0x3d58bf9c	0.052917108
115	0x3dca708b	0.09884747
116	0xbde5640f	-0.11200725
117	0xbe02c703	-0.1277123
118	0xbe2761bd	-0.16345878
119	0x3d9fef66	0.078093335
120	0x3d317a06	0.04332926
121	0x3cd0f186	0.025505792
122	0xbcaf828e	-0.021424558
123	0xbd3aca2e	-0.04560297
124	0x3dcc160d	0.09965143
125	0xbaebc311	-0.0017987211
126	0xbd7a00af	-0.06103581
127	0x3e19ce7f	0.15020178
128	0xbd83e81e	-0.06440757
129	0x3db57aa5	0.08861283
130	0xbdce7e08	-0.10082632
131	0x3d3fafbe	0.04679846
132	0xbe02e374	-0.12782079
133	0x3d28f45c	0.041248664
134	0x3d0a4fe8	0.03376761
135	0xbe02b1c3	-0.12763123
136	0xbdaaa9c6	-0.08333163
137	0x3e2d362d	0.16915198
138	0xbd53a827	-0.051674034
139	0x3d999715	0.0749952
140	0xbde9f34b	-0.114233576
141	0xbccb5925	-0.02482278
142	0x3debbf32	0.11511077
143	0xbd96f620	-0.07371163
144	0xbd99c9c1	-0.07509185
145	0x3e2b5ee3	0.16735415
146	0x3dc244ca	0.09485777
147	0xbdef2cd5	-0.11678473
148	0xbd33147d	-0.04372071
149	0x3d8a7be1	0.06761909
150	0x3b6baa52	0.0035959673
151	0xbdf10719	-0.11768932
152	0xbcaa24af	-0.020769445
153	0x3e2d3b45	0.16917141
154	0xbc660c2f	-0.014040991
155	0xbd2c6aad	-0.04209392
156	0xbd9f1950	-0.077685
157	0xbc5b55ff	-0.013387202
158	0xbdb947e9	-0.09046919
159	0xbc12cedb	-0.008960451
160	0x3daf8578	0.08570379
161	0xbd990952	-0.07472481
162	0x3ccebc6a	0.025236327
163	0x3e3d04cd	0.18458863
164	0x3d81c91b	0.06337186
165	0x3e30db69	0.17271198
166	0x3d45b6c0	0.048269987
167	0xbd776aa6	-0.060404442
168	0xbe248174	-0.16065007
169	0xbe683dc0	-0.22679806
170	0xbbe40d98	-0.0069596283
171	0xbe0ff397	-0.14057766
172	0xbcad144d	-0.021127844
173	0xbd3a0919	-0.045418832
174	0xbb0fd2d2	-0.0021945727
175	0xbc1dc7e3	-0.009630176
176	0xbe0782a7	-0.13233434
177	0x3d3a7a72	0.04552693
178	0x39a19ebb	0.00030826576
179	0x3d99bf22	0.07507159
180	0xbd72d8d9	-0.059288833
181	0x3df74d72	0.120753184
182	0xbd59854a	-0.05310563
183	0x3c28874e	0.010286165
184	0xbca9b69d	-0.02071696
185	0xbdc3e31c	-0.09564802
186	0x3c4c7999	0.012480163
187	0xbc0632d2	-0.008190827
188	0x3e299bd3	0.16563348
189	0xbdc09999	-0.094042964
190	0x3de21f15	0.11041085
191	0x3cc89f42	0.024490003
192	0x3dedc452	0.11609711
193	0xbcb3a2e3	-0.021928256
194	0x3c362543	0.011117282
195	0x3ce1e7db	0.027576378
196	0xbd71663e	-0.058935396
197	0x3d05b45c	0.032642707
198	0x3dd689b3	0.10475483
199	0xbe02a899	-0.12759627
200	0x3d303e7a	0.043028332
201	0xbdd4eb3c	-0.1039643
202	0x3cccad05	0.024984846
203	0xbc5b1ddc	-0.013373818
204	0xbdb65daf	-0.089045875
205	0xbdfd44a0	-0.12366605
206	0xbdcba1fe	-0.09943007
207	0xbdc2d2f7	-0.095128946
208	0x3da414d0	0.08011782
209	0xbb98e930	-0.00466647
210	0x3d3b8912	0.045785017
211	0x3e23b644	0.15987498
212	0xbd33ead4	-0.04392512
213	0x3cbb7549	0.022883074
214	0x3dc2a774	0.095045954
215	0x3dc9f0ad	0.098603584
216	0xbcf37ae0	-0.029721677
217	0x3db235c9	0.08701665
218	0xbab61612	-0.0013892076
219	0xbdd4bc0a	-0.10387428
220	0x3c90cb5c	0.017675094
221	0xbd9df998	-0.07713622
222	0xbdea1022	-0.11428858
223	0x3d935c1f	0.07195305
224	0x3e18821b	0.14893381
225	0xbd69f1cf	-0.057115372
226	0x3de34594	0.11097255
227	0x3d461a62	0.048365004
228	0xbdca72f3	-0.09885206
229	0x3e0a59e7	0.13510858
230	0x3dd75e17	0.10515993
231	0xbd908067	-0.07055741
232	0xbc7f2248	-0.015572138
233	0xbd80e6de	-0.062940344
234	0x3ba1955a	0.004931134
235	0x3d66db15	0.056361277
236	0x3dc3f6a0	0.09568524
237	0xbe138034	-0.14404374
238	0x3c1bc631	0.009507702
239	0xbd886a27	-0.06660872
240	0x3cabf7ee	0.020992246
241	0x3e0f6b66	0.14005813
242	0xbe0e535c	-0.13898987
243	0xbd575755	-0.05257352
244	0x3ad85c85	0.0016507065
245	0xbde539c6	-0.1119266
246	0xbe5bab32	-0.21452025
247	0xbdd87fbb	-0.10571238
248	0x3b0a161d	0.002107031
249	0xbd540473	-0.051762056
250	0x3d9f28db	0.077714644
251	0x3cd18ca4	0.025579758
252	0xbe158e8e	-0.14605162
253	0xbd5ab0f3	-0.05339141
254	0x3d09328b	0.033495467
255	0xba2e14d1	-0.0006640675

fc4.bias f4 [40]
0	0x3de36d5f	0.11104845
1	0xbdd18a91	-0.102315076
2	0xbdee8f25	-0.116483964
3	0xbe068595	-0.13136895
4	0xbd761e05	-0.060087223
5	0x3e00d4d4	0.12581187
6	0x3d1feafe	0.039042465
7	0xbd510cfd	-0.051037777
8	0xbd8adf2e	-0.067808494
9	0xbd503246	-0.050829194
10	0xbd0adb86	-0.03390076
11	0xbd8bb8fd	-0.06822393
12	0xbde3b24d	-0.111179926
13	0x3be27c48	0.006911788
14	0xbc8a00e2	-0.016846124
15	0xbccc2202	-0.02491856
16	0x3daf1b7a	0.085501626
17	0x3e28e806	0.1649476
18	0xbcac4f3a	-0.021033872
19	0xbd51d1ab	-0.051225346
20	0x3dc2f249	0.095188685
21	0x3d52153c	0.051289782
22	0x3b8995c6	0.0041987626
23	0xbd1c1a69	-0.038111124
24	0x3da51701	0.08061028
25	0x3df14a3b	0.117817365
26	0x3d49b83a	0.049247958
27	0xbcf4b720	-0.029872477
28	0x3e354623	0.17702536
29	0xbd57c8c1	-0.05268169
30	0x3daf4202	0.08557512
31	0xbc402588	-0.011727698
32	0x3c61ce2e	0.013782067
33	0x3dc509b2	0.0962099
34	0x3dfb4531	0.122690566
35	0xbcb97b58	-0.022641823
36	0xbcbd5bba	-0.023115028
37	0x3dd75d14	0.105158
38	0x3df58982	0.11989118
39	0xbdd5d5d3	-0.10441174

fc5.weight f4 [1, 40]
0	0xbbe3113f	-0.006929546
1	0x3e0e0ab7	0.13871275
2	0x3a9488aa	0.0011332233
3	0xbc90f295	-0.017693797
4	0x3e0bb929	0.13644852
5	0x3d04d25f	0.032427188
6	0x38b2dd28	8.528895e-05
7	0xba202706	-0.00061093306
8	0xbd2a1283	-0.04152156
9	0x3b2fbd0e	0.0026815566
10	0x3a0c5845	0.00053537294
11	0xbddeed9e	-0.10885166
12	0xbaac8220	-0.0013161339
13	0x3ac64cf5	0.0015129136
14	0x3cb902a3	0.022584265
15	0x3a9f417c	0.0012150253
16	0xb96c8f1e	-0.00022560029
17	0xbd06b7d2	-0.03289015
18	0xbdac8035	-0.08422891
19	0xbdf78b60	-0.120871305
20	0x3e08d135	0.13361056
21	0x38b6f763	8.724516e-05
22	0xbe31c3f8	-0.17359912
23	0x3b177d5a	0.0023115487
24	0xbe1a5628	-0.15071929
25	0x3cb9f9fc	0.02270221
26	0x3b158f40	0.002282098
27	0xbda50082	-0.080567375
28	0x3dd93b8f	0.10607063
29	0x3b81013c	0.0039369147
30	0x3a22903e	0.00062013033
31	0x3a7c9baa	0.0009636233
32	0x3c9adaaf	0.018903105
33	0xb9f0a150	-0.00045896554
34	0x3e089f03	0.13341908
35	0x3e27d7d6	0.16390929
36	0xba2f5a43	-0.000668917
37	0xbb235d01	-0.002492726
38	0x39d11de7	0.00039885865
39	0xbd1ea5bd	-0.03873228
