Pytorch_PINN/skew_symmetric_1.ckpt (torch, 23689 bytes, 9 tensors)

fc1.weight f4 [40, 2]
000000 17 40 0c bf 2d 22 52 bf 62 3e 60 3f 2f c0 43 be
       -0.54785293 -0.820834 0.8759519 -0.19116281
000010 ac 15 49 3f 18 81 80 be be 1c 59 be fd c6 0c bf
       0.78548694 -0.2509849 -0.2120237 -0.5499113
000020 d0 7c f2 3e bf b2 2b bf fb 8e 35 3f 3c 82 1f 3c
       0.4736085 -0.6706962 0.70921296 0.00973564
000030 c3 52 6b 3f 75 01 f5 be ad db be be 74 4a 4d 3f
       0.9192316 -0.47852674 -0.37276974 0.8019173
000040 84 62 c3 be 9e 15 1d 3f 3d 6f 78 3d 92 ee 40 bf
       -0.381611 0.6136111 0.06065296 -0.7536403
000050 08 c5 1a bf f5 63 7e 3e 15 24 b2 be 23 e2 b8 3c
       -0.60456896 0.24842818 -0.34793153 0.022568768
000060 ca c8 3e 3f 2f 6f 1d 3f 09 28 5d 3f d1 18 12 bf
       0.7452513 0.6149778 0.86389214 -0.57069117
000070 47 0f 57 bf 1c 25 f9 be ac 1d bb be 78 37 05 3f
       -0.84007686 -0.48661125 -0.36546075 0.52037764
000080 21 b2 b6 be 18 eb 40 3f 47 45 fa 3e 81 38 a6 3e
       -0.35682777 0.75358725 0.4888098 0.32464984
000090 5c 19 0f 3f 5e 29 22 3f 10 1e 34 3f 76 e8 8c 3f
       0.5589807 0.6334437 0.7035837 1.1008441
0000a0 54 d2 3f 3f 5a 45 15 bf 80 d3 ea bc 02 d1 a7 3d
       0.7493031 -0.5830895 -0.028665304 0.08194162
0000b0 88 90 40 3f a9 0a c7 bd f9 e8 ea be 5e 77 c1 be
       0.7522054 -0.0971883 -0.4588087 -0.37786382
0000c0 5b 5f 0f bf 05 43 0c 3f 95 b2 73 be cd 09 19 bf
       -0.56004876 0.54789764 -0.23798592 -0.5978058
0000d0 35 85 4b bf 03 07 a1 be 6c c6 42 3e ac 35 9d 3d
       -0.7950013 -0.31450662 0.19021004 0.07676253
0000e0 b6 ff db 3e 9e 2a 2b bf 81 59 34 be 2d b6 d9 be
       0.4296853 -0.66861904 -0.17612268 -0.42521802
0000f0 b6 3d 0a 3e 96 2d 11 bf fb 76 b4 3e b6 e9 3e bf
       0.13500103 -0.56710184 0.35247025 -0.74575365
000100 fc 68 2e 3f c9 65 b2 be 5a 42 12 3f a1 82 59 3e
       0.68128943 -0.3484328 0.57132494 0.21241237
000110 c5 59 83 3e 1a 10 30 3f 00 69 42 3f 8f 5e a3 3d
       0.25654426 0.6877457 0.7594147 0.0797702
000120 6d 3d 22 3f 27 63 78 be 37 c1 85 3d 56 bd cd 3e
       0.6337498 -0.24256574 0.065309934 0.40183514
000130 5e 28 e6 3d 73 c5 08 3f 19 51 64 3e d1 87 e9 bd
       0.11238168 0.53426284 0.22296561 -0.11402858

fc1.bias f4 [40]
000000 aa 55 5c bd b8 60 af ba be 57 1e be fb 68 e6 3e
       -0.053792633 -0.0013380265 -0.15463158 0.4500197
000010 17 a1 04 3f 48 bb 9f 3b 0b 80 80 bd 58 85 d3 3e
       0.51808304 0.0048746206 -0.06274422 0.4131267
000020 8d c5 54 be 59 c4 05 bf f5 44 97 be 75 e9 9a 3e
       -0.20778485 -0.5225273 -0.29544798 0.3025624
000030 eb a0 40 bf 51 9e b0 3c 1d da 08 bd 57 c3 21 3e
       -0.7524554 0.021559866 -0.033411134 0.15797172
000040 ea d5 10 bf 1d 67 04 bf 15 f5 2d bf c2 ef 70 3e
       -0.56576407 -0.5171984 -0.6795209 0.2352896
000050 93 66 9e be 13 1f c8 3e bc 7e 18 3e 62 46 20 be
       -0.30937633 0.39086208 0.14892095 -0.15651849
000060 37 ab 64 3e 2d cd 3b 3e 95 ff f7 3e 63 c4 93 3e
       0.22330938 0.18339987 0.4843718 0.2886077
000070 40 c8 10 3f aa 3b 7b 3d 0d ed 4e be ed c4 0b bf
       0.5655556 0.061336197 -0.20207615 -0.5459736
000080 bb 7b 07 bf f4 af f6 be 84 2f 32 be 4f ee 18 3f
       -0.5292317 -0.48181117 -0.17400938 0.5973863
000090 2c e1 99 3e a7 8e 1c 3f ad 8d 93 3e f4 5d 27 bf
       0.30054605 0.6115517 0.28819028 -0.65377736

fc2.weight f4 [40, 40]
000000 39 13 c8 3b 42 c6 46 bc 67 03 c7 3c ab e3 99 bd
       0.006105807 -0.012132229 0.024293615 -0.07514127
000010 bd 42 2b bd b0 9f 11 be aa 0a 07 3b d9 76 ab 3d
       -0.041811693 -0.14221072 0.0020605722 0.08372278
000020 76 3d ff 3d bb d3 a3 3d 71 82 e1 3d 79 d2 ca bd
       0.124628946 0.07999369 0.11011208 -0.09903426
000030 44 ee 61 be a7 f1 2e be 89 e7 da bc cc 9f d2 3d
       -0.22063547 -0.1708437 -0.026721733 0.10284385
000040 a3 a7 c3 bd 5a 93 4c 3d 54 0e 5a be 6c b5 00 3e
       -0.095534585 0.049945213 -0.21294528 0.12569207
000050 92 7a 6b bd 0b 26 c8 bd d7 53 59 3d 8e 25 f5 bd
       -0.05748994 -0.09772881 0.05305847 -0.119700536
000060 6a ed 0e bd 95 a0 c7 3d b5 87 01 3d 46 c0 32 be
       -0.034894384 0.097474255 0.03162356 -0.17456159
000070 1c 96 cd 3d d6 29 fa 3d fa 9c 3a bd b3 d6 ad 3d
       0.10038397 0.12215011 -0.04555986 0.08488216
000080 29 d0 20 3e 05 7f f0 bd 2e 05 03 3d c0 b5 07 3e
       0.15704407 -0.11742977 0.03198736 0.13252926
000090 6d 72 fa 3a ae 88 02 3e 29 0f 33 be 30 b2 cb 3d
       0.0019107588 0.12747452 -0.17486252 0.09946096
0000a0 01 a0 0e 3d ee f7 19 3e 58 9e 75 3e d0 2f cd bd
       0.03482056 0.15035984 0.23986185 -0.10018885
0000b0 1a 9d 9e 3c 06 d6 17 bd 5c bb 32 bd cc aa 03 be
       0.019362021 -0.037069343 -0.04363571 -0.12858123
0000c0 ab 12 00 3e 88 ca 0f bd 6d cf 26 3c ca e5 23 3d
       0.12507121 -0.03510526 0.01018129 0.040014066
0000d0 a0 64 71 bd ab de 34 3e 91 72 99 3d 40 c3 cf 3d
       -0.058933854 0.17663066 0.07492555 0.10144663
0000e0 9b 23 2c 3d b4 2f a8 3d e6 02 39 bc d6 c2 f5 bd
       0.042026144 0.08212224 -0.011292195 -0.12000053
0000f0 e1 48 40 3e 13 1e 34 3e 04 51 4a bd 22 ca 82 3c
       0.18777801 0.17589597 -0.04939367 0.015965525
000100 e2 08 24 be 2a 3f f4 3d 55 78 78 be 3d 1a 9b bd
       -0.16019014 0.1192611 -0.24264653 -0.07573364
000110 71 63 e8 3d 6d fe 02 3d 4c 16 d4 39 35 7d 00 be
       0.11347092 0.03198092 0.00040452403 -0.12547763
000120 cf bf 1e 3e 50 cb c8 3d 3f a9 07 3e 60 7e 04 bc
       0.15502857 0.09804404 0.13248156 -0.008086771
000130 8c 61 f3 3c 4c 1c ab bd e1 91 0a bc 6c b2 22 3c
       0.0297096 -0.083550066 -0.008457632 0.009930234
000140 59 2e ac 3d f5 fe 98 3d 52 a7 89 bd 0f 7d b7 bd
       0.084072776 0.07470504 -0.06721367 -0.089594
000150 a6 97 00 3e 20 75 2e bd 6f b2 90 3c ae e5 66 bd
       0.1255785 -0.042592168 0.017663209 -0.056371383
000160 8a 92 c4 bd 5f 41 d9 bd e0 c1 0c 3e 74 11 8e bd
       -0.095982626 -0.10608172 0.13745832 -0.06936923
000170 7e f0 69 3e d1 8d 89 bd 54 dc 0d 3e e4 7c c7 3d
       0.22845647 -0.067165025 0.1385358 0.09740618
000180 39 c2 07 3d cd 48 d3 3d 33 3b d6 3d 38 7d f8 bb
       0.03314421 0.1031662 0.1046051 -0.0075832866
000190 c4 d5 db 3c ca 49 23 3c f1 9d f5 bd 2c dc 4c bd
       0.02683533 0.009966323 -0.119930156 -0.05001466
0001a0 93 bb d6 3d 49 57 a8 bd f0 61 15 be 46 40 9b bd
       0.10484996 -0.08219773 -0.14588141 -0.075806186
0001b0 58 ae fc 3d 84 01 92 bd ea 78 51 bc 89 16 b6 bd
       0.12337941 -0.07129195 -0.012785176 -0.08891017
0001c0 40 b0 ba bb a8 9d b9 3d 77 f2 4e bd b3 16 16 bd
       -0.00569728 0.09063274 -0.0505242 -0.03664274
0001d0 9b 5d 01 be 0a 6e 2a 3e 05 ff 20 bd 6d 17 6a 3d
       -0.12633364 0.16643539 -0.039305706 0.057151247
0001e0 2a 39 06 be 88 0c 65 be c0 d1 96 be b1 fa cf 3d
       -0.13107744 -0.22368062 -0.29456902 0.101552375
0001f0 b8 74 88 bd a2 a3 e5 bd 02 0b d4 be 3a 73 13 bd
       -0.06662887 -0.11212851 -0.41414648 -0.03599856
000200 16 b0 3c 3e 7d 7e 82 3d 29 3c c3 bd b4 69 b0 3d
       0.18426546 0.06371782 -0.09532959 0.08613911
000210 d7 b7 60 be f6 4e b0 be fc fd 91 bb 79 b8 fe 3d
       -0.2194513 -0.34435242 -0.004455326 0.12437529
000220 cc 87 9a 3d 68 fd aa bd ad 13 55 bd 4f 06 1c 3e
       0.075454324 -0.08349115 -0.052020717 0.15236782
000230 17 3d 10 be 18 88 13 3e 95 be ae bd 3b 90 22 3e
       -0.14085804 0.14407384 -0.085324444 0.15875332
000240 e4 0d 96 3e c2 fc ec bd 00 2e cd 3d 52 06 c7 bd
       0.29307473 -0.11571647 0.100185394 -0.097180024
000250 7b 9b e0 bd 36 84 89 3d 75 3c 50 be 64 30 db bd
       -0.109671555 0.0671467 -0.20335563 -0.10702589
000260 8e b3 2e be 56 32 9d be c1 6a 7f 3d 84 ab 1b be
       -0.17060682 -0.30702466 0.062357668 -0.15202147
000270 c1 66 2c bd 99 05 07 3e 04 f3 ef 3d 4c 00 da bc
       -0.04209018 0.13185729 0.117162734 -0.02661147
000280 67 84 01 bd f1 06 9f be e5 8d 35 bf 1b 3f bb 3d
       -0.03162041 -0.31059983 -0.7091964 0.09142896
000290 7b 45 74 bd ae c2 33 be ee f5 3b bf ea 96 45 3e
       -0.059636574 -0.17554733 -0.73422134 0.1929585
0002a0 e7 90 95 3e 93 d2 9a bd f3 68 5f 3e 30 55 41 3e
       0.29212114 -0.07559695 0.21817379 0.18880153
0002b0 69 56 fe be 08 ea 05 bf 82 41 1d 3e 66 ca db 3e
       -0.496753 -0.5231023 0.1535702 0.42927855
0002c0 b6 c2 0b bd da 00 ff be 4d 0e 09 bf 87 b2 d9 bd
       -0.034121238 -0.49805337 -0.53537446 -0.106297545
0002d0 fa 1f 16 bf 39 bb 91 bd dd 4d 63 3c f8 bb ae bd
       -0.5864254 -0.07115788 0.0138735445 -0.08531946
0002e0 9a 52 20 3f ae ad 30 3d 23 71 10 3f 28 d5 38 3e
       0.6262604 0.043134384 0.5642263 0.18050063
0002f0 05 12 9f 3d a1 ea a6 3d 07 0a ab bd 81 16 8e bd
       0.07767109 0.08150221 -0.08351522 -0.06937886
000300 82 c3 d0 be b1 ab 17 bf 3b 90 90 3d 60 25 28 3e
       -0.4077416 -0.59246355 0.0705876 0.16420507
000310 59 9b 06 bc da 81 32 3e ac 00 55 bd ab 2a 3d be
       -0.008215749 0.17432347 -0.052002594 -0.18473308
000320 8f c7 29 3e f3 4a 6d bd f4 7d b2 3e 6b 8d 1c 3e
       0.16580032 -0.057932805 0.3486172 0.15288322
000330 47 36 4c 3e e9 c9 ad bd 2e a1 2e 3e ad 2f f0 bd
       0.1994258 -0.08485777 0.17053673 -0.117278434
000340 57 74 34 be 04 94 98 3d 12 83 5d be 25 e6 88 bd
       -0.17622505 0.07450107 -0.2163203 -0.066845216
000350 29 09 7a 3e e7 fa 80 3e 92 c2 4c bd 76 6c a7 bc
       0.24417557 0.25191423 -0.049990244 -0.02043746
000360 b6 7f 88 3d e6 cb 1a 3e 9d 47 2e 3d 63 ab cd bd
       0.06664984 0.15116844 0.042548764 -0.10042455
000370 7e 61 80 3e d5 d6 3d 3e 96 57 25 3c 05 9a 0c 3e
       0.2507438 0.18538983 0.010091683 0.13730629
000380 de 37 1d 3d 40 80 04 3e 6f 9b 58 3d d1 20 21 bd
       0.038383357 0.12939548 0.052882608 -0.039337937
000390 9c 94 15 3c 4f 8c 99 bc e2 e4 3d 3d 7b a8 1a 3e
       0.0091296695 -0.018743662 0.046360858 0.15103333
0003a0 b1 8d 28 3d 16 a0 3c 3e 1d 94 83 bd 9e f8 9a 3d
       0.041150752 0.18420443 -0.06424735 0.07566951
0003b0 f2 b9 43 3e ba 4f 7b bc bd 3b 0a 3e 79 f1 ab bc
       0.19113901 -0.0153388325 0.13499351 -0.020989167
0003c0 da b0 98 bd 2f 04 bc bc 5e 64 47 3e f2 74 8d be
       -0.07455607 -0.022951214 0.19471881 -0.27628285
0003d0 7b d4 f5 3c 2e 65 db bd fb a9 24 3e b7 69 af 3d
       0.030008545 -0.10712658 0.16080467 0.085650854
0003e0 01 f1 91 3d 61 87 25 bd df 11 86 bd 43 b0 63 bc
       0.07126046 -0.04041231 -0.065463774 -0.013897005
0003f0 85 3c 49 3e 09 24 c1 3c f6 7d 11 be 21 9d db bc
       0.19651993 0.023576753 -0.14208207 -0.026808323

fc2.bias f4 [40]
000000 b3 79 54 3c d9 4b 99 3d f5 3d ee 3d 8b 89 2b 3d
       0.0129684685 0.0748517 0.11632911 0.041879218
000010 8a e9 bb 3b 57 4c 33 3d 05 5d 97 3b ca 58 7c 3d
       0.005734627 0.043773975 0.004619243 0.061608113
000020 37 80 ff bd 22 b3 fe bb 8b 82 42 bd 8b 06 da bc
       -0.12475627 -0.007772819 -0.047487777 -0.026614448
000030 ef 0e a7 bd 18 53 57 bd 84 8f d9 bd e5 e7 8b 3d
       -0.08157145 -0.05256948 -0.106230766 0.0683134
000040 9f 10 05 bd 3a 4d 06 be 37 f4 b3 bd f1 5d 8c bd
       -0.032486554 -0.13115397 -0.08786815 -0.068538554
000050 6f 20 9f 3d 62 65 9b 38 1e 44 1b be 9c f1 c2 3d
       0.07769858 7.40986e-05 -0.15162703 0.095187396
000060 1a ea 35 3e 0d 71 ee bd 97 3e 06 be 36 be 9c 3d
       0.17765084 -0.116426565 -0.13109814 0.07653467
000070 95 22 09 be ef 78 bc 3c 09 0f bd bd 7c 31 dd bd
       -0.13392098 0.023006884 -0.09231383 -0.10800454
000080 fa eb 33 be 51 e9 ba 3d 0d 5e 2f 3c ec 16 b2 3d
       -0.17570487 0.09126533 0.010703576 0.08695778
000090 03 76 ad bd 78 d8 9f bd c6 f5 ba 3d d2 a0 28 3e
       -0.084697746 -0.0780496 0.09128909 0.16467598

fc3.weight f4 [40, 40]
000000 5a 46 c8 bc 3c 1d e8 3d 13 d2 c4 3d d4 6b 8a bd
       -0.024447609 0.11333701 0.09610381 -0.06758848
000010 86 06 22 3c 24 b9 c6 3d 49 7f 26 be af 00 a5 3d
       0.009889251 0.097032815 -0.16259493 0.08056771
000020 72 3c 02 3e 2e 76 76 bd 85 61 f1 bd 1d 6a 09 3e
       0.1271837 -0.0601713 -0.117861785 0.13419385
000030 ac 7a 0f bd 46 19 06 3e 19 bf fb 3d 2d 25 e1 3d
       -0.0350291 0.13095579 0.12292308 0.10993419
000040 ec d5 1b 3e 8c e5 2d bd 3f 2b 26 bd c9 38 16 be
       0.15218323 -0.04245524 -0.040568586 -0.146701
000050 24 1d 70 3c 11 ae a0 bd c8 dd c3 3d 32 e5 db 3d
       0.014655385 -0.078457005 0.09563786 0.10737075
000060 e8 17 0c be 0f a5 3b bd e0 0a 65 3d 92 14 0c 3e
       -0.13680995 -0.04581171 0.055918574 0.13679722
000070 55 42 b1 bd f0 48 f9 bb 60 8c 49 3d 8f 24 3e bd
       -0.0865523 -0.007607572 0.049206138 -0.046421584
000080 ea e8 c3 bc 2e df 4b 3d 2f cb dc 3d 1c c5 38 bd
       -0.023914773 0.049773388 0.10780942 -0.045109853
000090 1e 90 4b 3e c3 53 a1 bd ef 5e 15 be 1f 20 f2 3d
       0.19879195 -0.078773044 -0.14586996 0.11822533
0000a0 c8 39 c1 bd 88 39 da bb c8 d9 9d 3d 83 49 62 be
       -0.09434849 -0.0066596903 0.07707554 -0.22098355
0000b0 70 01 60 bf 96 33 d8 bd 79 6c 7d 3e 68 d3 32 3e
       -0.87502193 -0.10556714 0.2474841 0.17463458
0000c0 bc 73 3d 3d 28 5d 85 bd c0 ff 9c bd e1 cf 36 3f
       0.04625295 -0.06511909 -0.07665968 0.7141095
0000d0 5d 48 17 be a2 9d 45 be 59 e9 dd 3d d8 78 1f be
       -0.14773698 -0.19298413 0.10835523 -0.15573442
0000e0 5b 2d 40 bc 32 61 a0 be d4 6f 95 3c c6 f5 2e bd
       -0.011729564 -0.31324154 0.0182418 -0.042714857
0000f0 b7 b2 a4 be fd ea 3a bf 91 99 49 bd 67 1a 80 3e
       -0.321676 -0.73014814 -0.049218718 0.25020143
000100 1f 61 ea be c9 5f 92 3d e7 79 fc 3e 75 c8 05 3f
       -0.45777223 0.07147176 0.49311754 0.52259
000110 36 f1 fa 3c 5e ef 61 bc d3 ab a9 bd 6b 7b 81 bd
       0.030632596 -0.01378998 -0.08284726 -0.06322368
000120 87 62 10 3e 15 fe 10 3e 1b fc df 3c 69 95 dd 3e
       0.14100085 0.14159425 0.027341893 0.43278053
000130 cf cf c6 3d 97 29 c6 3d b6 e6 4c 3e 36 68 74 bd
       0.09707605 0.096759014 0.20009884 -0.059669696
000140 8d 7d ee 3d db cb ba 3d 79 b8 06 be b0 dd 6b bd
       0.11645041 0.091209136 -0.13156308 -0.057584465
000150 85 8e 19 bd b4 52 e5 bc 85 6d 5f bd a6 f4 4c bc
       -0.037489433 -0.027993537 -0.054547805 -0.012509501
000160 df 45 11 3d e7 ac ba bc d9 40 52 3d 7b b2 fa bd
       0.035467025 -0.022787524 0.051331375 -0.12241074
000170 24 47 5b bd cc 30 44 3c 1f b0 c1 3c fa be 7d bd
       -0.05353464 0.011974525 0.023643551 -0.061949708
000180 98 96 83 3e da 60 d6 3d f7 ea 9b bd c1 70 a1 3e
       0.2570083 0.10467692 -0.07613175 0.31531337
000190 b2 45 17 3e 1c c1 37 be 92 7e 32 be 99 44 23 3e
       0.1477268 -0.17944759 -0.17431095 0.15944137
0001a0 c7 52 dd 3d a7 4b 86 be b0 91 b7 3c 8a 30 13 3e
       0.10806804 -0.26229593 0.022408336 0.14373985
0001b0 3d c7 2e bd 8c 9f 7c 3e b8 e4 44 be 9f 1d d4 3d
       -0.042670477 0.24670237 -0.19227874 0.10357212
0001c0 b3 49 aa 3c de d8 e2 bd 4f 38 01 be 4a 8e bb bc
       0.020787096 -0.110765204 -0.12619136 -0.022894997
0001d0 fa 42 7c 3d aa 66 18 3d 80 9b 4f 3e 63 78 5e bd
       0.06158731 0.037207283 0.20274162 -0.05431403
0001e0 34 da d5 3d 4a 1e 0a be 02 f3 9d bc b0 03 b0 3d
       0.104420096 -0.13488117 -0.019280914 0.08594453
0001f0 9b a6 8a 3f 38 48 8d bd 70 10 e2 bd 82 c7 8a 3d
       1.0832094 -0.0689854 -0.110382915 0.06776334
000200 db 9f 8a be 8b 07 98 bd a4 a9 99 3d 04 33 69 bf
       -0.27075085 -0.07423314 0.075030595 -0.9109347
000210 7e 42 6d 3e e0 58 a5 3e 59 82 53 bd 77 93 6d 3e
       0.23169896 0.3229437 -0.05163798 0.23200785
000220 6a e0 de bd ca 75 3f 3e 6a aa 1d be 7b ba 16 3d
       -0.10882647 0.18697277 -0.15397039 0.036798935
000230 1e 34 31 3e 90 4b 89 3f 86 06 cb 3d 7c f1 85 3c
       0.17305037 1.0726185 0.099133536 0.0163505
000240 c2 cb 24 3f 6a 20 97 bd 46 05 31 bf 19 ba fd be
       0.6437341 -0.07379229 -0.6914867 -0.49556044
000250 27 5f 4b 3d 06 85 c2 bd bd 1b 38 3e d6 93 1b bd
       0.04965129 -0.094980285 0.17979331 -0.037982784
000260 a3 f1 bf be 8b 71 1f bc 87 f9 b7 be 6f 37 9a be
       -0.37489042 -0.009731661 -0.35932562 -0.30120417
000270 49 17 4a be 5f 1b 7f bc 5c 4b 27 be 00 8b 8a bd
       -0.19735445 -0.015570491 -0.16337341 -0.067647934
000280 36 0a 77 bd d2 7c 09 be a2 40 4a 3e ee 67 90 bb
       -0.060312472 -0.13426521 0.19751218 -0.0044069206
000290 66 2d fa bd e4 31 03 3d 8c 35 93 bd 7c ac 02 3e
       -0.1221569 0.03203 -0.07187948 0.1276111
0002a0 49 48 d0 3d 37 44 1b 3d 52 65 15 be 02 8c 72 3d
       0.10170037 0.03790685 -0.14589432 0.059215553
0002b0 e9 73 f3 3d c2 f1 c4 bd f8 c2 10 bd 40 69 ab bd
       0.118873425 -0.09616424 -0.035342187 -0.08369684
0002c0 76 38 9b bd 7f 32 9d 3d 34 a6 38 3c 8e b7 bb ba
       -0.075791284 0.07675647 0.011270095 -0.0014321671
0002d0 31 bc 00 be f8 42 05 3e 49 11 01 be 3d 37 c2 bd
       -0.1257179 0.13013828 -0.1260425 -0.09483192
0002e0 fb 80 d8 3d c7 de 4e bc 82 48 ca 3d ef e2 9e bd
       0.10571476 -0.012626356 0.09877111 -0.07758128
0002f0 5c 7d ba 3d 82 3b f6 bc cb c4 cf 3d 48 a6 f9 bd
       0.09105942 -0.030057672 0.10144957 -0.12189919
000300 e8 91 b0 bd 39 65 ff bd 9d 8e d0 3b 58 c0 42 3d
       -0.086215794 -0.124704786 0.006364657 0.047546715
000310 91 41 1a 3e c3 63 f9 3d fb 46 9e 3d b4 8e d3 3c
       0.15064074 0.12177231 0.07728382 0.025824882
000320 aa 47 5d be ac 45 1f bc 6e 8b 2a 3e ac 23 d3 3d
       -0.21609369 -0.009721201 0.1665475 0.10309538
000330 01 16 4f 3d 7e c8 33 3e d2 fe 57 bd 33 ec 95 3b
       0.050558094 0.1755695 -0.05273325 0.0045752763
000340 6e 44 15 3e 79 e5 10 be 1c 3a 2e be 94 60 1b 3e
       0.14576885 -0.14150037 -0.17014354 0.1517356
000350 c5 65 7c bd 53 0c 74 3d b9 83 cb bc 37 f2 bf bd
       -0.061620492 0.059582066 -0.024843084 -0.09372371
000360 a0 5d 01 3e f5 36 5a bd 0b da 79 3d 2f 19 ae 3d
       0.12633371 -0.053275067 0.060998958 0.08500897
000370 76 5d 61 be 40 d8 9d bd 12 ff b0 3c 05 40 c5 3c
       -0.22008309 -0.07707262 0.021606002 0.024078378
000380 e7 e6 55 bd 38 c9 01 be f0 ba 7f 3d 8c a9 81 3d
       -0.05222216 -0.12674415 0.062434137 0.063311666
000390 14 b1 17 be 65 1c 17 bd b9 d3 85 3d 33 92 9f 3d
       -0.14813644 -0.036892314 0.065345235 0.07791557
0003a0 3a 39 f8 3d 34 1c de ba 87 15 6f 3d d9 91 c9 bd
       0.1212029 -0.0016945661 0.05837014 -0.09842271
0003b0 97 e0 8b 3e 72 5d ae bd af d0 e6 3d 1c 0b 75 3d
       0.27319786 -0.08513917 0.11270272 0.059825048
0003c0 49 ff a3 bd c7 9c 14 3e 6d bd dd 3d fc 6d 23 3e
       -0.08007676 0.14512931 0.10827146 0.15959924
0003d0 71 be c5 3e 5c 3e 9c bd f0 eb bf 3d 39 f9 4d 3d
       0.38621858 -0.076290816 0.093711734 0.050286505
0003e0 b5 c7 be bd fc e2 2f 3e b1 4d 24 bd 7c cf 9f bd
       -0.09315435 0.17176431 -0.040113155 -0.078032464
0003f0 c4 13 1c be 28 9f 31 be 0e 1b 11 3e be 72 39 3e
       -0.15241915 -0.1734587 0.14170477 0.18110177

fc3.bias f4 [40]
000000 83 1d 42 3d 49 4c 3c bd 5e a0 08 be b4 84 40 3e
       0.047391426 -0.04597119 -0.13342425 0.18800622
000010 79 90 f7 3d bd d9 08 3d 74 e4 64 bc 62 8a b0 3c
       0.12088103 0.033410776 -0.013970483 0.021550361
000020 df 8f dd 3d c4 3a ae 3d 41 20 60 bd 74 3e 6e bd
       0.10818457 0.085073024 -0.05471826 -0.05816503
000030 e9 d9 dd 3d 5b 5f 26 3d b3 2d 0a be 9d 36 94 3d
       0.10832579 0.04061828 -0.13493995 0.07236979
000040 7e 4a 8b bd c4 7e 71 bc f1 79 f5 bd 29 f0 be 3d
       -0.06801318 -0.014739696 -0.11986149 0.09323151
000050 bf 25 d2 bd 3b 8c 14 be 8a 34 85 3d f7 f2 25 3e
       -0.10261106 -0.14506619 0.06504162 0.16205965
000060 4d 21 ac 3d 35 cc 45 3e 63 c8 73 bd 38 d4 be 3c
       0.08404789 0.1931618 -0.059517276 0.023294553
000070 08 fa 05 3d 81 e4 05 bd 75 8d 2c 3d fa 37 63 ba
       0.03270915 -0.03268862 0.04212709 -0.0008667704
000080 d7 4a 8d 3c b5 6d 21 3e 18 50 64 3c 31 ac 8e 3d
       0.0172476 0.15764506 0.013935111 0.06966437
000090 e2 30 ce bd 79 b9 c6 3d eb d3 01 be 56 05 dd bd
       -0.100679174 0.09703345 -0.12678497 -0.107920334

fc4.weight f4 [40, 40]
000000 5a dd ec bc 00 b5 48 be ba cd 4e bd 7c 1a 39 3e
       -0.028914142 -0.19600296 -0.050489165 0.18076509
000010 b5 95 4c bb 6d c5 09 3c f5 f3 e8 3d 81 f4 88 bd
       -0.0031217162 0.008408886 0.11374656 -0.066872604
000020 75 50 01 3e 0c b9 f8 3d e2 f3 1f 3e d3 b0 33 bd
       0.12628348 0.1214467 0.15620378 -0.043869805
000030 ac fe c2 bd f3 f3 7c bd 21 83 85 bd a0 ba 67 3d
       -0.09521231 -0.061756086 -0.065191515 0.056574464
000040 85 45 04 be 97 c9 d9 bd 67 ed 22 3c 9f f6 dd 3d
       -0.12917145 -0.10634153 0.009944296 0.10838055
000050 f1 76 b5 bd 3d 02 1a bd 0c eb 44 3e ae 5d 0b be
       -0.08860577 -0.03759979 0.19230288 -0.13609955
000060 61 57 10 be f0 4a d3 bd df b3 e8 bd 92 f1 9a 3c
       -0.14095832 -0.103170276 -0.11362433 0.018914018
000070 61 2d 00 bd cc 1f e9 bc 4d 93 11 be 85 21 fc bc
       -0.031293277 -0.028457545 -0.14216347 -0.030777702
000080 5b aa 07 be 4f 31 44 be 70 08 6e 3d e7 80 ad 3c
       -0.13248579 -0.19159435 0.058113515 0.02117963
000090 5c ee ea 3d d2 1d f1 b9 43 3d 6a 3d de 78 7a 3c
       0.11471245 -0.0004598932 0.05718733 0.015287606
0000a0 8b ff 55 be 89 75 a2 bd ef 6a cf bd a1 b2 5e 3e
       -0.20898263 -0.07932574 -0.10127818 0.21747829
0000b0 7a 57 4d be 43 1b 30 bd 30 8c f0 3d fa 56 36 be
       -0.20052901 -0.04299475 0.11745489 -0.17806616
0000c0 0c 35 ee 3d d1 dd 1a 3e 45 f0 50 3e 11 32 92 bc
       0.11631212 0.15123679 0.20404156 -0.01784614
0000d0 10 1e d8 3d 7c 47 ca 3c 35 a6 1c be 4e 96 78 3d
       0.10552609 0.02469229 -0.15297778 0.060690217
0000e0 8f c9 c0 bd 4d b3 a2 3d 0b 4d c5 3d ab 9f 96 3d
       -0.09413444 0.07944355 0.096338354 0.07354673
0000f0 e6 c6 7d 3c 4c 2b 6a 3e 3d 8d 3c 3e 51 22 a1 bd
       0.015489316 0.22868079 0.18413253 -0.078678735
000100 a8 45 5b be 67 55 53 3d 9e f5 a0 3d 6c eb d9 3d
       -0.2141329 0.051595118 0.07859348 0.10640606
000110 0e c6 9f bd 07 0c 42 3d b2 3c aa bd 73 2e 28 3e
       -0.07801448 0.04737475 -0.08312358 0.16423969
000120 5e 02 41 bd 50 75 f8 3d 47 5a a1 3d 00 e0 71 be
       -0.0471214 0.121317506 0.07878547 -0.23620605
000130 27 6b 60 bd 89 58 78 3d 38 44 65 bd 64 a3 40 3d
       -0.05478969 0.06063131 -0.05597326 0.04703082
000140 0d 65 fc 3d 80 4e 1a be a1 c9 22 bd 41 16 fc bd
       0.123239614 -0.15069008 -0.03974307 -0.12308932
000150 cd df b0 bc 15 e2 21 be ab 84 86 bd 9d 2d 1a be
       -0.021591092 -0.158089 -0.06568273 -0.15056463
000160 13 4e 83 bd dc f0 82 3b a2 7f a9 3d ba aa 05 bc
       -0.06411376 0.003995998 0.08276297 -0.00815838
000170 9d e7 b0 bc a7 73 03 3d 56 ba 9a bd 49 a8 a4 3c
       -0.021594817 0.032092717 -0.07555072 0.020099776
000180 74 99 05 be 6d 99 ae 3d 7a a7 9e bc 6c cc a1 bd
       -0.13046819 0.085253574 -0.019366968 -0.079003185
000190 32 5d e6 bd 37 b2 af 3d 7a 0e 28 bd bf 2b 60 bd
       -0.11248244 0.08578914 -0.04102943 -0.05472922
0001a0 54 db 3c bd b5 20 04 3e 9f ea d0 bc f9 26 a4 3d
       -0.046107605 0.12903102 -0.025502501 0.08015246
0001b0 02 25 14 3c d9 e6 21 be 20 d0 23 3e e7 cb 8a bb
       0.0090420265 -0.15810718 0.15997362 -0.004235733
0001c0 19 14 84 3b 9a 0d 03 bd 82 fa cc bc a7 7d bf 3c
       0.004030716 -0.031995393 -0.025021795 0.023375345
0001d0 64 16 c1 3c c1 57 53 bd 70 03 dc 3c 0d 76 94 bc
       0.023570247 -0.05159736 0.026857108 -0.018122697
0001e0 ab 80 65 bd ef 2c 23 3d f0 fe 8e 3b 1f f5 0e bd
       -0.05603091 0.039837774 0.004363887 -0.034901734
0001f0 47 eb 50 3a f7 8c 08 3c 60 27 85 be 06 81 41 3e
       0.00079696294 0.00833439 -0.26006603 0.18896875
000200 88 60 e8 bd 5c 45 f5 3d ef 0c b0 bd 5c 34 78 bc
       -0.11346537 0.1197612 -0.08596217 -0.015149202
000210 7c f2 23 bd 67 75 14 3e 05 75 00 3d 1f f8 49 be
       -0.040026173 0.1449791 0.0313616 -0.19723557
000220 2e c8 0a be aa 4d b7 3d fb 86 84 3d 3a 29 fe 3a
       -0.13552925 0.0895036 0.06471058 0.0019390949
000230 74 52 f8 bc ae 0d 15 3d 83 55 1f 3e e8 55 ff bd
       -0.030312754 0.03639 0.15559964 -0.12467557
000240 46 f6 c7 bd 7c 70 b7 3c 69 5f 0c 3d 54 f4 47 3d
       -0.0976377 0.022392504 0.034270678 0.048816994
000250 59 17 c6 bd 6a 66 b3 bc 27 b8 eb 3d 9f 11 0e be
       -0.09672422 -0.02189942 0.11509734 -0.1387391
000260 20 63 e8 bd c4 b1 07 3e 9a 67 b4 3d db 96 be bd
       -0.113470316 0.13251406 0.08808823 -0.09306117
000270 1b 1e ad bc 28 77 01 be ce 69 3f bd 0a 57 d8 ba
       -0.02113252 -0.12643111 -0.046731763 -0.0016505432
000280 1c cd 1d be 37 77 93 3d b5 71 b0 bd 5d 28 96 bb
       -0.15410274 0.07200473 -0.08615438 -0.0045824484
000290 6b ae d2 3d 22 28 28 3e 4e 95 e2 3d dd bb 04 be
       0.10287174 0.1642156 0.11063634 -0.12962289
0002a0 c0 db 7a bd f1 17 58 bd 8d fa a3 3d c1 e3 2c 3d
       -0.061244726 -0.052757207 0.08006773 0.04220939
0002b0 80 b2 17 3e f2 d2 95 bd 1a eb 20 3d 31 97 92 bd
       0.14814186 -0.07315625 0.03928671 -0.07157744
0002c0 87 33 01 be 01 31 1c 3e e5 cf a8 bd ce 57 14 3e
       -0.12617312 0.15253069 -0.08242778 0.1448662
0002d0 eb c7 59 be d7 80 1b be e5 2f 5e bd 9e 64 47 3d
       -0.21267669 -0.15185867 -0.054244895 0.04867994
0002e0 b2 d8 53 bd 14 09 f7 bd 3e ec e7 bd a4 c3 80 3d
       -0.05172033 -0.120622784 -0.113243565 0.062873155
0002f0 62 22 be bd 9b 4b 81 3d 2e 38 0f bd fb 6e 06 be
       -0.09283902 0.06313249 -0.034965687 -0.13128273
000300 50 98 ed 3d d7 2e 9b bd d4 f6 f4 3d 4a ef 01 bd
       0.11601317 -0.07577293 0.11961141 -0.031722344
000310 e7 41 08 be 9b 52 a5 bd 9a 12 05 be ce 3c 36 3c
       -0.1330639 -0.08072396 -0.12995377 0.011122895
000320 df a0 d7 bd b7 77 c0 bc 51 4b 11 be 1b d3 56 3c
       -0.105287306 -0.023494584 -0.14188887 0.013111855
000330 a9 08 ea bc a3 db dc 3d 3b 81 16 be 74 42 de bd
       -0.028568583 0.1078408 -0.14697735 -0.10852519
000340 f1 cf 9e 3d 18 ac 71 3d c8 94 6a 3d 85 41 98 bd
       0.077545054 0.059002012 0.057270795 -0.07434372
000350 a5 0a 20 3e c0 46 7b 3d dc 0c 8a 3c 30 51 9c bc
       0.1562906 0.06134677 0.016851835 -0.019081682
000360 48 0e ce 3d 89 b9 8d bd d8 ff 69 bd d2 42 d3 3d
       0.10061318 -0.06920154 -0.057128757 0.10315479
000370 ac d2 9a bd f6 f0 80 be 01 9e 87 3d a0 60 8d bd
       -0.07559714 -0.2518384 0.06621934 -0.069031954
000380 7c fd 09 3e cc fd 53 bd 39 a2 5d bd aa d0 06 3e
       0.13475603 -0.05175571 -0.054109786 0.13165537
000390 75 c2 7e 3d c9 8f c1 bd 7b c9 68 3d 48 78 ca bd
       0.062197167 -0.09451253 0.05683277 -0.09886223
0003a0 cf b6 2e bd 0e 24 a6 bc 01 25 08 be 4a d1 8a 3d
       -0.04265481 -0.020280864 -0.13295366 0.067782
0003b0 30 0e 24 3c e1 7f 58 bd 44 4a f4 3d 11 3f b2 bd
       0.010013148 -0.05285633 0.119282275 -0.08703435
0003c0 30 c4 77 3d 3e 57 0f be 3b fa 63 3d f3 eb 0a be
       0.060489833 -0.13998124 0.05565856 -0.1356657
0003d0 39 20 a5 bd 3e fb fd bd 10 c8 39 3e f3 c9 39 bd
       -0.080627866 -0.12401436 0.18142724 -0.04535861
0003e0 48 d7 e7 bd 4f 7b 87 ba c6 0c 1f 3b 73 a8 fd 3d
       -0.113203585 -0.0010336431 0.0024269088 0.12385645
0003f0 88 dc 28 be 05 1f d1 bd df 89 58 3d fb 79 1e be
       -0.16490376 -0.10210995 0.05286586 -0.1547622

fc4.bias f4 [40]
000000 84 9d e0 bd dd cd 0d bd 35 2f 4b bd 83 f1 d0 bd
       -0.10967544 -0.034620155 -0.049605567 -0.10202315
000010 45 94 a1 bd 9a c0 91 3d c1 31 06 3d e6 29 13 bd
       -0.07889608 0.07116814 0.032762293 -0.03592863
000020 d1 82 ac bd a3 2f 32 be c0 20 17 3e c2 2f b1 3c
       -0.08423389 -0.17400984 0.14758587 0.021629218
000030 2c 9f 89 3d 5d b4 cc 3d d5 ac 4b 3d 1c 56 bf bb
       0.06719813 0.09995339 0.049725372 -0.0058391225
000040 f0 05 75 bd 35 0c db 3d 55 73 c5 3d a7 fe 15 be
       -0.059820116 0.10695688 0.096411385 -0.14647923
000050 70 5b d4 bc 66 a9 83 bd ff 51 c4 bd 1e a2 10 3d
       -0.025922507 -0.064287946 -0.09585952 0.035310857
000060 37 b6 55 3d 2c 2b 5c 3c c5 33 d5 3d a1 31 a7 3d
       0.052175727 0.013438027 0.10410265 0.08163763
000070 17 7d 25 3e 59 d1 5d bd 66 73 ef bb 0f e5 85 bc
       0.16160999 -0.054154728 -0.0073074577 -0.016344575
000080 18 03 86 3b a6 53 ed bd 58 bf 96 3d a7 d1 88 3c
       0.0040897243 -0.1158822 0.07360715 0.016701533
000090 33 d9 13 3e 58 40 28 be b6 aa f9 3d 7f b6 c4 b9
       0.14438324 -0.16430795 0.12190764 -0.00037520003

fc5.weight f4 [1, 40]
000000 11 6c 1e be 59 62 03 3e bc 95 c8 bc df 13 05 ba
       -0.15470912 0.12830485 -0.024485461 -0.00050765084
000010 ec 9d 6b bb b4 bd e1 bb cd 5c 45 3a 20 bd d0 bd
       -0.0035952283 -0.0068890695 0.0007528782 -0.10192323
000020 f1 44 6b bd 83 95 3d 3a 1d 5d 6c 3d e4 9e 34 bd
       -0.057438795 0.0007232057 0.057705987 -0.044096842
000030 1e 37 f0 bc 93 08 0a 3a 9a 1f b4 3d 3a f0 b6 bc
       -0.029323157 0.000526556 0.0879509 -0.022331346
000040 3a fa b8 bd 37 0e 0c be d1 f8 d6 3b 4b e0 16 be
       -0.09032102 -0.13677298 0.006560423 -0.14733998
000050 26 ed 1a 3e 9a fc 58 b9 ba 9a 6b 3d 8a 59 50 ba
       0.15129527 -0.00020693467 0.057520606 -0.00079479127
000060 35 60 37 bc 9f d5 1d ba 6a 4f 35 3b da e3 8e 3d
       -0.011192371 -0.0006020907 0.0027665743 0.06977053
000070 74 88 83 be 63 66 ed 3c 1b 9a 46 3a 31 f4 0d 3d
       -0.25690043 0.028979486 0.0007576064 0.034656707
000080 e2 38 bf 3d 35 31 98 3d 32 49 f0 bd ee e1 27 be
       0.093370214 0.074312605 -0.11732711 -0.16394779
000090 67 37 15 bd 30 bd a2 bd 6f 51 33 3d 5b c1 db bc
       -0.03642979 -0.07946241 0.043778833 -0.026825598
