Other_Python/Reoptimize/trained_model.pth (torch, 27151 bytes, 10 tensors)

lstm.weight_ih_l0 f4 [80, 10]
0	0x3f5cf0a1	0.8630467
1	0xbe718894	-0.23587257
2	0xbe48d789	-0.1961347
3	0xbd6e1338	-0.058123797
4	0x3efcc144	0.493662
5	0xbe5b3abc	-0.21409124
6	0xbcf1a4c0	-0.029497504
7	0x3e00ad93	0.12566213
8	0x3ec504cf	0.3848023
9	0x3b011588	0.0019696672
10	0x3db8b8da	0.09019633
11	0xbe91a8bd	-0.2844905
12	0xbec25cb9	-0.37961367
13	0xbe8bf32d	-0.27333966
14	0xbf34cf7b	-0.7062909
15	0x3f963684	1.1735387
16	0xbda39272	-0.079869166
17	0x3f7c15e7	0.9847092
18	0x3f67e76e	0.9058751
19	0x3ee1fe5a	0.44139367
20	0x3eb64cac	0.3560537
21	0x3ee99845	0.45623985
22	0x3f832efc	1.0248713
23	0xbe8c1f1f	-0.27367494
24	0x3f0d6655	0.5523427
25	0xbe9ba987	-0.30402777
26	0x3e80f711	0.25188497
27	0xbeef0007	-0.46679708
28	0xbe622305	-0.22083671
29	0xbf46dc8a	-0.77680266
30	0x3f220eb7	0.63303703
31	0x3eb67fde	0.3564443
32	0x3e9070c5	0.28211036
33	0x3f70aa10	0.94009495
34	0x3f369926	0.71327436
35	0xbf297731	-0.66197497
36	0x3f1e24d3	0.6177494
37	0x3e1283a8	0.14308035
38	0x3e900368	0.281276
39	0x3ee18170	0.44044065
40	0x3f189462	0.59601414
41	0x3f0b470d	0.5440529
42	0xbf14db6d	-0.5814732
43	0xbe93c879	-0.28863886
44	0xbeb1d302	-0.347313
45	0xbeb8e90d	-0.36115304
46	0xbf10d541	-0.565754
47	0xbf380632	-0.71884453
48	0x3ea5bbe0	0.323699
49	0x3e926370	0.2859149
50	0x3f325486	0.6966022
51	0x3cc94e2f	0.024573414
52	0xbe466f0c	-0.19378299
53	0xbead9092	-0.3389936
54	0x3f435bff	0.7631225
55	0x3d84235a	0.06452055
56	0xbcf8627a	-0.030320395
57	0xbe7e0521	-0.24806644
58	0x3f85b46f	1.0445689
59	0x3e246369	0.16053547
60	0xbea9d170	-0.331676
61	0x3e5824fa	0.21107855
62	0xbe92c69b	-0.2866715
63	0xbe8c69d3	-0.27424487
64	0x3f221135	0.63307506
65	0x3f60a6f6	0.8775476
66	0xbf01d92d	-0.5072201
67	0xbef3a377	-0.4758565
68	0xbf63235c	-0.8872583
69	0x3edf8865	0.43658748
70	0xbe86cfb9	-0.26330355
71	0x3f13f1a8	0.57790613
72	0x3f80a262	1.0049555
73	0x3e04a471	0.12953354
74	0xbebf0d97	-0.37315056
75	0xbf569a1e	-0.83828914
76	0x3f4aeca3	0.7926733
77	0xbf3f0db6	-0.74630296
78	0x3f486250	0.7827501
79	0x3f08102d	0.5314968
80	0x3df5b01e	0.11996482
81	0xbe8b1ec5	-0.27171913
82	0xbf4d7122	-0.8025075
83	0xbd474e8e	-0.0486589
84	0xbf21caa3	-0.63199824
85	0x3ea39b41	0.31954387
86	0xbec3e786	-0.38262576
87	0x3f0e3ab1	0.55558306
88	0xbe8a5109	-0.2701495
89	0x3f4b3384	0.7937548
90	0x3f4ea7aa	0.80724585
91	0xbef371f5	-0.4754788
92	0xbedb8a7e	-0.428791
93	0xbf266037	-0.6499056
94	0x3b87434f	0.004127897
95	0xbe0e6a4b	-0.13907735
96	0xbf0ec2b3	-0.5576584
97	0x3e488567	0.19582139
98	0xbf2630b5	-0.6491807
99	0xbf36f707	-0.71470684
100	0x3ec7dc42	0.3903523
101	0x3e6fa215	0.23401673
102	0xbd12523f	-0.035722967
103	0xbf58e711	-0.8472758
104	0x3ea3125e	0.3184995
105	0x3e4899e9	0.19589962
106	0x3f6701d2	0.9023715
107	0x3e76d9dc	0.24106544
108	0x3c028712	0.007966774
109	0xbed0bcd8	-0.40769076
110	0x3dfd2602	0.12360765
111	0x3ee777b0	0.45208502
112	0x3d82338d	0.06357489
113	0x3e8a338b	0.2699245
114	0x3eba5fe0	0.36401272
115	0xbe01c63a	-0.12673274
116	0x3f190520	0.59773445
117	0x3f76b4b3	0.96369475
118	0xbeef7ca0	-0.4677477
119	0x3f932d48	1.1498194
120	0xbf15051a	-0.5821091
121	0x3e86cadd	0.26326647
122	0x3dca265e	0.09870599
123	0x3f002703	0.5005953
124	0x3f7c1f1f	0.9848499
125	0x3e571638	0.2100457
126	0x3e7f8135	0.24951632
127	0x3e4df150	0.20111585
128	0xbdf87b5d	-0.12132905
129	0x3f3978d2	0.7244998
130	0xbf21692e	-0.63051116
131	0x3f3f8b89	0.7482229
132	0xbf697ce8	-0.91206217
133	0xbe1e44f1	-0.15455987
134	0x3d43ffea	0.04785148
135	0xbdcb1c89	-0.09917552
136	0xbe7a6072	-0.24450853
137	0x3f015929	0.5052667
138	0x3f5ebaf2	0.87004006
139	0x3e4864fe	0.19569775
140	0x3f0a2c98	0.53974295
141	0x3e9b8ead	0.3038229
142	0xbeec7b52	-0.46187836
143	0x3e846ee4	0.25865853
144	0x3d4c1e6d	0.049833704
145	0x3e890bb5	0.26766744
146	0x3f733365	0.95000297
147	0xbf231e0b	-0.63717717
148	0xbe0d6978	-0.13809764
149	0x3f88e46a	1.0694706
150	0xbf11eb5c	-0.56999755
151	0xbecd3f0b	-0.4008716
152	0x3edd1643	0.43181047
153	0xbec8f75a	-0.39251214
154	0xbe519006	-0.20465097
155	0xbd0b5cc7	-0.034024026
156	0x3f602c2f	0.8756742
157	0x3ec1a481	0.3782082
158	0xbef32190	-0.47486544
159	0x3eb8d03a	0.36096364
160	0x3f1ea619	0.61972195
161	0x3c872c07	0.016500486
162	0xbe3c518b	-0.18390481
163	0xbb8ed260	-0.0043585747
164	0xbef450a8	-0.47717786
165	0xbef9bf32	-0.48778683
166	0x3ed9da14	0.42549193
167	0xbf4803f4	-0.7813103
168	0x3e312754	0.17300159
169	0xbf300779	-0.687614
170	0x3f2547e6	0.64562833
171	0xbeec914a	-0.46204597
172	0xbf11efc8	-0.570065
173	0xbf2d6062	-0.67725194
174	0xbe562ba7	-0.2091509
175	0x3f20915f	0.6272182
176	0xbea56afb	-0.32308182
177	0xbd9a4fdc	-0.07534763
178	0xbdb4aa56	-0.088215515
179	0x3f2dc574	0.67879415
180	0x3ed1f8f7	0.41010258
181	0x3eb62e12	0.35582024
182	0x3f1a2250	0.60208607
183	0xbf3743de	-0.7158793
184	0x3f8e60a5	1.1123244
185	0xbed1a094	-0.40942824
186	0x3dfab64b	0.12241801
187	0xbd2ffeac	-0.042967483
188	0x3ec362b1	0.38161233
189	0x3eef96e4	0.46794808
190	0xbee64d6d	-0.44980946
191	0x3f809cf1	1.0047895
192	0xbe539324	-0.20661598
193	0xbeda3d4a	-0.42624885
194	0xbe2b2796	-0.1671432
195	0xbe082311	-0.13294627
196	0xbdb8f32c	-0.09030756
197	0x3e906110	0.28199053
198	0x3f099be7	0.53753513
199	0x3f38a996	0.7213377
200	0x3e102c4b	0.14079396
201	0x3e5fb992	0.21848133
202	0xbe2876ca	-0.16451564
203	0x3d4a78de	0.049431674
204	0xbddb7457	-0.107155494
205	0xbd86df64	-0.06585577
206	0x3d7d4320	0.061831594
207	0xbe4150b8	-0.18878448
208	0x3deeca16	0.116596386
209	0x3d6dbec7	0.058043268
210	0x3db1e7ff	0.08686828
211	0xbe58f676	-0.21187767
212	0xbd55dd7b	-0.052213173
213	0xbcca3bf6	-0.024686795
214	0xbe17caa9	-0.14823402
215	0x3d8f1ee2	0.06988312
216	0xbdc8107b	-0.097687684
217	0xbdcbfa27	-0.09959822
218	0xbe2e72b1	-0.17035939
219	0x3d91c217	0.07117098
220	0xbdbcebb1	-0.09224642
221	0xbdf3d12b	-0.1190513
222	0x3e216a23	0.15763144
223	0xbd8c25c4	-0.06843141
224	0xbe4bbab3	-0.19895439
225	0xbda5e848	-0.08100945
226	0x3ca691a6	0.020333122
227	0xbe140764	-0.14455944
228	0x3d264b9a	0.040599443
229	0x3be81bee	0.0070834076
230	0x3bb0f7a2	0.005400614
231	0xbe1c0d93	-0.15239553
232	0xbe1311fd	-0.1436233
233	0x3e2444b7	0.16041838
234	0x3df2df53	0.11859002
235	0xbe05d38f	-0.13068984
236	0x3d115d66	0.035489462
237	0x3e0557b7	0.13021742
238	0xbe432428	-0.19056761
239	0xbe4a61f9	-0.19763936
240	0xbd9ef05f	-0.07760691
241	0xbe642449	-0.22279467
242	0x3ddcfbf2	0.10790242
243	0x3e4488b6	0.19192776
244	0x3e2b968c	0.16756648
245	0xbc7a9773	-0.015294897
246	0xbdd8199b	-0.10551759
247	0xbbe64706	-0.0070275096
248	0x3e056752	0.13027695
249	0x3e2e1d4f	0.17003368
250	0xbe2e8436	-0.17042622
251	0xbe4028be	-0.18765542
252	0xbe32ef55	-0.1747411
253	0x3e33733a	0.17524424
254	0x3d9e10bd	0.07718036
255	0xbd4b23a5	-0.04959454

lstm.weight_hh_l0 f4 [80, 20]
0	0x3dba5ac6	0.09099345
1	0x3e5dba01	0.21652986
2	0x3e09ca6b	0.13456123
3	0x3e106324	0.14100319
4	0xbdb89709	-0.09013183
5	0x3e543016	0.20721468
6	0xbe5dee63	-0.21672969
7	0xbe5a54bc	-0.21321386
8	0x3ca1ae11	0.019736322
9	0xbe54d024	-0.20782524
10	0x3e322a30	0.17398906
11	0x3dbf30bb	0.093354665
12	0xbde07e5f	-0.109616034
13	0xbcca00df	-0.024658618
14	0x3d6edb11	0.058314387
15	0xbe05eb87	-0.13078128
16	0xbe0e0f25	-0.13872965
17	0x3d985fc2	0.07440139
18	0x3ce2b1ae	0.027672615
19	0xbdcae8f6	-0.09907715
20	0x3e35aaa3	0.17740874
21	0xbe4e18f9	-0.20126714
22	0xbd695415	-0.056964952
23	0x3d81cad3	0.06337514
24	0x3dea0d0c	0.1142827
25	0x3e0f903b	0.14019863
26	0xbc3f3ae8	-0.011671759
27	0xbe134245	-0.14380749
28	0xbdbb6701	-0.09150506
29	0x3e434d6d	0.19072504
30	0xbe285529	-0.16438736
31	0xbe646171	-0.22302796
32	0xbdbf627c	-0.09344956
33	0x3e042c3c	0.12907499
34	0x3c077b51	0.008269147
35	0xbdbe66ca	-0.09296949
36	0x3e628797	0.22122036
37	0xbd9fb496	-0.07798116
38	0x3c3a0652	0.011354046
39	0xbdbe32f7	-0.092870645
40	0x3dac9cde	0.084283575
41	0x3700cc2a	7.67693e-06
42	0xbdd5bc63	-0.104363225
43	0xbd1716c0	-0.03688693
44	0x3e4b0597	0.19826351
45	0xbe104dc4	-0.14092165
46	0x3a1af045	0.0005910437
47	0x3e394321	0.18092014
48	0x3d1c7ea0	0.038206697
49	0x3e604392	0.21900776
50	0x3d568741	0.052375082
51	0x3d04ffe8	0.032470614
52	0x3d6ddf09	0.05807403
53	0xbd9d185a	-0.0767066
54	0x3e51c219	0.20484199
55	0xbe0b1f14	-0.13586074
56	0x3e187793	0.14889364
57	0x3dabbc13	0.08385482
58	0x3da17b60	0.0788486
59	0xbe1078bb	-0.14108555
60	0x3d2fc7e4	0.04291524
61	0xbe5a030c	-0.21290225
62	0x3e14c31c	0.14527553
63	0xbdd12d82	-0.10213758
64	0xbd775d5c	-0.06039177
65	0xbe31c22a	-0.17359224
66	0xbc8bc2ef	-0.017060725
67	0xbdf8c0c5	-0.12146143
68	0xbe0ff875	-0.14059623
69	0xbe0d6e68	-0.13811648
70	0x3e535ccc	0.20640868
71	0xbdc8a7ee	-0.09797655
72	0xbe29d34c	-0.1658451
73	0x3db0b60b	0.08628472
74	0xbe53a6a0	-0.20669031
75	0x3e10969c	0.14119953
76	0x3e514a49	0.20438494
77	0xbe305d91	-0.17223193
78	0x3d967b22	0.073477045
79	0x3ca34d87	0.019934429
80	0x3da300ad	0.07959113
81	0x3e4427d1	0.19155814
82	0xbe3be3b0	-0.18348575
83	0xbdccfaa5	-0.10008744
84	0xbe52c580	-0.20583153
85	0x3cd8bc00	0.026456833
86	0x3e335ef1	0.17516686
87	0xbe51f2eb	-0.20502822
88	0xbb08157e	-0.0020764763
89	0x3d910cd1	0.07082523
90	0x3d7ee85f	0.062233325
91	0x3e1a24a2	0.15053037
92	0xbe24851f	-0.16066407
93	0xbe33af39	-0.17547311
94	0xbba5de42	-0.0050618956
95	0x3e2eea7e	0.17081639
96	0x3d00ce51	0.03144676
97	0xbd1ac218	-0.03778276
98	0xbdee4d50	-0.1163584
99	0x3da6c529	0.08143074
100	0xbe2ecaec	-0.17069596
101	0x3e38ff35	0.18066104
102	0xbe5cfc3a	-0.21580592
103	0x3e296dae	0.16545746
104	0x3ca52cff	0.020163057
105	0x3e203c02	0.15647891
106	0xbe541033	-0.20709305
107	0x3d81ca4f	0.063374154
108	0xbdcb1405	-0.09915928
109	0x3dbfb896	0.09361379
110	0xbe5d08a6	-0.2158533
111	0x3db6052f	0.088877074
112	0x3e5b41b9	0.2141179
113	0x3d80eb49	0.06294877
114	0x3dc6739b	0.09690019
115	0xbd361467	-0.04445305
116	0x3cd8c573	0.026461339
117	0xbd176058	-0.036957115
118	0xbda5b0de	-0.08090375
119	0x3dd652c7	0.10465007
120	0x3dff5663	0.12467649
121	0x3e5c5b1e	0.21519133
122	0xbd3df5ac	-0.04637687
123	0x3da5b028	0.0809024
124	0x3d0d9381	0.0345645
125	0xbda3a5e1	-0.07990623
126	0x3e3570a3	0.17718749
127	0x3e56828b	0.20948236
128	0x3de7a6c9	0.113111086
129	0xbdb2f879	-0.08738799
130	0x3d200232	0.039064594
131	0xbdd6ca19	-0.10487766
132	0xbde5a7a6	-0.11213617
133	0x3ddbd9d8	0.1073491
134	0xbe59223f	-0.2120447
135	0x3e0ad516	0.13557848
136	0x3e3e3324	0.18574196
137	0x3e07737b	0.13227646
138	0x3d375e72	0.044767804
139	0x3deec593	0.11658778
140	0xbc71d253	-0.014759618
141	0xbd719d06	-0.05898764
142	0xbd204d13	-0.039136004
143	0xbded78f9	-0.11595339
144	0xbe433b11	-0.19065501
145	0x3d8f879d	0.07008288
146	0x3e306b57	0.17228447
147	0x3e347330	0.17622066
148	0xbd9609e4	-0.07326105
149	0xbdf65ee9	-0.120298214
150	0x3d75561e	0.05989658
151	0xbce6f802	-0.028194431
152	0x3db26fb6	0.087127134
153	0x3d6b2492	0.057407923
154	0x3dd70a22	0.104999796
155	0x3e1a91e6	0.15094718
156	0xbe2cb5ae	-0.1686618
157	0xbd10b867	-0.03533211
158	0xbd03e0f0	-0.03219694
159	0xbe31d4be	-0.17366311
160	0xbe628da6	-0.22124347
161	0x3d8bca7b	0.068257295
162	0x3e298fe6	0.16558799
163	0xbc7b86ee	-0.015351994
164	0x3e5223c2	0.20521453
165	0xbdf9dab9	-0.12199921
166	0x3e1912e9	0.1494862
167	0xbe0d6622	-0.13808492
168	0x3d7f7fac	0.062377617
169	0xbdcb2ee9	-0.09921057
170	0xbdaf29a5	-0.08552865
171	0xbe430191	-0.19043566
172	0xbe27f3db	-0.16401617
173	0xbd897891	-0.06712449
174	0xbd01ad81	-0.031659607
175	0x3cbacc70	0.022802562
176	0xbd9ef3d3	-0.077613495
177	0xbd74653d	-0.05966686
178	0x3e2a1d65	0.16612776
179	0xbdb2938b	-0.08719548
180	0xbe382089	-0.17981161
181	0xbe1e3f8c	-0.15453929
182	0xbe0f8b38	-0.14017951
183	0xbd2718f5	-0.040795285
184	0x3ddc57a3	0.10758903
185	0xbe16b1e9	-0.14716305
186	0x3e475483	0.19465832
187	0x3d29db87	0.041469123
188	0xbe3eca19	-0.18631782
189	0x3d9c8791	0.07643045
190	0x3d3bde5b	0.04586635
191	0xbdc1f5d5	-0.09470717
192	0x3e63e65e	0.22255847
193	0x3d0e9f86	0.034820102
194	0x3e3f8b39	0.18705453
195	0x3c502aa4	0.012705479
196	0x3e25a9b3	0.16178016
197	0xbd788140	-0.060670137
198	0xbe131047	-0.14361678
199	0xbe0c7233	-0.13715439
200	0x3c8982b2	0.016785953
201	0xbc232d54	-0.009959538
202	0x3e403430	0.18769908
203	0xbe4ba79a	-0.19888154
204	0x3e345b0f	0.17612861
205	0xbdee144f	-0.11624967
206	0xbda6be82	-0.08141805
207	0x3dabc7c9	0.08387715
208	0x3e127cbf	0.143054
209	0xbd8ee08d	-0.069764234
210	0xbe2f3a94	-0.1711219
211	0xbe21f39a	-0.15815583
212	0xbdbc4765	-0.09193305
213	0x3dff47ac	0.12464842
214	0x3c93b2d9	0.018029617
215	0xbdc7538c	-0.09732732
216	0xbe2d904b	-0.16949575
217	0xbe4d1a2b	-0.20029514
218	0xbe52982a	-0.20565858
219	0xbd6b4476	-0.057438336
220	0xbe523103	-0.20526509
221	0x3e3591ab	0.17731349
222	0x3d9de32e	0.07709347
223	0xbd63c90c	-0.055611655
224	0x3e14edbc	0.14543813
225	0x3d536120	0.051606297
226	0x3d1e353a	0.03862498
227	0x3deb3fc4	0.11486772
228	0x3d66e64a	0.056371965
229	0x3e3a3c31	0.18187024
230	0x3ba42eb3	0.00501045
231	0x3ca5e91b	0.020252755
232	0x3d1eca92	0.038767405
233	0xbd2e54bb	-0.042561274
234	0xbc40d500	-0.011769533
235	0x3e0ff811	0.14059474
236	0xbe225ed2	-0.15856484
237	0xbcd87df3	-0.026427245
238	0xbd7403e2	-0.059574015
239	0x3d984800	0.07435608
240	0xbe5e9a83	-0.21738629
241	0x3e4d0118	0.20019948
242	0xbd63d78e	-0.05562549
243	0xbe3c5f9f	-0.18395852
244	0xbd8c877f	-0.06861781
245	0xbe0f962b	-0.14022128
246	0xbce3be91	-0.02780083
247	0xbe0784d3	-0.13234262
248	0x3db637c2	0.08897354
249	0xbe631497	-0.22175823
250	0xbddd0df6	-0.107936785
251	0x3dc0d2a0	0.094151735
252	0x3ce3f364	0.027826019
253	0x3e3e1533	0.18562774
254	0xbe0a18cd	-0.13486023
255	0xbd499ac5	-0.049219865

lstm.bias_ih_l0 f4 [80]
0	0x3f3e059e	0.7422732
1	0x3e44c1f3	0.19214611
2	0x3f0652ee	0.5247029
3	0x3e1a4c03	0.15068059
4	0x3f02485d	0.5089167
5	0x3f334185	0.7002185
6	0x3f09a1d6	0.5376257
7	0x3c7c0365	0.015381669
8	0x3f68897c	0.90834785
9	0x3f30c633	0.6905243
10	0x3f158867	0.5841126
11	0x3ed70091	0.4199262
12	0x3efa774c	0.4891914
13	0x3f35179d	0.70739156
14	0x3efe29e2	0.4964133
15	0x3f2f79f5	0.68545467
16	0x3ea155ae	0.3151068
17	0x3f6a6e5a	0.91574633
18	0x3ebd5b7c	0.3698386
19	0x3d638849	0.055549894
20	0xbdead612	-0.11466612
21	0x3da2c4fd	0.07947729
22	0x3cb1951b	0.021677544
23	0x3c9a3ad0	0.018826872
24	0xbd325d92	-0.043546267
25	0x3de5cdf1	0.11220921
26	0x3e28161c	0.16414684
27	0xbbd780b7	-0.0065766233
28	0xbd90f92a	-0.07078774
29	0x3c636807	0.0138797825
30	0xbdb20f48	-0.08694321
31	0xbe44fc88	-0.19236958
32	0x3deae922	0.11470248
33	0xbdacb1b4	-0.08432332
34	0xbdff75fc	-0.124736756
35	0x3dbef1cd	0.093234636
36	0x3e06fc8d	0.13182278
37	0x3e5baa93	0.21451788
38	0x3da83a60	0.08214259
39	0x3d53b589	0.051686797
40	0x3f2da9e6	0.6783737
41	0x3f12176e	0.57067
42	0x3e9a8cbc	0.30185497
43	0xbeb13c4c	-0.34616315
44	0xbedb02a7	-0.4277546
45	0x3ed7201b	0.42016682
46	0x3e538c90	0.20659089
47	0x3df6b540	0.120462894
48	0xbe78377e	-0.24239919
49	0x3cb8d925	0.02256448
50	0xbe9f8d39	-0.31162432
51	0x3e81904a	0.25305396
52	0x3dbc0af6	0.09181778
53	0xbea01697	-0.31267235
54	0x3cc34317	0.023835702
55	0xbea428ce	-0.32062382
56	0xbeae9c4f	-0.3410363
57	0x3e9dfc5c	0.30856597
58	0x3d1f38d7	0.038872566
59	0xbec0b51d	-0.37638178
60	0x3f256627	0.64609
61	0x3c364c4d	0.01112659
62	0x3e64f141	0.22357656
63	0x3ea07537	0.31339428
64	0x3e44de43	0.19225411
65	0x3eb88a9c	0.3604325
66	0x3f0584fb	0.5215604
67	0x3eb61e54	0.35570014
68	0x3f18aeb2	0.59641564
69	0x3ee3a0fe	0.44458765
70	0x3e833f46	0.2563421
71	0x3eff2a0d	0.4983677
72	0x3f1c8f58	0.61156225
73	0x3f6b8b19	0.9200912
74	0x3f32307a	0.6960522
75	0xbddde99a	-0.108355716
76	0x3e97034b	0.294947
77	0x3e9bd694	0.30437148
78	0x3eb83f55	0.35985819
79	0xbba7c5ee	-0.0051200306

lstm.bias_hh_l0 f4 [80]
0	0x3f50c270	0.8154669
1	0x3df5c228	0.11999923
2	0x3ec514f6	0.38492554
3	0xbe3c5827	-0.18393002
4	0x3f04ac13	0.51825064
5	0x3f11c790	0.56945133
6	0x3f26492d	0.6495541
7	0x3c84b461	0.016199293
8	0x3f3ba778	0.7330241
9	0x3eb6047f	0.35550305
10	0x3ea58d52	0.3233438
11	0x3e97a7dd	0.29620257
12	0x3ef21126	0.47278708
13	0x3f02eae9	0.51139694
14	0x3f09d949	0.53847176
15	0x3f23730f	0.6384744
16	0x3e706f7d	0.2348003
17	0x3f17ed15	0.59346133
18	0x3dc9b64f	0.09849226
19	0x3e6314fe	0.22175977
20	0xbcc448dd	-0.023960525
21	0x3e468e6e	0.1939027
22	0x3de29776	0.11064045
23	0xbe492494	-0.1964286
24	0xbe11718b	-0.1420347
25	0x3a9e0c4f	0.0012058112
26	0x3ca7d6ff	0.02048826
27	0xbe3f56b8	-0.18685424
28	0xbd9d1c3d	-0.07671402
29	0x3d882bd3	0.06648984
30	0xbe12da7d	-0.14341159
31	0x3d583f6d	0.052794863
32	0x3dec2f9d	0.11532519
33	0x3ba761fe	0.005108117
34	0xbe47042c	-0.19435185
35	0xbe245cf9	-0.16051091
36	0xbc8e7205	-0.017388353
37	0x3e3073d2	0.17231682
38	0x3d7c9c49	0.061672483
39	0xbe0d81a3	-0.13818984
40	0x3effcc1b	0.49960408
41	0x3ebe1b36	0.37130135
42	0x3ecb5f5a	0.39721185
43	0xbeaa14a6	-0.33218879
44	0xbc75f8a6	-0.015012896
45	0x3f1ceedf	0.6130199
46	0xbcfe1ef2	-0.031020615
47	0x3e84a106	0.259041
48	0xbe96d980	-0.29462814
49	0xbdac2d14	-0.084070355
50	0xbf1147c8	-0.56750154
51	0x3e6d3ef6	0.23168549
52	0xbcca5399	-0.024698066
53	0xbe467d96	-0.19383845
54	0x3e593f9e	0.21215674
55	0xbdb043f6	-0.086067125
56	0xbe23145c	-0.15925735
57	0x3f168244	0.5879252
58	0xbdc19864	-0.09452894
59	0xbef4e4d1	-0.47830823
60	0x3f2a7125	0.66578895
61	0x3de3fd45	0.11132292
62	0x3e472923	0.19449286
63	0x3eb7824a	0.3584159
64	0x3eabc069	0.33545235
65	0x3f3de976	0.7418436
66	0x3f041ee3	0.5160963
67	0x3e89de4e	0.26927418
68	0x3f0d93cb	0.5530364
69	0x3ebd01d6	0.36915463
70	0x3e64bbb2	0.22337225
71	0x3ec573ad	0.38564816
72	0x3f014995	0.505029
73	0x3f4cd49f	0.80011934
74	0x3f21d465	0.63214713
75	0xbe18e11e	-0.14929625
76	0x3e52dbbc	0.20591635
77	0x3d30d58f	0.043172415
78	0xbc5db82e	-0.013532681
79	0x3d5f7bc6	0.0545614

lstm.weight_ih_l1 f4 [80, 20]
0	0x3ed7e141	0.42164043
1	0x3f6623e2	0.898985
2	0x3dcc3b56	0.09972255
3	0x3f4002a3	0.75004023
4	0x3e61d9c3	0.22055726
5	0xbe861dc1	-0.26194575
6	0x3ee050bd	0.43811598
7	0x3d946ebc	0.072476834
8	0x3f005076	0.50122774
9	0x3f01c8de	0.50697124
10	0x3e8bf4bd	0.27335158
11	0x3ec39ec9	0.3820708
12	0xbe6201c6	-0.22070989
13	0x3d363fc9	0.044494424
14	0x3f6ccd98	0.9250121
15	0x3ead322f	0.3382735
16	0x3e89c0a7	0.26904795
17	0x3f3a9046	0.72876394
18	0xbd3782c7	-0.044802453
19	0x3f038d30	0.5138731
20	0x3f32e7d4	0.6988499
21	0x3eaa710a	0.33289367
22	0xbe1cd62b	-0.15316074
23	0x3e04ef2c	0.12981862
24	0xbdc8fd91	-0.09813989
25	0x3e425188	0.18976414
26	0xbf1ff3e3	-0.62481517
27	0x3ea19abd	0.31563368
28	0x3e507ba6	0.20359668
29	0x3e11ab3a	0.14225474
30	0xbeaf432c	-0.34230936
31	0xbeeea0f2	-0.46607167
32	0xbf77a5b2	-0.96737206
33	0xbf2e7c78	-0.68158674
34	0x3f0e1a0e	0.55508506
35	0xbec13e79	-0.37742975
36	0xbe886fb3	-0.2664772
37	0x3f6494e4	0.8928969
38	0xbdaf3d7a	-0.085566476
39	0xbe0569ba	-0.13028613
40	0x3f3dd325	0.74150306
41	0xbf2a18db	-0.66444176
42	0x3eb0c7bb	0.34527382
43	0x3e9efc54	0.31051886
44	0xbbe2945a	-0.0069146575
45	0x3ef00161	0.46876052
46	0x3f1c61e7	0.6108689
47	0x3f1e4d54	0.61836743
48	0xbefbbd06	-0.4916765
49	0x3e043206	0.12909707
50	0xbed4bdd1	-0.41551068
51	0xbab9c7e0	-0.0014173947
52	0xbf48c818	-0.7843032
53	0x3e9242c3	0.2856656
54	0x3ed108cd	0.40827027
55	0x3f063cff	0.5243682
56	0xbda10de7	-0.0786398
57	0x3eae7d4f	0.34079978
58	0x3db18c15	0.08669297
59	0x3f0a1d9d	0.53951436
60	0xbdfa423e	-0.12219666
61	0x3f91db64	1.1395078
62	0xbe25beb7	-0.16186033
63	0x3f5665b4	0.83748937
64	0x3e441158	0.19147241
65	0xbf2b72a0	-0.6697178
66	0x3efdfb83	0.4960595
67	0xbf025c4f	-0.509221
68	0x3f03e1e8	0.5151658
69	0x3f2075bd	0.62679654
70	0x3e92da1c	0.2868203
71	0xbc9a3788	-0.018825307
72	0xbf475127	-0.77858204
73	0xbebd5709	-0.36980465
74	0x3e795bb5	0.2435139
75	0xbeaca7ee	-0.3372187
76	0x3f548cdb	0.8302743
77	0x3f8e48fb	1.1116022
78	0x3c149a5a	0.009070003
79	0x3e422c09	0.1896211
80	0x3edd2752	0.43194062
81	0x3f86ab0e	1.0520952
82	0xbe316cbd	-0.17326637
83	0xbec4c850	-0.38434076
84	0x3f1618fc	0.58631873
85	0x3ee5eb6c	0.44906175
86	0x3eaab829	0.33343628
87	0xbe02393a	-0.12717143
88	0xbf3e22f5	-0.7427209
89	0xbf1e8179	-0.6191631
90	0xbe0863e1	-0.13319351
91	0xbe66f1b5	-0.22553141
92	0xbf6bf831	-0.92175585
93	0x3f0f354d	0.55940706
94	0x3e82a237	0.25514385
95	0xbf2a34e5	-0.6648696
96	0x3e4bbb50	0.19895673
97	0x3e9ebc77	0.31003162
98	0x3dc2efd6	0.09518401
99	0x3e9cf98d	0.30659142
100	0x3f3a3052	0.7272998
101	0xbe5a20da	-0.21301594
102	0x3f1cc9e6	0.6124557
103	0x3ddb1f77	0.10699361
104	0xbdb6d600	-0.08927536
105	0x3dafe5f9	0.08588786
106	0x3e95e24f	0.29274222
107	0x3ea9b690	0.33147097
108	0xbf21b7f3	-0.6317131
109	0x3e5ae5df	0.21376751
110	0xbdbff648	-0.09373146
111	0x3d9a129f	0.07523083
112	0xbebdb65d	-0.37053195
113	0x3e81e25f	0.2536802
114	0x3f2b3029	0.6687036
115	0x3e8936c4	0.26799595
116	0xbe9ec989	-0.31013134
117	0xbf3991b5	-0.72487956
118	0x3e4fa0e0	0.20276213
119	0xbe08d3e0	-0.13362074
120	0xbe61ed8c	-0.22063273
121	0x3e508c87	0.20366107
122	0xbe8acb78	-0.2710836
123	0x3ece924d	0.40345994
124	0x3f17d9d1	0.59316736
125	0xbe6d2d51	-0.23161818
126	0xbf39f027	-0.7263207
127	0x3e3fb760	0.18722296
128	0xbf793b7a	-0.9735638
129	0xbe7f5e32	-0.24938276
130	0x3e430ee4	0.19048649
131	0xbf8b0fb4	-1.0864167
132	0xbf416548	-0.7554517
133	0x3eb17a6f	0.34663722
134	0x3f093862	0.5360166
135	0xbe8f07b1	-0.27935556
136	0xbf232fd8	-0.6374488
137	0x3f2810f9	0.656509
138	0x3eb8bf9f	0.36083695
139	0x3ef081c1	0.46973994
140	0x3f88bf5a	1.0683396
141	0x3f0ffa25	0.56241065
142	0x3eb6968c	0.35661733
143	0x3ef5e6a8	0.4802754
144	0xbcabcd4b	-0.020971915
145	0x3f2a463f	0.6651344
146	0x3f4eb670	0.8074713
147	0x3f739a10	0.95156956
148	0x3f478b3b	0.77946824
149	0x3f5dcaa5	0.86637336
150	0xbf52be93	-0.82322043
151	0xbf32d5bf	-0.698574
152	0xbedbdd98	-0.429425
153	0x3bff0f69	0.0077838195
154	0x3f203d58	0.62593603
155	0x3e22ee24	0.15911156
156	0x3dfccdff	0.12343978
157	0x3ee3e169	0.44507912
158	0xbf5f1fb3	-0.87157744
159	0x3f147fa5	0.5800727
160	0x3e9b3b52	0.30318695
161	0xbf036322	-0.5132314
162	0x3ebc507d	0.36780158
163	0x3e9fb9cf	0.31196448
164	0xbd24cfb8	-0.04023716
165	0x3f44ec7f	0.76923364
166	0x3f4314b2	0.76203454
167	0x3ee668b9	0.45001772
168	0xbf5416fd	-0.8284758
169	0x3cdcb5fc	0.026942246
170	0x3e8b26ad	0.27177945
171	0xbe363a88	-0.17795765
172	0xbf93686c	-1.1516242
173	0x3e9de3ec	0.30837953
174	0x3f6b1235	0.91824657
175	0x3dd7c51e	0.10535644
176	0xbd0203b9	-0.03174183
177	0xbf1fd93f	-0.62440866
178	0xbe992eb0	-0.29918432
179	0x3f4760b9	0.7788196
180	0x3f2be75f	0.6714992
181	0x3f064ecc	0.52463984
182	0x3e38ea7c	0.18058199
183	0x3eea4867	0.45758364
184	0xbe9e867b	-0.30961975
185	0x3ec36e3b	0.38170037
186	0x3ec9e12e	0.3942961
187	0x3ec081cb	0.37599024
188	0xbef0dcdf	-0.4704351
189	0xbe503d92	-0.20335987
190	0x3d8f1a94	0.06987491
191	0xbf174ead	-0.59104425
192	0xbf0a2ac2	-0.53971493
193	0x3f0eee33	0.55832213
194	0x3ed9a720	0.4251032
195	0xbe899456	-0.26870984
196	0xbde78a21	-0.11305643
197	0x3f8543fa	1.041137
198	0x3dbc57d8	0.09196442
199	0x3e778491	0.24171664
200	0x3eb15759	0.34636953
201	0x3f689572	0.90853035
202	0x3e78d1b6	0.24298748
203	0xbc1300cc	-0.008972358
204	0x3ceacefa	0.028663147
205	0x3f70d04d	0.9406784
206	0x3f3c5f4a	0.735829
207	0x3c7fb01f	0.015605955
208	0xbf654963	-0.89565104
209	0xbf2c380b	-0.67273015
210	0xbe24e548	-0.16103089
211	0xbf0b95dc	-0.5452554
212	0xbf3d8106	-0.74025
213	0x3f26f77e	0.65221393
214	0x3ec499f0	0.38398695
215	0xbdd25352	-0.10269798
216	0xbe294b19	-0.16532554
217	0xbe90bca4	-0.2826892
218	0xbe132cfb	-0.14372627
219	0x3ee0871e	0.43853086
220	0x3e1b7ca4	0.15184265
221	0x3de1d973	0.11027803
222	0x3e559730	0.20858455
223	0x3b4878fe	0.0030589695
224	0x3ef8d8d6	0.48602933
225	0xbeb093b6	-0.34487695
226	0x3ca19ef3	0.019729113
227	0x3f021f12	0.5082866
228	0xbf879180	-1.0591278
229	0xbc9163af	-0.017747728
230	0xbea63332	-0.32460934
231	0xbe988ab0	-0.2979331
232	0xbe10a17a	-0.14124098
233	0x3eb74e32	0.35801846
234	0x3f3d844d	0.7403
235	0x3f344e82	0.70432293
236	0xbeced0f0	-0.40393782
237	0x3f3f1fb4	0.7465775
238	0x3f09bce0	0.53803825
239	0x3f3e432a	0.74321234
240	0xbf5052ac	-0.8137615
241	0xbedb3ece	-0.42821354
242	0xbd9720f5	-0.07379333
243	0x3e98f13e	0.29871553
244	0x3eeaf1d0	0.45887613
245	0x3eadd4c2	0.33951384
246	0x3f416eb6	0.75559556
247	0xbf47b97a	-0.7801739
248	0xbed44205	-0.4145662
249	0x3ea21034	0.31652987
250	0x3f014d56	0.5050863
251	0xbedd76af	-0.4325461
252	0xbf83d804	-1.0300298
253	0x3dfa8550	0.122324586
254	0x3ea3b7ef	0.31976268
255	0xbf76e7ad	-0.9644726

lstm.weight_hh_l1 f4 [80, 20]
0	0xbdbc1c56	-0.09185092
1	0xbd8299d7	-0.06376999
2	0xbcec1c45	-0.028822074
3	0x3e22c66b	0.15896003
4	0x3e1aa4c9	0.15101923
5	0x3df93ced	0.12169824
6	0x3e54981d	0.20761152
7	0xbd5c5c47	-0.05379894
8	0x3e3145bd	0.1731176
9	0x3e4c0f96	0.1992782
10	0x3c9ad9af	0.018902628
11	0x3dcbc1e0	0.09949088
12	0xbd5f97ae	-0.054588012
13	0xbc8650be	-0.016395923
14	0x3db1af48	0.0867601
15	0x3e572e41	0.21013738
16	0xbda92303	-0.08258631
17	0x3e4b07e6	0.19827232
18	0x3dabe7ca	0.0839382
19	0xbe3ecf4f	-0.1863377
20	0xbd221eb5	-0.039580066
21	0x3e15e6f7	0.14638887
22	0xbe08210d	-0.13293858
23	0xbd938c2d	-0.07204471
24	0x3e5d9c4f	0.21641658
25	0xbd8bba08	-0.06822592
26	0x3e35f031	0.17767407
27	0xbe5dc4b9	-0.21657075
28	0x3d6b6804	0.057472244
29	0x3e11225f	0.14173268
30	0xbe5081c9	-0.20362009
31	0x3d050c99	0.032482717
32	0x3e109a3d	0.14121337
33	0xbe40eb59	-0.18839778
34	0xbb917b0e	-0.004439718
35	0x3d99f75e	0.07517885
36	0x3e48e467	0.19618379
37	0xbe3d2010	-0.18469262
38	0xbe19d0c2	-0.15021041
39	0x3e5ac107	0.21362697
40	0xbe2c43ee	-0.16822788
41	0xbe0e4bf3	-0.1389616
42	0xbda42bbc	-0.08016154
43	0xbdca66fe	-0.098829255
44	0x3d162de4	0.03666486
45	0xbe54301a	-0.20721474
46	0x3c4e0724	0.012574945
47	0x3e0ec014	0.1394046
48	0xbc313d9f	-0.010817914
49	0x3e597a84	0.21238142
50	0xbddcc8cc	-0.107804865
51	0x3e5df589	0.21675695
52	0x3cd527f1	0.026020022
53	0xbdc4d1b9	-0.09610314
54	0xbd2ae488	-0.04172185
55	0x3e02eaa4	0.12784821
56	0x3dcbf599	0.099589534
57	0x3d6667fb	0.056251507
58	0xbdc2333a	-0.09482427
59	0xbdf3283f	-0.11872911
60	0xbda1f65c	-0.079083174
61	0x3e0d2a1d	0.13785596
62	0x3d7a8fbc	0.061172232
63	0x3e0b8e8d	0.13628598
64	0x3de8154e	0.113321885
65	0x3e091d2c	0.13390034
66	0x3dc51c0f	0.096244924
67	0xbda47fec	-0.08032212
68	0xbd8b2d57	-0.06795757
69	0xbdf3a14d	-0.11896
70	0x3e402d83	0.18767361
71	0x3d15138f	0.036395606
72	0x3d9e97ec	0.077438205
73	0xbe4ecf89	-0.20196356
74	0xbe37be8e	-0.17943785
75	0x3c775c54	0.015097696
76	0x3e368369	0.17823566
77	0xbe3c1b73	-0.18369846
78	0xbe3a252a	-0.1817824
79	0xbbc89025	-0.006120699
80	0x3e31a182	0.17346767
81	0xbe4fae43	-0.2028132
82	0x3e5e4d15	0.21709092
83	0xbe5ae7c1	-0.2137747
84	0xbdf740d6	-0.12072913
85	0x3def6e5e	0.11690973
86	0xbe527303	-0.20551686
87	0x3ca12f48	0.019675866
88	0x3df62fcc	0.12020835
89	0xbdffee54	-0.12496629
90	0xbb95d9c2	-0.004573078
91	0xbd9dc7b4	-0.07704106
92	0xbda57540	-0.08079004
93	0x3e55fb0f	0.20896553
94	0x3da606a2	0.08106734
95	0xbd83be72	-0.06432809
96	0x3e04a973	0.12955265
97	0x3e26c2eb	0.16285293
98	0xbc8b2363	-0.016984647
99	0x3e411e5e	0.1885924
100	0x3d0dc692	0.0346132
101	0x3e4edd9d	0.20201726
102	0x3e2429a2	0.16031507
103	0x3c0b59e5	0.008505319
104	0xbd682f86	-0.056685947
105	0x3df2d132	0.11856307
106	0xbdf33537	-0.11875384
107	0x3d88a447	0.066719584
108	0xbd79e7f9	-0.061012242
109	0xbda2a02d	-0.07940707
110	0xbd779387	-0.060443427
111	0x3e182ed5	0.14861615
112	0x3cb46481	0.02202058
113	0xbe08da15	-0.13364442
114	0xbe4db7ec	-0.20089692
115	0x3d9145f2	0.07093419
116	0x3e119d7b	0.1422023
117	0x3d69e074	0.05709882
118	0xbe20b8c8	-0.15695488
119	0x3e2d9dd0	0.16954732
120	0x3d401dd7	0.046903457
121	0xbb4d981f	-0.0031371189
122	0x3e343270	0.17597365
123	0x3d8d4146	0.068972155
124	0x3e0fd6fd	0.14046855
125	0x3cf9b993	0.030483996
126	0x3daf2195	0.08551327
127	0x3c2bfe87	0.010497696
128	0x3e4a0e7a	0.19732085
129	0xbd799a04	-0.060937896
130	0xbd10feba	-0.035399176
131	0x3e3c6acd	0.18400116
132	0x3db5664c	0.08857402
133	0xbd32f95e	-0.043694846
134	0xbe27ab0f	-0.16373847
135	0xbd9d07f6	-0.07667534
136	0x3e0102fb	0.12598793
137	0xbe57b114	-0.21063644
138	0xbd60d276	-0.05488821
139	0x3e24a8dc	0.1608004
140	0x3dd8e7b0	0.10591066
141	0x3e4d5cff	0.20055006
142	0xbd9dab1c	-0.07698652
143	0xbda34c7e	-0.07973574
144	0x3c312ca0	0.010813862
145	0x3e4633d7	0.19355713
146	0xbe0e8f07	-0.13921748
147	0x3cff6ff6	0.031181317
148	0x3e1d78dc	0.15378135
149	0xbdf697f9	-0.12040705
150	0x3dca69f4	0.0988349
151	0xbe624d7b	-0.22099869
152	0x3dbb20e0	0.0913713
153	0x3e03fa10	0.1288836
154	0x3df54ce1	0.11977554
155	0xbe01b106	-0.12665185
156	0xbdc4f9f9	-0.09617991
157	0xbde88289	-0.113530226
158	0xbe409910	-0.18808389
159	0xbe4016dc	-0.1875872
160	0xbe05d990	-0.13071275
161	0xbe1ae286	-0.15125474
162	0x3e00770c	0.12545413
163	0x3df606f3	0.12013044
164	0xbcc94662	-0.024569694
165	0xbe2bd204	-0.16779333
166	0x3d22d8bf	0.039757486
167	0xbdd76e45	-0.10519079
168	0x3cca938f	0.024728565
169	0x3e0bca1e	0.1365132
170	0x3d8ee0d5	0.06976477
171	0x3de5dd26	0.11223821
172	0x3e64804b	0.22314565
173	0x3e140e9e	0.14458701
174	0xbd38471c	-0.04498969
175	0xbdd52bfe	-0.104087815
176	0xbe25b8a1	-0.16183712
177	0xbdd0f855	-0.102036156
178	0x3e37e5ae	0.1795871
179	0xbe1787f7	-0.1479796
180	0xbd9abd09	-0.07555587
181	0x3d63e124	0.055634633
182	0x3ddad5ae	0.106852874
183	0xbe4cd74b	-0.20004003
184	0x3db3e1b9	0.087832876
185	0xbe5b7601	-0.21431734
186	0xbcc4d3d6	-0.024026792
187	0xbe0a9e5d	-0.13536973
188	0xbde1aea8	-0.11019641
189	0xbd83c181	-0.06433392
190	0x3e25bac5	0.16184528
191	0x3dc4bb27	0.09606009
192	0x3cdb31bc	0.026757114
193	0xbba9ca41	-0.0051815812
194	0xbd9c30cb	-0.07626494
195	0xbdbc6ef2	-0.09200849
196	0x3e02c2c8	0.12769616
197	0xbd9d2e5d	-0.07674859
198	0xbe58c263	-0.21167903
199	0xbe118761	-0.14211799
200	0xbdeba200	-0.115055084
201	0xbde2c9df	-0.1107366
202	0x3db57685	0.088604964
203	0xbd5e8924	-0.054330006
204	0xbe2f9e4e	-0.17150232
205	0x3e4ea150	0.20178723
206	0x3d5b555f	0.053548213
207	0x3d543ec6	0.051817678
208	0xbe48a0d5	-0.19592603
209	0xbe5ec24d	-0.21753807
210	0x3e445678	0.1917361
211	0x3e0d1360	0.13776922
212	0xbe3ed3e5	-0.18635519
213	0xbdf1ff5e	-0.118162856
214	0x3dc31eb6	0.09527342
215	0xbe4a1b9c	-0.19737095
216	0xbdb04543	-0.086069606
217	0x3dcd6b17	0.100301914
218	0x3c98cc18	0.018652007
219	0xbdc30a56	-0.09523456
220	0x3db37702	0.08762933
221	0xbdaaed39	-0.08346028
222	0xbdc0cc56	-0.09413974
223	0xbd8f8584	-0.07007888
224	0xbda75da9	-0.08172161
225	0x3e4123da	0.18861333
226	0x3e30ee1f	0.17278336
227	0x3e4bcbfb	0.19902031
228	0x3de3b9b7	0.11119407
229	0xbdae9deb	-0.08526214
230	0xbe167246	-0.1469203
231	0xbd889c30	-0.066704154
232	0x3df98aed	0.12184701
233	0xbd9e95cc	-0.07743415
234	0xbd3ff9fa	-0.046869256
235	0x3c976dfc	0.018485062
236	0xbc39a665	-0.011331175
237	0xbdb83a27	-0.08995467
238	0xbd2dd164	-0.04243602
239	0xbb9fdfa5	-0.0048789554
240	0x3e452d17	0.19255482
241	0x3e419f12	0.18908337
242	0xbd9b3046	-0.07577567
243	0xbca03ac4	-0.019559272
244	0x3e632331	0.22181393
245	0x3d835cd7	0.06414192
246	0xbe3c9f6b	-0.18420188
247	0xbe40e046	-0.18835554
248	0xbd18dae2	-0.037318118
249	0x3d596672	0.053076215
250	0x3e602c22	0.21891835
251	0xbde272f5	-0.110570826
252	0xbe3f7123	-0.18695502
253	0xbd950c72	-0.072777644
254	0x3e2ae881	0.16690256
255	0x3ba9ec77	0.0051856595

lstm.bias_ih_l1 f4 [80]
0	0x3f2e3875	0.68054897
1	0x3f2672cb	0.6501891
2	0x3f323be5	0.6962264
3	0x3f064ae7	0.5245804
4	0x3ee28553	0.44242343
5	0x3ebd0057	0.36914322
6	0x3ee47af6	0.44625062
7	0x3f20ade7	0.62765354
8	0x3f125e6b	0.5717532
9	0x3e834f24	0.25646317
10	0x3e946cda	0.28989297
11	0x3f3ddddf	0.74166673
12	0x3f01dfd4	0.5073216
13	0x3f125bc3	0.5717127
14	0x3f012495	0.50446445
15	0x3f1b9e58	0.6078849
16	0x3f3c0faa	0.734614
17	0x3f2baa6c	0.6705692
18	0x3f5bc09d	0.8584078
19	0x3efe06c3	0.49614534
20	0x3dd27861	0.10276867
21	0x3e24fa05	0.16111
22	0x3e3429bb	0.17594044
23	0x3e29f6c8	0.16598046
24	0x3d1b7ffe	0.03796386
25	0x3c23435a	0.009964788
26	0x3dc94007	0.09826665
27	0xbe2fbe16	-0.17162356
28	0xbe464243	-0.19361214
29	0xbc091733	-0.0083673475
30	0x3e5be004	0.21472174
31	0x3e4b8696	0.19875559
32	0x3e285eb6	0.1644238
33	0x3e108e31	0.14116742
34	0x3dcb459b	0.099253856
35	0x3e1fb872	0.15597704
36	0xbe077af2	-0.13230494
37	0x3dd6d6ca	0.104901865
38	0xbe4e529a	-0.20148697
39	0xbbeac82a	-0.0071649747
40	0xbd89b0ff	-0.067232125
41	0x3dea07dd	0.11427281
42	0x3d835a21	0.06413675
43	0xbddf0734	-0.10890046
44	0xbdece3b6	-0.1156687
45	0xbd97c760	-0.07411075
46	0x3e75fdda	0.24022618
47	0xbc520abd	-0.012819943
48	0x3d4f7682	0.050650127
49	0xbec91d58	-0.392802
50	0x3e2e4cd7	0.170215
51	0xbe0b901e	-0.13629195
52	0xbdc29c44	-0.095024616
53	0x3da80fa8	0.08206111
54	0x3d8b8d5e	0.06814073
55	0x3e1d794c	0.15378302
56	0xbd9ef502	-0.07761575
57	0xbea715bf	-0.32633778
58	0xbe374c81	-0.17900278
59	0xbca45af7	-0.020062907
60	0x3ef2c41b	0.47415242
61	0x3eaf189c	0.34198463
62	0x3e963816	0.29339665
63	0x3ef6bbd9	0.4819019
64	0x3ee9e6f6	0.45684022
65	0x3eeb3d47	0.45945188
66	0x3ee3065c	0.4434079
67	0x3ec781ee	0.38966316
68	0x3f07626f	0.5288457
69	0x3f16daf5	0.5892785
70	0x3e260b81	0.16215326
71	0x3f11b888	0.569222
72	0x3effb71b	0.49944386
73	0x3eafa037	0.34301922
74	0x3e5b13e7	0.21394311
75	0x3f3117aa	0.69176733
76	0x3eb380cd	0.35059205
77	0x3eaa9e86	0.3332407
78	0x3f15d3f5	0.58526546
79	0x3f26458e	0.6494988

lstm.bias_hh_l1 f4 [80]
0	0x3f261cfd	0.6488798
1	0x3f350dc9	0.7072416
2	0x3eaef8e8	0.34174275
3	0x3f2f4c6f	0.68476003
4	0x3ea28dff	0.3174896
5	0x3e42a6de	0.19008967
6	0x3ed77edc	0.42088974
7	0x3f011747	0.50426143
8	0x3f1af225	0.60525733
9	0x3ec7a504	0.38993084
10	0x3e35acd2	0.17741707
11	0x3f3e659f	0.7437381
12	0x3f33ec82	0.7028276
13	0x3efd57be	0.49481004
14	0x3ef680ce	0.48145145
15	0x3f055d39	0.5209537
16	0x3f3c6c3f	0.7360267
17	0x3f4a2a88	0.7897115
18	0x3f1efe21	0.6210652
19	0x3f1f4912	0.6222087
20	0x3d98c795	0.07459942
21	0x3d78a650	0.060705483
22	0x3d4123c4	0.04715325
23	0x3c302187	0.010750181
24	0xbe28877a	-0.1645793
25	0x3d7cf8eb	0.061760824
26	0xbe3728bd	-0.17886634
27	0x3e42c3e3	0.19020037
28	0xbe57c1b0	-0.2106998
29	0x3e2361c0	0.15955257
30	0xbe20334f	-0.15644573
31	0x3e0f6b3b	0.14005749
32	0xbdfe54f9	-0.12418551
33	0x3e4b3e14	0.198479
34	0x3e28dcf9	0.16490544
35	0xbe1fd942	-0.15610221
36	0x3e484b83	0.19560055
37	0x3dc740c0	0.09729147
38	0x3d7193c5	0.058978815
39	0x3e1bd809	0.1521913
40	0xbd4f96bf	-0.050680872
41	0x3e89743e	0.26846498
42	0xbd5868af	-0.05283421
43	0xbd2e6b47	-0.042582776
44	0xbe48b6a2	-0.19600919
45	0xbd9eea0e	-0.07759486
46	0x3e4ab606	0.19795999
47	0xbe8c19ab	-0.27363333
48	0xbebd88e0	-0.3701849
49	0xbe2c584f	-0.16830562
50	0x3db789cd	0.0896183
51	0xbdc169d7	-0.094440155
52	0xbe147ec4	-0.14501482
53	0x3ebbb8f9	0.3666456
54	0x3e90aa7f	0.28255078
55	0x3ec12c7b	0.37729248
56	0x3ce452fe	0.027871605
57	0xbedff28c	-0.43739736
58	0xbdcf1e96	-0.10113256
59	0xbe06d796	-0.13168177
60	0x3f1c89bc	0.61147666
61	0x3f031a1d	0.5121172
62	0x3ebf0d16	0.3731467
63	0x3f0c15ce	0.5472077
64	0x3ecad14f	0.39612815
65	0x3e707748	0.23483002
66	0x3f23ef76	0.64037263
67	0x3f10f1ec	0.56619143
68	0x3ef5f043	0.48034868
69	0x3eefb251	0.46815732
70	0x3ea922a6	0.33034247
71	0x3f359927	0.70936817
72	0x3f328d73	0.69747084
73	0x3e82779f	0.2548189
74	0x3eb52c49	0.3538535
75	0x3eaf1842	0.34198195
76	0x3f2a9d67	0.66646427
77	0x3f2b4f0c	0.6691749
78	0x3f1fec0f	0.6246957
79	0x3f37faa6	0.71866834

fc.weight f4 [3, 20]
0	0xbf0802eb	-0.5312945
1	0x3ef70d08	0.4825213
2	0x3f3bddc7	0.7338528
3	0xbd22af47	-0.03971794
4	0x3f19ce99	0.6008087
5	0xbee09ead	-0.4387106
6	0x3f665e80	0.89987946
7	0xbf07d5bd	-0.53060514
8	0x3f3243ec	0.6963489
9	0xbea1a5e9	-0.31571892
10	0xbf1ae775	-0.60509425
11	0xbf53c30e	-0.82719505
12	0x3edc270a	0.42998534
13	0xbe64e2c1	-0.22352125
14	0x3ed66253	0.4187189
15	0x3f482df9	0.7819515
16	0x3f40c734	0.7530396
17	0xbeb5379d	-0.35393992
18	0x3f657079	0.89624745
19	0xbf5bb70e	-0.85826194
20	0x3ebcfe44	0.3691274
21	0xbefe6440	-0.4968586
22	0x3e85253b	0.26004967
23	0x3f1f7983	0.6229479
24	0x3f43348d	0.7625206
25	0xbf079c3d	-0.52972776
26	0xbdaddf1c	-0.0848982
27	0x3f39dd61	0.7260342
28	0x3f555614	0.8333447
29	0x3eb8159f	0.35953996
30	0xbf2541b4	-0.6455338
31	0x3eff2bc6	0.49838084
32	0x3f52934e	0.8225602
33	0x3f854dec	1.0414405
34	0xbf19ade0	-0.6003094
35	0xbcb8c840	-0.022556424
36	0x3f36c196	0.7138914
37	0x3f3553e7	0.7083115
38	0x3f65b0d1	0.89722925
39	0x3ed06618	0.4070289
40	0x3f01f322	0.50761616
41	0x3f2fa338	0.6860843
42	0xbeecfe9d	-0.46288005
43	0x3f646e8e	0.89231193
44	0xbe44c00a	-0.19213882
45	0x3f009a2e	0.5023526
46	0x3f17769b	0.5916535
47	0x3f53a0da	0.82667315
48	0xbe34191e	-0.17587706
49	0xbf02f97a	-0.5116192
50	0x3f035427	0.5130028
51	0xbf040bda	-0.51580584
52	0x3e80970c	0.2511524
53	0x3f19835b	0.5996606
54	0xbf149eb5	-0.5805467
55	0x3f694dda	0.9113442
56	0xbec2bbf6	-0.38034028
57	0x3eabae27	0.33531305
58	0x3f44c91e	0.7686938
59	0xbf10c396	-0.5654844

fc.bias f4 [3]
0	0x3e5c3c76	0.21507439
1	0xbea14f04	-0.31505597
2	0x3dbe2e6f	0.092862
