Neural_ODE/Serial/Trained_Weights.npy (npy, 1272 bytes, 1 tensors)

array f8 [1, 143]
0	0x3fea6595371469b9	0.8249002528930794
1	0x3fdb12a688eefd62	0.42301333782594075
2	0xbfd490111dbd3dd0	-0.3212931433126558
3	0xbfc967c034416efc	-0.1984787230638786
4	0xbfc3857ec0f64566	-0.15251144811604006
5	0x3fbb490b0764c88a	0.10658329897413146
6	0x3fe4c9139fb79aab	0.6495454902149808
7	0x3fdc85db6f469519	0.44566999308365635
8	0x3fb85a24468c9501	0.0951254532088406
9	0x3fe1df711269680b	0.5585255965809223
10	0x3fc7a2d818dbe078	0.1846571084386175
11	0x3fa646274ca4dc88	0.04350397883029539
12	0xbfeb94a4e40576e7	-0.8618950322667985
13	0x3feace6fc6e0e711	0.8376997837396819
14	0x3fe278952585804f	0.5772195561257919
15	0x3fd220e1b3b55177	0.28325693654667056
16	0x3faa161f1e8cf9bd	0.05095002410824943
17	0xbfcdc65fa0e24b3c	-0.23261638026868947
18	0x3feb6357952671e3	0.8558767235841142
19	0xbfd9e33553f8d76c	-0.40449269485849615
20	0xbfef89b7d09c527e	-0.9855612825800362
21	0xbfe0243e34394749	-0.504424192428112
22	0x3fd2edd296f5bc61	0.29576554052522935
23	0x3fdc265a2e917283	0.4398408369795918
24	0x3fa4505a9b07f25f	0.039675551819503545
25	0x3fe8c97a0e8eccb0	0.7745943340618364
26	0x3fb807839836e6a9	0.0938646551720931
27	0x3fe5b8a7594bf106	0.6787907356333853
28	0x3fa8d90a7e705de1	0.04853089135593414
29	0x3ff225b49b3c6faa	1.1342054428014117
30	0x3fdac86ad5432464	0.4184825022353549
31	0xbfe15a544f707cdb	-0.5422765304137117
32	0xbff24d6ae3602364	-1.1439007646424324
33	0x3ff24750257b00fb	1.1424104179459948
34	0x3fe8276a322d2f80	0.7548113803872951
35	0xbfda6f3f732caac1	-0.4130400299788271
36	0x3fd425a0ac562c3a	0.31479660825488376
37	0xbfc641b59cc0f011	-0.17388029245364625
38	0x3ff994a283f401ef	1.5987877993030641
39	0x3fb76781868fe7f7	0.09142312560280162
40	0x3fee4ee13443b52e	0.9471288700857821
41	0xbfeb154b5ae066d9	-0.8463494086201663
42	0xbfebf0e964e88de4	-0.8731581660144312
43	0xbf9586f058b034ca	-0.021022563374619087
44	0x3fe1917277d966e0	0.5490047779851146
45	0xbfddaaf3053d316a	-0.4635589171564535
46	0xbfeb5a80aa2232aa	-0.8547976801797479
47	0xbfbb18ba31f8f048	-0.1058460590365381
48	0xbfd762cb93b6aa34	-0.36540498185300696
49	0x3feff31c919041ed	0.998426708511088
50	0x3fd5e0ff8c54ff0c	0.341857802432046
51	0x3fb9f74da455737c	0.1014297987180281
52	0xbff55f0456237510	-1.3356974949632026
53	0x3ff8e1f4cf3eded2	1.5551651092081795
54	0x3febd0eedf357668	0.8692545280025117
55	0xbfe8e3d2fcb33322	-0.77781056743115
56	0x3fe68be0fced0e2a	0.7045750560723196
57	0x3fef92d6473bd921	0.9866744414601137
58	0x3ff9d9bc04e858f0	1.6156578246787454
59	0xbfdef6704bb20093	-0.48379142181512086
60	0xbfd63e631f47b57e	-0.3475578122587065
61	0xbfc861f319115676	-0.19048918460855518
62	0x3fcae964afc9e606	0.21024759849005664
63	0x3fe13f14ebdded87	0.5389504057670117
64	0x3fdb7103a9d3e7fe	0.42877284607641275
65	0xbfc6b3abb50fe28d	-0.17735811558647577
66	0x3fe0503b449fdd23	0.5097938862153665
67	0xbfb48950b830cfea	-0.08022026535837737
68	0x3fc61106f3394a87	0.17239462734376707
69	0x3fd9dac3742502da	0.4039772638534892
70	0xbfd08b6cfd76b6dc	-0.25850987198178443
71	0xbfd13b4350699aa4	-0.2692421231535411
72	0xbfd01704a634ab8b	-0.25140491705922646
73	0x3fd578faf531f7d1	0.3355090517505888
74	0x3fca947621344abb	0.20765568372060791
75	0x3fb03758654c7ad8	0.06334450219263077
76	0x3f9ca6ce1a9d346c	0.027980060934443093
77	0x3fd47230a447fff1	0.31946960490313275
78	0x3fd82c3df183e49e	0.37770031533688975
79	0x3fcd5af1f2ce07e5	0.22933792453483118
80	0xbfbe6d2112985e4f	-0.11885267929061992
81	0xbfdd77ebc2864cf1	-0.4604443931250009
82	0x3fecfd7e0b6d70c2	0.9059438918298144
83	0xbfe0ede930edc0f2	-0.5290418582572143
84	0xbfdb2868e7af13ee	-0.4243414175546708
85	0xbfd14cdafb9f3e3e	-0.2703158814665335
86	0xbfca1705de03cf9f	-0.20382760372706074
87	0xbfdbcc75df343631	-0.434354274723634
88	0xbfe154fd4f22d607	-0.5416246934534578
89	0xbfb5f3c11e7ee777	-0.08575064653896712
90	0x3fcf0806a0359c53	0.24243243048406046
91	0x3fac22a6ae0e609a	0.05495186686238292
92	0xbfb08935bd6fea72	-0.06459365725451408
93	0x3fdae88089370017	0.42044080161940783
94	0x3fc7aa57d3aed788	0.18488595806200814
95	0x3fef6b1b9ab31f41	0.9818246861914092
96	0xbfde6af64d740412	-0.4752784496668606
97	0x3fb8d95f332025e2	0.0970668315714174
98	0xbfdf81d6c7b81b47	-0.4922997427351458
99	0xbfd5123f67b6ff3b	-0.32923874977494777
100	0x3fe628c96b43466e	0.6924788565613207
101	0x3fe705dcd6a0e4e4	0.7194656555140253
102	0xbfe59476e8188235	-0.6743731053466663
103	0xbfcfa3af9a8f6489	-0.24718279883271446
104	0xbfb64bd6850b4ad0	-0.08709469555041527
105	0xbfdcab5deb70c8e2	-0.4479594039177198
106	0x3fae165e7cd88a7b	0.05876441263196327
107	0x3fb7094d6a8cc040	0.0899856934672707
108	0x3fc1aa5fcc16e134	0.13801190820027787
109	0xbfec0a7091eb3022	-0.8762743806814834
110	0x3fe8e7b03633022b	0.7782822664813173
111	0x3fc26f4bfa9606d8	0.14402150855681017
112	0x3fc4d513839bf37d	0.16275257040242855
113	0xbfd295177d86e052	-0.2903498388145681
114	0xbfb03745080f779f	-0.06334334799563955
115	0x3fd5a70b76a6f748	0.3383206042016025
116	0x3fbc3cbd2c952568	0.11030180300180847
117	0x3fd62b870541b2ac	0.3464067031225493
118	0x3fe55eddad031aba	0.6678303126471612
119	0xbfe710dc69f3d0b9	-0.7208082265265353
120	0xbfd5688346685d17	-0.3345039546561152
121	0xbfecb77095eb9c5b	-0.8973925521976399
122	0x3fc32399281137e7	0.1495238729134478
123	0x3fb92d81be6cc021	0.09835062884371883
124	0xbfd4432d960c61d6	-0.31660022404824184
125	0xbfdb5e8ba5298704	-0.42764559868929575
126	0xbfe4e5e56e992930	-0.6530635032770871
127	0xbfc2b613633af91d	-0.14618151040299035
128	0x3fd6722d5bba7724	0.350718822077271
129	0x3fc7dec1f2d1189a	0.18648552280700842
130	0xbf88c612e2aa949e	-0.012096545736606065
131	0x3f7c52ddb905de20	0.006914964775539129
132	0x3ff1f7c905adf8d7	1.1229944440706754
133	0x3fd816ea8711c717	0.3763986891782322
134	0xbfda0a16d32838fa	-0.4068657934266323
135	0xbfdb9b8608a0a42e	-0.43136740534333995
136	0xbfe8026228173dc2	-0.7502909453414122
137	0xbf93d7482bd77684	-0.019375922847635355
138	0x3fce80caaa159ed6	0.23830540947823547
139	0xbfcf07fe8db4652f	-0.24243146819279945
140	0xbfd0deedc04c1e29	-0.2636064889815964
141	0xbfe513088670a5c3	-0.6585734010488341
142	0x3fb1b188c67d7f5e	0.06911520811035873
